node {
  name: "Const"
  op: "Const"
  attr {
    key: "_output_shapes"
    value {
      list {
        shape {
        }
      }
    }
  }
  attr {
    key: "dtype"
    value {
      type: DT_STRING
    }
  }
  attr {
    key: "value"
    value {
      tensor {
        dtype: DT_STRING
        tensor_shape {
        }
        string_val: "../data/guitar.tfrecords"
      }
    }
  }
}
node {
  name: "flat_filenames/shape"
  op: "Const"
  attr {
    key: "_output_shapes"
    value {
      list {
        shape {
          dim {
            size: 1
          }
        }
      }
    }
  }
  attr {
    key: "dtype"
    value {
      type: DT_INT32
    }
  }
  attr {
    key: "value"
    value {
      tensor {
        dtype: DT_INT32
        tensor_shape {
          dim {
            size: 1
          }
        }
        int_val: -1
      }
    }
  }
}
node {
  name: "flat_filenames"
  op: "Reshape"
  input: "Const"
  input: "flat_filenames/shape"
  attr {
    key: "T"
    value {
      type: DT_STRING
    }
  }
  attr {
    key: "Tshape"
    value {
      type: DT_INT32
    }
  }
  attr {
    key: "_output_shapes"
    value {
      list {
        shape {
          dim {
            size: 1
          }
        }
      }
    }
  }
}
node {
  name: "batch_size"
  op: "Const"
  attr {
    key: "_output_shapes"
    value {
      list {
        shape {
        }
      }
    }
  }
  attr {
    key: "dtype"
    value {
      type: DT_INT64
    }
  }
  attr {
    key: "value"
    value {
      tensor {
        dtype: DT_INT64
        tensor_shape {
        }
        int64_val: 32
      }
    }
  }
}
node {
  name: "drop_remainder"
  op: "Const"
  attr {
    key: "_output_shapes"
    value {
      list {
        shape {
        }
      }
    }
  }
  attr {
    key: "dtype"
    value {
      type: DT_BOOL
    }
  }
  attr {
    key: "value"
    value {
      tensor {
        dtype: DT_BOOL
        tensor_shape {
        }
        bool_val: false
      }
    }
  }
}
node {
  name: "buffer_size"
  op: "Const"
  attr {
    key: "_output_shapes"
    value {
      list {
        shape {
        }
      }
    }
  }
  attr {
    key: "dtype"
    value {
      type: DT_INT64
    }
  }
  attr {
    key: "value"
    value {
      tensor {
        dtype: DT_INT64
        tensor_shape {
        }
        int64_val: 10000
      }
    }
  }
}
node {
  name: "seed"
  op: "Const"
  attr {
    key: "_output_shapes"
    value {
      list {
        shape {
        }
      }
    }
  }
  attr {
    key: "dtype"
    value {
      type: DT_INT64
    }
  }
  attr {
    key: "value"
    value {
      tensor {
        dtype: DT_INT64
        tensor_shape {
        }
        int64_val: 0
      }
    }
  }
}
node {
  name: "seed2"
  op: "Const"
  attr {
    key: "_output_shapes"
    value {
      list {
        shape {
        }
      }
    }
  }
  attr {
    key: "dtype"
    value {
      type: DT_INT64
    }
  }
  attr {
    key: "value"
    value {
      tensor {
        dtype: DT_INT64
        tensor_shape {
        }
        int64_val: 0
      }
    }
  }
}
node {
  name: "count"
  op: "Const"
  attr {
    key: "_output_shapes"
    value {
      list {
        shape {
        }
      }
    }
  }
  attr {
    key: "dtype"
    value {
      type: DT_INT64
    }
  }
  attr {
    key: "value"
    value {
      tensor {
        dtype: DT_INT64
        tensor_shape {
        }
        int64_val: -1
      }
    }
  }
}
node {
  name: "OneShotIterator"
  op: "OneShotIterator"
  attr {
    key: "_output_shapes"
    value {
      list {
        shape {
        }
      }
    }
  }
  attr {
    key: "container"
    value {
      s: ""
    }
  }
  attr {
    key: "dataset_factory"
    value {
      func {
        name: "_make_dataset_SmWORJYaibI"
      }
    }
  }
  attr {
    key: "output_shapes"
    value {
      list {
        shape {
          dim {
            size: -1
          }
          dim {
            size: 65536
          }
        }
      }
    }
  }
  attr {
    key: "output_types"
    value {
      list {
        type: DT_FLOAT
      }
    }
  }
  attr {
    key: "shared_name"
    value {
      s: ""
    }
  }
}
node {
  name: "IteratorToStringHandle"
  op: "IteratorToStringHandle"
  input: "OneShotIterator"
  attr {
    key: "_output_shapes"
    value {
      list {
        shape {
        }
      }
    }
  }
}
node {
  name: "IteratorGetNext"
  op: "IteratorGetNext"
  input: "OneShotIterator"
  attr {
    key: "_output_shapes"
    value {
      list {
        shape {
          dim {
            size: -1
          }
          dim {
            size: 65536
          }
        }
      }
    }
  }
  attr {
    key: "output_shapes"
    value {
      list {
        shape {
          dim {
            size: -1
          }
          dim {
            size: 65536
          }
        }
      }
    }
  }
  attr {
    key: "output_types"
    value {
      list {
        type: DT_FLOAT
      }
    }
  }
}
node {
  name: "guitar_model/H/Initializer/random_uniform/shape"
  op: "Const"
  attr {
    key: "_class"
    value {
      list {
        s: "loc:@guitar_model/H"
      }
    }
  }
  attr {
    key: "_output_shapes"
    value {
      list {
        shape {
          dim {
            size: 2
          }
        }
      }
    }
  }
  attr {
    key: "dtype"
    value {
      type: DT_INT32
    }
  }
  attr {
    key: "value"
    value {
      tensor {
        dtype: DT_INT32
        tensor_shape {
          dim {
            size: 2
          }
        }
        tensor_content: "\005\000\000\000\005\000\000\000"
      }
    }
  }
}
node {
  name: "guitar_model/H/Initializer/random_uniform/min"
  op: "Const"
  attr {
    key: "_class"
    value {
      list {
        s: "loc:@guitar_model/H"
      }
    }
  }
  attr {
    key: "_output_shapes"
    value {
      list {
        shape {
        }
      }
    }
  }
  attr {
    key: "dtype"
    value {
      type: DT_FLOAT
    }
  }
  attr {
    key: "value"
    value {
      tensor {
        dtype: DT_FLOAT
        tensor_shape {
        }
        float_val: -0.7745966911315918
      }
    }
  }
}
node {
  name: "guitar_model/H/Initializer/random_uniform/max"
  op: "Const"
  attr {
    key: "_class"
    value {
      list {
        s: "loc:@guitar_model/H"
      }
    }
  }
  attr {
    key: "_output_shapes"
    value {
      list {
        shape {
        }
      }
    }
  }
  attr {
    key: "dtype"
    value {
      type: DT_FLOAT
    }
  }
  attr {
    key: "value"
    value {
      tensor {
        dtype: DT_FLOAT
        tensor_shape {
        }
        float_val: 0.7745966911315918
      }
    }
  }
}
node {
  name: "guitar_model/H/Initializer/random_uniform/RandomUniform"
  op: "RandomUniform"
  input: "guitar_model/H/Initializer/random_uniform/shape"
  attr {
    key: "T"
    value {
      type: DT_INT32
    }
  }
  attr {
    key: "_class"
    value {
      list {
        s: "loc:@guitar_model/H"
      }
    }
  }
  attr {
    key: "_output_shapes"
    value {
      list {
        shape {
          dim {
            size: 5
          }
          dim {
            size: 5
          }
        }
      }
    }
  }
  attr {
    key: "dtype"
    value {
      type: DT_FLOAT
    }
  }
  attr {
    key: "seed"
    value {
      i: 0
    }
  }
  attr {
    key: "seed2"
    value {
      i: 0
    }
  }
}
node {
  name: "guitar_model/H/Initializer/random_uniform/sub"
  op: "Sub"
  input: "guitar_model/H/Initializer/random_uniform/max"
  input: "guitar_model/H/Initializer/random_uniform/min"
  attr {
    key: "T"
    value {
      type: DT_FLOAT
    }
  }
  attr {
    key: "_class"
    value {
      list {
        s: "loc:@guitar_model/H"
      }
    }
  }
  attr {
    key: "_output_shapes"
    value {
      list {
        shape {
        }
      }
    }
  }
}
node {
  name: "guitar_model/H/Initializer/random_uniform/mul"
  op: "Mul"
  input: "guitar_model/H/Initializer/random_uniform/RandomUniform"
  input: "guitar_model/H/Initializer/random_uniform/sub"
  attr {
    key: "T"
    value {
      type: DT_FLOAT
    }
  }
  attr {
    key: "_class"
    value {
      list {
        s: "loc:@guitar_model/H"
      }
    }
  }
  attr {
    key: "_output_shapes"
    value {
      list {
        shape {
          dim {
            size: 5
          }
          dim {
            size: 5
          }
        }
      }
    }
  }
}
node {
  name: "guitar_model/H/Initializer/random_uniform"
  op: "Add"
  input: "guitar_model/H/Initializer/random_uniform/mul"
  input: "guitar_model/H/Initializer/random_uniform/min"
  attr {
    key: "T"
    value {
      type: DT_FLOAT
    }
  }
  attr {
    key: "_class"
    value {
      list {
        s: "loc:@guitar_model/H"
      }
    }
  }
  attr {
    key: "_output_shapes"
    value {
      list {
        shape {
          dim {
            size: 5
          }
          dim {
            size: 5
          }
        }
      }
    }
  }
}
node {
  name: "guitar_model/H"
  op: "VariableV2"
  attr {
    key: "_class"
    value {
      list {
        s: "loc:@guitar_model/H"
      }
    }
  }
  attr {
    key: "_output_shapes"
    value {
      list {
        shape {
          dim {
            size: 5
          }
          dim {
            size: 5
          }
        }
      }
    }
  }
  attr {
    key: "container"
    value {
      s: ""
    }
  }
  attr {
    key: "dtype"
    value {
      type: DT_FLOAT
    }
  }
  attr {
    key: "shape"
    value {
      shape {
        dim {
          size: 5
        }
        dim {
          size: 5
        }
      }
    }
  }
  attr {
    key: "shared_name"
    value {
      s: ""
    }
  }
}
node {
  name: "guitar_model/H/Assign"
  op: "Assign"
  input: "guitar_model/H"
  input: "guitar_model/H/Initializer/random_uniform"
  attr {
    key: "T"
    value {
      type: DT_FLOAT
    }
  }
  attr {
    key: "_class"
    value {
      list {
        s: "loc:@guitar_model/H"
      }
    }
  }
  attr {
    key: "_output_shapes"
    value {
      list {
        shape {
          dim {
            size: 5
          }
          dim {
            size: 5
          }
        }
      }
    }
  }
  attr {
    key: "use_locking"
    value {
      b: true
    }
  }
  attr {
    key: "validate_shape"
    value {
      b: true
    }
  }
}
node {
  name: "guitar_model/H/read"
  op: "Identity"
  input: "guitar_model/H"
  attr {
    key: "T"
    value {
      type: DT_FLOAT
    }
  }
  attr {
    key: "_class"
    value {
      list {
        s: "loc:@guitar_model/H"
      }
    }
  }
  attr {
    key: "_output_shapes"
    value {
      list {
        shape {
          dim {
            size: 5
          }
          dim {
            size: 5
          }
        }
      }
    }
  }
}
node {
  name: "guitar_model/symmetrize/MatrixBandPart/num_lower"
  op: "Const"
  attr {
    key: "_output_shapes"
    value {
      list {
        shape {
        }
      }
    }
  }
  attr {
    key: "dtype"
    value {
      type: DT_INT64
    }
  }
  attr {
    key: "value"
    value {
      tensor {
        dtype: DT_INT64
        tensor_shape {
        }
        int64_val: -1
      }
    }
  }
}
node {
  name: "guitar_model/symmetrize/MatrixBandPart/num_upper"
  op: "Const"
  attr {
    key: "_output_shapes"
    value {
      list {
        shape {
        }
      }
    }
  }
  attr {
    key: "dtype"
    value {
      type: DT_INT64
    }
  }
  attr {
    key: "value"
    value {
      tensor {
        dtype: DT_INT64
        tensor_shape {
        }
        int64_val: 0
      }
    }
  }
}
node {
  name: "guitar_model/symmetrize/MatrixBandPart"
  op: "MatrixBandPart"
  input: "guitar_model/H/read"
  input: "guitar_model/symmetrize/MatrixBandPart/num_lower"
  input: "guitar_model/symmetrize/MatrixBandPart/num_upper"
  attr {
    key: "T"
    value {
      type: DT_FLOAT
    }
  }
  attr {
    key: "Tindex"
    value {
      type: DT_INT64
    }
  }
  attr {
    key: "_output_shapes"
    value {
      list {
        shape {
          dim {
            size: 5
          }
          dim {
            size: 5
          }
        }
      }
    }
  }
}
node {
  name: "guitar_model/symmetrize/matrix_transpose/transpose/perm"
  op: "Const"
  attr {
    key: "_output_shapes"
    value {
      list {
        shape {
          dim {
            size: 2
          }
        }
      }
    }
  }
  attr {
    key: "dtype"
    value {
      type: DT_INT32
    }
  }
  attr {
    key: "value"
    value {
      tensor {
        dtype: DT_INT32
        tensor_shape {
          dim {
            size: 2
          }
        }
        tensor_content: "\001\000\000\000\000\000\000\000"
      }
    }
  }
}
node {
  name: "guitar_model/symmetrize/matrix_transpose/transpose"
  op: "Transpose"
  input: "guitar_model/symmetrize/MatrixBandPart"
  input: "guitar_model/symmetrize/matrix_transpose/transpose/perm"
  attr {
    key: "T"
    value {
      type: DT_FLOAT
    }
  }
  attr {
    key: "Tperm"
    value {
      type: DT_INT32
    }
  }
  attr {
    key: "_output_shapes"
    value {
      list {
        shape {
          dim {
            size: 5
          }
          dim {
            size: 5
          }
        }
      }
    }
  }
}
node {
  name: "guitar_model/symmetrize/add"
  op: "Add"
  input: "guitar_model/symmetrize/MatrixBandPart"
  input: "guitar_model/symmetrize/matrix_transpose/transpose"
  attr {
    key: "T"
    value {
      type: DT_FLOAT
    }
  }
  attr {
    key: "_output_shapes"
    value {
      list {
        shape {
          dim {
            size: 5
          }
          dim {
            size: 5
          }
        }
      }
    }
  }
}
node {
  name: "guitar_model/R/Initializer/random_uniform/shape"
  op: "Const"
  attr {
    key: "_class"
    value {
      list {
        s: "loc:@guitar_model/R"
      }
    }
  }
  attr {
    key: "_output_shapes"
    value {
      list {
        shape {
          dim {
            size: 2
          }
        }
      }
    }
  }
  attr {
    key: "dtype"
    value {
      type: DT_INT32
    }
  }
  attr {
    key: "value"
    value {
      tensor {
        dtype: DT_INT32
        tensor_shape {
          dim {
            size: 2
          }
        }
        tensor_content: "\005\000\000\000\005\000\000\000"
      }
    }
  }
}
node {
  name: "guitar_model/R/Initializer/random_uniform/min"
  op: "Const"
  attr {
    key: "_class"
    value {
      list {
        s: "loc:@guitar_model/R"
      }
    }
  }
  attr {
    key: "_output_shapes"
    value {
      list {
        shape {
        }
      }
    }
  }
  attr {
    key: "dtype"
    value {
      type: DT_FLOAT
    }
  }
  attr {
    key: "value"
    value {
      tensor {
        dtype: DT_FLOAT
        tensor_shape {
        }
        float_val: -0.7745966911315918
      }
    }
  }
}
node {
  name: "guitar_model/R/Initializer/random_uniform/max"
  op: "Const"
  attr {
    key: "_class"
    value {
      list {
        s: "loc:@guitar_model/R"
      }
    }
  }
  attr {
    key: "_output_shapes"
    value {
      list {
        shape {
        }
      }
    }
  }
  attr {
    key: "dtype"
    value {
      type: DT_FLOAT
    }
  }
  attr {
    key: "value"
    value {
      tensor {
        dtype: DT_FLOAT
        tensor_shape {
        }
        float_val: 0.7745966911315918
      }
    }
  }
}
node {
  name: "guitar_model/R/Initializer/random_uniform/RandomUniform"
  op: "RandomUniform"
  input: "guitar_model/R/Initializer/random_uniform/shape"
  attr {
    key: "T"
    value {
      type: DT_INT32
    }
  }
  attr {
    key: "_class"
    value {
      list {
        s: "loc:@guitar_model/R"
      }
    }
  }
  attr {
    key: "_output_shapes"
    value {
      list {
        shape {
          dim {
            size: 5
          }
          dim {
            size: 5
          }
        }
      }
    }
  }
  attr {
    key: "dtype"
    value {
      type: DT_FLOAT
    }
  }
  attr {
    key: "seed"
    value {
      i: 0
    }
  }
  attr {
    key: "seed2"
    value {
      i: 0
    }
  }
}
node {
  name: "guitar_model/R/Initializer/random_uniform/sub"
  op: "Sub"
  input: "guitar_model/R/Initializer/random_uniform/max"
  input: "guitar_model/R/Initializer/random_uniform/min"
  attr {
    key: "T"
    value {
      type: DT_FLOAT
    }
  }
  attr {
    key: "_class"
    value {
      list {
        s: "loc:@guitar_model/R"
      }
    }
  }
  attr {
    key: "_output_shapes"
    value {
      list {
        shape {
        }
      }
    }
  }
}
node {
  name: "guitar_model/R/Initializer/random_uniform/mul"
  op: "Mul"
  input: "guitar_model/R/Initializer/random_uniform/RandomUniform"
  input: "guitar_model/R/Initializer/random_uniform/sub"
  attr {
    key: "T"
    value {
      type: DT_FLOAT
    }
  }
  attr {
    key: "_class"
    value {
      list {
        s: "loc:@guitar_model/R"
      }
    }
  }
  attr {
    key: "_output_shapes"
    value {
      list {
        shape {
          dim {
            size: 5
          }
          dim {
            size: 5
          }
        }
      }
    }
  }
}
node {
  name: "guitar_model/R/Initializer/random_uniform"
  op: "Add"
  input: "guitar_model/R/Initializer/random_uniform/mul"
  input: "guitar_model/R/Initializer/random_uniform/min"
  attr {
    key: "T"
    value {
      type: DT_FLOAT
    }
  }
  attr {
    key: "_class"
    value {
      list {
        s: "loc:@guitar_model/R"
      }
    }
  }
  attr {
    key: "_output_shapes"
    value {
      list {
        shape {
          dim {
            size: 5
          }
          dim {
            size: 5
          }
        }
      }
    }
  }
}
node {
  name: "guitar_model/R"
  op: "VariableV2"
  attr {
    key: "_class"
    value {
      list {
        s: "loc:@guitar_model/R"
      }
    }
  }
  attr {
    key: "_output_shapes"
    value {
      list {
        shape {
          dim {
            size: 5
          }
          dim {
            size: 5
          }
        }
      }
    }
  }
  attr {
    key: "container"
    value {
      s: ""
    }
  }
  attr {
    key: "dtype"
    value {
      type: DT_FLOAT
    }
  }
  attr {
    key: "shape"
    value {
      shape {
        dim {
          size: 5
        }
        dim {
          size: 5
        }
      }
    }
  }
  attr {
    key: "shared_name"
    value {
      s: ""
    }
  }
}
node {
  name: "guitar_model/R/Assign"
  op: "Assign"
  input: "guitar_model/R"
  input: "guitar_model/R/Initializer/random_uniform"
  attr {
    key: "T"
    value {
      type: DT_FLOAT
    }
  }
  attr {
    key: "_class"
    value {
      list {
        s: "loc:@guitar_model/R"
      }
    }
  }
  attr {
    key: "_output_shapes"
    value {
      list {
        shape {
          dim {
            size: 5
          }
          dim {
            size: 5
          }
        }
      }
    }
  }
  attr {
    key: "use_locking"
    value {
      b: true
    }
  }
  attr {
    key: "validate_shape"
    value {
      b: true
    }
  }
}
node {
  name: "guitar_model/R/read"
  op: "Identity"
  input: "guitar_model/R"
  attr {
    key: "T"
    value {
      type: DT_FLOAT
    }
  }
  attr {
    key: "_class"
    value {
      list {
        s: "loc:@guitar_model/R"
      }
    }
  }
  attr {
    key: "_output_shapes"
    value {
      list {
        shape {
          dim {
            size: 5
          }
          dim {
            size: 5
          }
        }
      }
    }
  }
}
node {
  name: "guitar_model/strided_slice/stack"
  op: "Const"
  attr {
    key: "_output_shapes"
    value {
      list {
        shape {
          dim {
            size: 2
          }
        }
      }
    }
  }
  attr {
    key: "dtype"
    value {
      type: DT_INT32
    }
  }
  attr {
    key: "value"
    value {
      tensor {
        dtype: DT_INT32
        tensor_shape {
          dim {
            size: 2
          }
        }
        tensor_content: "\000\000\000\000\001\000\000\000"
      }
    }
  }
}
node {
  name: "guitar_model/strided_slice/stack_1"
  op: "Const"
  attr {
    key: "_output_shapes"
    value {
      list {
        shape {
          dim {
            size: 2
          }
        }
      }
    }
  }
  attr {
    key: "dtype"
    value {
      type: DT_INT32
    }
  }
  attr {
    key: "value"
    value {
      tensor {
        dtype: DT_INT32
        tensor_shape {
          dim {
            size: 2
          }
        }
        tensor_content: "\000\000\000\000\000\000\000\000"
      }
    }
  }
}
node {
  name: "guitar_model/strided_slice/stack_2"
  op: "Const"
  attr {
    key: "_output_shapes"
    value {
      list {
        shape {
          dim {
            size: 2
          }
        }
      }
    }
  }
  attr {
    key: "dtype"
    value {
      type: DT_INT32
    }
  }
  attr {
    key: "value"
    value {
      tensor {
        dtype: DT_INT32
        tensor_shape {
          dim {
            size: 2
          }
        }
        tensor_content: "\001\000\000\000\001\000\000\000"
      }
    }
  }
}
node {
  name: "guitar_model/strided_slice"
  op: "StridedSlice"
  input: "IteratorGetNext"
  input: "guitar_model/strided_slice/stack"
  input: "guitar_model/strided_slice/stack_1"
  input: "guitar_model/strided_slice/stack_2"
  attr {
    key: "Index"
    value {
      type: DT_INT32
    }
  }
  attr {
    key: "T"
    value {
      type: DT_FLOAT
    }
  }
  attr {
    key: "_output_shapes"
    value {
      list {
        shape {
          dim {
            size: -1
          }
          dim {
            size: 65535
          }
        }
      }
    }
  }
  attr {
    key: "begin_mask"
    value {
      i: 1
    }
  }
  attr {
    key: "ellipsis_mask"
    value {
      i: 0
    }
  }
  attr {
    key: "end_mask"
    value {
      i: 3
    }
  }
  attr {
    key: "new_axis_mask"
    value {
      i: 0
    }
  }
  attr {
    key: "shrink_axis_mask"
    value {
      i: 0
    }
  }
}
node {
  name: "guitar_model/strided_slice_1/stack"
  op: "Const"
  attr {
    key: "_output_shapes"
    value {
      list {
        shape {
          dim {
            size: 2
          }
        }
      }
    }
  }
  attr {
    key: "dtype"
    value {
      type: DT_INT32
    }
  }
  attr {
    key: "value"
    value {
      tensor {
        dtype: DT_INT32
        tensor_shape {
          dim {
            size: 2
          }
        }
        tensor_content: "\000\000\000\000\000\000\000\000"
      }
    }
  }
}
node {
  name: "guitar_model/strided_slice_1/stack_1"
  op: "Const"
  attr {
    key: "_output_shapes"
    value {
      list {
        shape {
          dim {
            size: 2
          }
        }
      }
    }
  }
  attr {
    key: "dtype"
    value {
      type: DT_INT32
    }
  }
  attr {
    key: "value"
    value {
      tensor {
        dtype: DT_INT32
        tensor_shape {
          dim {
            size: 2
          }
        }
        tensor_content: "\000\000\000\000\377\377\377\377"
      }
    }
  }
}
node {
  name: "guitar_model/strided_slice_1/stack_2"
  op: "Const"
  attr {
    key: "_output_shapes"
    value {
      list {
        shape {
          dim {
            size: 2
          }
        }
      }
    }
  }
  attr {
    key: "dtype"
    value {
      type: DT_INT32
    }
  }
  attr {
    key: "value"
    value {
      tensor {
        dtype: DT_INT32
        tensor_shape {
          dim {
            size: 2
          }
        }
        tensor_content: "\001\000\000\000\001\000\000\000"
      }
    }
  }
}
node {
  name: "guitar_model/strided_slice_1"
  op: "StridedSlice"
  input: "IteratorGetNext"
  input: "guitar_model/strided_slice_1/stack"
  input: "guitar_model/strided_slice_1/stack_1"
  input: "guitar_model/strided_slice_1/stack_2"
  attr {
    key: "Index"
    value {
      type: DT_INT32
    }
  }
  attr {
    key: "T"
    value {
      type: DT_FLOAT
    }
  }
  attr {
    key: "_output_shapes"
    value {
      list {
        shape {
          dim {
            size: -1
          }
          dim {
            size: 65535
          }
        }
      }
    }
  }
  attr {
    key: "begin_mask"
    value {
      i: 3
    }
  }
  attr {
    key: "ellipsis_mask"
    value {
      i: 0
    }
  }
  attr {
    key: "end_mask"
    value {
      i: 1
    }
  }
  attr {
    key: "new_axis_mask"
    value {
      i: 0
    }
  }
  attr {
    key: "shrink_axis_mask"
    value {
      i: 0
    }
  }
}
node {
  name: "guitar_model/sub"
  op: "Sub"
  input: "guitar_model/strided_slice"
  input: "guitar_model/strided_slice_1"
  attr {
    key: "T"
    value {
      type: DT_FLOAT
    }
  }
  attr {
    key: "_output_shapes"
    value {
      list {
        shape {
          dim {
            size: -1
          }
          dim {
            size: 65535
          }
        }
      }
    }
  }
}
node {
  name: "guitar_model/strided_slice_2/stack"
  op: "Const"
  attr {
    key: "_output_shapes"
    value {
      list {
        shape {
          dim {
            size: 2
          }
        }
      }
    }
  }
  attr {
    key: "dtype"
    value {
      type: DT_INT32
    }
  }
  attr {
    key: "value"
    value {
      tensor {
        dtype: DT_INT32
        tensor_shape {
          dim {
            size: 2
          }
        }
        tensor_content: "\000\000\000\000\000\000\000\000"
      }
    }
  }
}
node {
  name: "guitar_model/strided_slice_2/stack_1"
  op: "Const"
  attr {
    key: "_output_shapes"
    value {
      list {
        shape {
          dim {
            size: 2
          }
        }
      }
    }
  }
  attr {
    key: "dtype"
    value {
      type: DT_INT32
    }
  }
  attr {
    key: "value"
    value {
      tensor {
        dtype: DT_INT32
        tensor_shape {
          dim {
            size: 2
          }
        }
        tensor_content: "\000\000\000\000\001\000\000\000"
      }
    }
  }
}
node {
  name: "guitar_model/strided_slice_2/stack_2"
  op: "Const"
  attr {
    key: "_output_shapes"
    value {
      list {
        shape {
          dim {
            size: 2
          }
        }
      }
    }
  }
  attr {
    key: "dtype"
    value {
      type: DT_INT32
    }
  }
  attr {
    key: "value"
    value {
      tensor {
        dtype: DT_INT32
        tensor_shape {
          dim {
            size: 2
          }
        }
        tensor_content: "\001\000\000\000\001\000\000\000"
      }
    }
  }
}
node {
  name: "guitar_model/strided_slice_2"
  op: "StridedSlice"
  input: "guitar_model/sub"
  input: "guitar_model/strided_slice_2/stack"
  input: "guitar_model/strided_slice_2/stack_1"
  input: "guitar_model/strided_slice_2/stack_2"
  attr {
    key: "Index"
    value {
      type: DT_INT32
    }
  }
  attr {
    key: "T"
    value {
      type: DT_FLOAT
    }
  }
  attr {
    key: "_output_shapes"
    value {
      list {
        shape {
          dim {
            size: -1
          }
        }
      }
    }
  }
  attr {
    key: "begin_mask"
    value {
      i: 1
    }
  }
  attr {
    key: "ellipsis_mask"
    value {
      i: 0
    }
  }
  attr {
    key: "end_mask"
    value {
      i: 1
    }
  }
  attr {
    key: "new_axis_mask"
    value {
      i: 0
    }
  }
  attr {
    key: "shrink_axis_mask"
    value {
      i: 2
    }
  }
}
node {
  name: "guitar_model/zeros_like"
  op: "ZerosLike"
  input: "guitar_model/strided_slice_2"
  attr {
    key: "T"
    value {
      type: DT_FLOAT
    }
  }
  attr {
    key: "_output_shapes"
    value {
      list {
        shape {
          dim {
            size: -1
          }
        }
      }
    }
  }
}
node {
  name: "guitar_model/Cast"
  op: "Cast"
  input: "guitar_model/zeros_like"
  attr {
    key: "DstT"
    value {
      type: DT_INT32
    }
  }
  attr {
    key: "SrcT"
    value {
      type: DT_FLOAT
    }
  }
  attr {
    key: "_output_shapes"
    value {
      list {
        shape {
          dim {
            size: -1
          }
        }
      }
    }
  }
}
node {
  name: "guitar_model/one_hot/on_value"
  op: "Const"
  attr {
    key: "_output_shapes"
    value {
      list {
        shape {
        }
      }
    }
  }
  attr {
    key: "dtype"
    value {
      type: DT_COMPLEX64
    }
  }
  attr {
    key: "value"
    value {
      tensor {
        dtype: DT_COMPLEX64
        tensor_shape {
        }
        scomplex_val: 1.0
        scomplex_val: 0.0
      }
    }
  }
}
node {
  name: "guitar_model/one_hot/off_value"
  op: "Const"
  attr {
    key: "_output_shapes"
    value {
      list {
        shape {
        }
      }
    }
  }
  attr {
    key: "dtype"
    value {
      type: DT_COMPLEX64
    }
  }
  attr {
    key: "value"
    value {
      tensor {
        dtype: DT_COMPLEX64
        tensor_shape {
        }
        scomplex_val: 0.0
        scomplex_val: 0.0
      }
    }
  }
}
node {
  name: "guitar_model/one_hot/depth"
  op: "Const"
  attr {
    key: "_output_shapes"
    value {
      list {
        shape {
        }
      }
    }
  }
  attr {
    key: "dtype"
    value {
      type: DT_INT32
    }
  }
  attr {
    key: "value"
    value {
      tensor {
        dtype: DT_INT32
        tensor_shape {
        }
        int_val: 5
      }
    }
  }
}
node {
  name: "guitar_model/one_hot"
  op: "OneHot"
  input: "guitar_model/Cast"
  input: "guitar_model/one_hot/depth"
  input: "guitar_model/one_hot/on_value"
  input: "guitar_model/one_hot/off_value"
  attr {
    key: "T"
    value {
      type: DT_COMPLEX64
    }
  }
  attr {
    key: "TI"
    value {
      type: DT_INT32
    }
  }
  attr {
    key: "_output_shapes"
    value {
      list {
        shape {
          dim {
            size: -1
          }
          dim {
            size: 5
          }
        }
      }
    }
  }
  attr {
    key: "axis"
    value {
      i: -1
    }
  }
}
node {
  name: "guitar_model/transpose/perm"
  op: "Const"
  attr {
    key: "_output_shapes"
    value {
      list {
        shape {
          dim {
            size: 2
          }
        }
      }
    }
  }
  attr {
    key: "dtype"
    value {
      type: DT_INT32
    }
  }
  attr {
    key: "value"
    value {
      tensor {
        dtype: DT_INT32
        tensor_shape {
          dim {
            size: 2
          }
        }
        tensor_content: "\001\000\000\000\000\000\000\000"
      }
    }
  }
}
node {
  name: "guitar_model/transpose"
  op: "Transpose"
  input: "guitar_model/sub"
  input: "guitar_model/transpose/perm"
  attr {
    key: "T"
    value {
      type: DT_FLOAT
    }
  }
  attr {
    key: "Tperm"
    value {
      type: DT_INT32
    }
  }
  attr {
    key: "_output_shapes"
    value {
      list {
        shape {
          dim {
            size: 65535
          }
          dim {
            size: -1
          }
        }
      }
    }
  }
}
node {
  name: "guitar_model/loss_fold/TensorArray/size"
  op: "Const"
  attr {
    key: "_output_shapes"
    value {
      list {
        shape {
        }
      }
    }
  }
  attr {
    key: "dtype"
    value {
      type: DT_INT32
    }
  }
  attr {
    key: "value"
    value {
      tensor {
        dtype: DT_INT32
        tensor_shape {
        }
        int_val: 65535
      }
    }
  }
}
node {
  name: "guitar_model/loss_fold/TensorArray"
  op: "TensorArrayV3"
  input: "guitar_model/loss_fold/TensorArray/size"
  attr {
    key: "_output_shapes"
    value {
      list {
        shape {
          dim {
            size: 2
          }
        }
        shape {
        }
      }
    }
  }
  attr {
    key: "clear_after_read"
    value {
      b: true
    }
  }
  attr {
    key: "dtype"
    value {
      type: DT_FLOAT
    }
  }
  attr {
    key: "dynamic_size"
    value {
      b: false
    }
  }
  attr {
    key: "element_shape"
    value {
      shape {
        unknown_rank: true
      }
    }
  }
  attr {
    key: "identical_element_shapes"
    value {
      b: true
    }
  }
  attr {
    key: "tensor_array_name"
    value {
      s: ""
    }
  }
}
node {
  name: "guitar_model/loss_fold/TensorArrayUnstack/Shape"
  op: "Shape"
  input: "guitar_model/transpose"
  attr {
    key: "T"
    value {
      type: DT_FLOAT
    }
  }
  attr {
    key: "_output_shapes"
    value {
      list {
        shape {
          dim {
            size: 2
          }
        }
      }
    }
  }
  attr {
    key: "out_type"
    value {
      type: DT_INT32
    }
  }
}
node {
  name: "guitar_model/loss_fold/TensorArrayUnstack/strided_slice/stack"
  op: "Const"
  attr {
    key: "_output_shapes"
    value {
      list {
        shape {
          dim {
            size: 1
          }
        }
      }
    }
  }
  attr {
    key: "dtype"
    value {
      type: DT_INT32
    }
  }
  attr {
    key: "value"
    value {
      tensor {
        dtype: DT_INT32
        tensor_shape {
          dim {
            size: 1
          }
        }
        int_val: 0
      }
    }
  }
}
node {
  name: "guitar_model/loss_fold/TensorArrayUnstack/strided_slice/stack_1"
  op: "Const"
  attr {
    key: "_output_shapes"
    value {
      list {
        shape {
          dim {
            size: 1
          }
        }
      }
    }
  }
  attr {
    key: "dtype"
    value {
      type: DT_INT32
    }
  }
  attr {
    key: "value"
    value {
      tensor {
        dtype: DT_INT32
        tensor_shape {
          dim {
            size: 1
          }
        }
        int_val: 1
      }
    }
  }
}
node {
  name: "guitar_model/loss_fold/TensorArrayUnstack/strided_slice/stack_2"
  op: "Const"
  attr {
    key: "_output_shapes"
    value {
      list {
        shape {
          dim {
            size: 1
          }
        }
      }
    }
  }
  attr {
    key: "dtype"
    value {
      type: DT_INT32
    }
  }
  attr {
    key: "value"
    value {
      tensor {
        dtype: DT_INT32
        tensor_shape {
          dim {
            size: 1
          }
        }
        int_val: 1
      }
    }
  }
}
node {
  name: "guitar_model/loss_fold/TensorArrayUnstack/strided_slice"
  op: "StridedSlice"
  input: "guitar_model/loss_fold/TensorArrayUnstack/Shape"
  input: "guitar_model/loss_fold/TensorArrayUnstack/strided_slice/stack"
  input: "guitar_model/loss_fold/TensorArrayUnstack/strided_slice/stack_1"
  input: "guitar_model/loss_fold/TensorArrayUnstack/strided_slice/stack_2"
  attr {
    key: "Index"
    value {
      type: DT_INT32
    }
  }
  attr {
    key: "T"
    value {
      type: DT_INT32
    }
  }
  attr {
    key: "_output_shapes"
    value {
      list {
        shape {
        }
      }
    }
  }
  attr {
    key: "begin_mask"
    value {
      i: 0
    }
  }
  attr {
    key: "ellipsis_mask"
    value {
      i: 0
    }
  }
  attr {
    key: "end_mask"
    value {
      i: 0
    }
  }
  attr {
    key: "new_axis_mask"
    value {
      i: 0
    }
  }
  attr {
    key: "shrink_axis_mask"
    value {
      i: 1
    }
  }
}
node {
  name: "guitar_model/loss_fold/TensorArrayUnstack/range/start"
  op: "Const"
  attr {
    key: "_output_shapes"
    value {
      list {
        shape {
        }
      }
    }
  }
  attr {
    key: "dtype"
    value {
      type: DT_INT32
    }
  }
  attr {
    key: "value"
    value {
      tensor {
        dtype: DT_INT32
        tensor_shape {
        }
        int_val: 0
      }
    }
  }
}
node {
  name: "guitar_model/loss_fold/TensorArrayUnstack/range/delta"
  op: "Const"
  attr {
    key: "_output_shapes"
    value {
      list {
        shape {
        }
      }
    }
  }
  attr {
    key: "dtype"
    value {
      type: DT_INT32
    }
  }
  attr {
    key: "value"
    value {
      tensor {
        dtype: DT_INT32
        tensor_shape {
        }
        int_val: 1
      }
    }
  }
}
node {
  name: "guitar_model/loss_fold/TensorArrayUnstack/range"
  op: "Range"
  input: "guitar_model/loss_fold/TensorArrayUnstack/range/start"
  input: "guitar_model/loss_fold/TensorArrayUnstack/strided_slice"
  input: "guitar_model/loss_fold/TensorArrayUnstack/range/delta"
  attr {
    key: "Tidx"
    value {
      type: DT_INT32
    }
  }
  attr {
    key: "_output_shapes"
    value {
      list {
        shape {
          dim {
            size: -1
          }
        }
      }
    }
  }
}
node {
  name: "guitar_model/loss_fold/TensorArrayUnstack/TensorArrayScatter/TensorArrayScatterV3"
  op: "TensorArrayScatterV3"
  input: "guitar_model/loss_fold/TensorArray"
  input: "guitar_model/loss_fold/TensorArrayUnstack/range"
  input: "guitar_model/transpose"
  input: "guitar_model/loss_fold/TensorArray:1"
  attr {
    key: "T"
    value {
      type: DT_FLOAT
    }
  }
  attr {
    key: "_class"
    value {
      list {
        s: "loc:@guitar_model/transpose"
      }
    }
  }
  attr {
    key: "_output_shapes"
    value {
      list {
        shape {
        }
      }
    }
  }
}
node {
  name: "guitar_model/loss_fold/Const"
  op: "Const"
  attr {
    key: "_output_shapes"
    value {
      list {
        shape {
        }
      }
    }
  }
  attr {
    key: "dtype"
    value {
      type: DT_INT32
    }
  }
  attr {
    key: "value"
    value {
      tensor {
        dtype: DT_INT32
        tensor_shape {
        }
        int_val: 0
      }
    }
  }
}
node {
  name: "guitar_model/loss_fold/while/Enter"
  op: "Enter"
  input: "guitar_model/loss_fold/Const"
  attr {
    key: "T"
    value {
      type: DT_INT32
    }
  }
  attr {
    key: "_output_shapes"
    value {
      list {
        shape {
        }
      }
    }
  }
  attr {
    key: "frame_name"
    value {
      s: "guitar_model/loss_fold/while/while_context"
    }
  }
  attr {
    key: "is_constant"
    value {
      b: false
    }
  }
  attr {
    key: "parallel_iterations"
    value {
      i: 10
    }
  }
}
node {
  name: "guitar_model/loss_fold/while/Enter_1"
  op: "Enter"
  input: "guitar_model/one_hot"
  attr {
    key: "T"
    value {
      type: DT_COMPLEX64
    }
  }
  attr {
    key: "_output_shapes"
    value {
      list {
        shape {
          dim {
            size: -1
          }
          dim {
            size: 5
          }
        }
      }
    }
  }
  attr {
    key: "frame_name"
    value {
      s: "guitar_model/loss_fold/while/while_context"
    }
  }
  attr {
    key: "is_constant"
    value {
      b: false
    }
  }
  attr {
    key: "parallel_iterations"
    value {
      i: 10
    }
  }
}
node {
  name: "guitar_model/loss_fold/while/Enter_2"
  op: "Enter"
  input: "guitar_model/zeros_like"
  attr {
    key: "T"
    value {
      type: DT_FLOAT
    }
  }
  attr {
    key: "_output_shapes"
    value {
      list {
        shape {
          dim {
            size: -1
          }
        }
      }
    }
  }
  attr {
    key: "frame_name"
    value {
      s: "guitar_model/loss_fold/while/while_context"
    }
  }
  attr {
    key: "is_constant"
    value {
      b: false
    }
  }
  attr {
    key: "parallel_iterations"
    value {
      i: 10
    }
  }
}
node {
  name: "guitar_model/loss_fold/while/Merge"
  op: "Merge"
  input: "guitar_model/loss_fold/while/Enter"
  input: "guitar_model/loss_fold/while/NextIteration"
  attr {
    key: "N"
    value {
      i: 2
    }
  }
  attr {
    key: "T"
    value {
      type: DT_INT32
    }
  }
  attr {
    key: "_output_shapes"
    value {
      list {
        shape {
        }
        shape {
        }
      }
    }
  }
}
node {
  name: "guitar_model/loss_fold/while/Merge_1"
  op: "Merge"
  input: "guitar_model/loss_fold/while/Enter_1"
  input: "guitar_model/loss_fold/while/NextIteration_1"
  attr {
    key: "N"
    value {
      i: 2
    }
  }
  attr {
    key: "T"
    value {
      type: DT_COMPLEX64
    }
  }
  attr {
    key: "_output_shapes"
    value {
      list {
        shape {
          dim {
            size: -1
          }
          dim {
            size: 5
          }
        }
        shape {
        }
      }
    }
  }
}
node {
  name: "guitar_model/loss_fold/while/Merge_2"
  op: "Merge"
  input: "guitar_model/loss_fold/while/Enter_2"
  input: "guitar_model/loss_fold/while/NextIteration_2"
  attr {
    key: "N"
    value {
      i: 2
    }
  }
  attr {
    key: "T"
    value {
      type: DT_FLOAT
    }
  }
  attr {
    key: "_output_shapes"
    value {
      list {
        shape {
          dim {
            size: -1
          }
        }
        shape {
        }
      }
    }
  }
}
node {
  name: "guitar_model/loss_fold/while/Less/y"
  op: "Const"
  input: "^guitar_model/loss_fold/while/Merge"
  attr {
    key: "_output_shapes"
    value {
      list {
        shape {
        }
      }
    }
  }
  attr {
    key: "dtype"
    value {
      type: DT_INT32
    }
  }
  attr {
    key: "value"
    value {
      tensor {
        dtype: DT_INT32
        tensor_shape {
        }
        int_val: 65535
      }
    }
  }
}
node {
  name: "guitar_model/loss_fold/while/Less"
  op: "Less"
  input: "guitar_model/loss_fold/while/Merge"
  input: "guitar_model/loss_fold/while/Less/y"
  attr {
    key: "T"
    value {
      type: DT_INT32
    }
  }
  attr {
    key: "_output_shapes"
    value {
      list {
        shape {
        }
      }
    }
  }
}
node {
  name: "guitar_model/loss_fold/while/LoopCond"
  op: "LoopCond"
  input: "guitar_model/loss_fold/while/Less"
  attr {
    key: "_output_shapes"
    value {
      list {
        shape {
        }
      }
    }
  }
}
node {
  name: "guitar_model/loss_fold/while/Switch"
  op: "Switch"
  input: "guitar_model/loss_fold/while/Merge"
  input: "guitar_model/loss_fold/while/LoopCond"
  attr {
    key: "T"
    value {
      type: DT_INT32
    }
  }
  attr {
    key: "_class"
    value {
      list {
        s: "loc:@guitar_model/loss_fold/while/Merge"
      }
    }
  }
  attr {
    key: "_output_shapes"
    value {
      list {
        shape {
        }
        shape {
        }
      }
    }
  }
}
node {
  name: "guitar_model/loss_fold/while/Switch_1"
  op: "Switch"
  input: "guitar_model/loss_fold/while/Merge_1"
  input: "guitar_model/loss_fold/while/LoopCond"
  attr {
    key: "T"
    value {
      type: DT_COMPLEX64
    }
  }
  attr {
    key: "_class"
    value {
      list {
        s: "loc:@guitar_model/loss_fold/while/Merge_1"
      }
    }
  }
  attr {
    key: "_output_shapes"
    value {
      list {
        shape {
          dim {
            size: -1
          }
          dim {
            size: 5
          }
        }
        shape {
          dim {
            size: -1
          }
          dim {
            size: 5
          }
        }
      }
    }
  }
}
node {
  name: "guitar_model/loss_fold/while/Switch_2"
  op: "Switch"
  input: "guitar_model/loss_fold/while/Merge_2"
  input: "guitar_model/loss_fold/while/LoopCond"
  attr {
    key: "T"
    value {
      type: DT_FLOAT
    }
  }
  attr {
    key: "_class"
    value {
      list {
        s: "loc:@guitar_model/loss_fold/while/Merge_2"
      }
    }
  }
  attr {
    key: "_output_shapes"
    value {
      list {
        shape {
          dim {
            size: -1
          }
        }
        shape {
          dim {
            size: -1
          }
        }
      }
    }
  }
}
node {
  name: "guitar_model/loss_fold/while/Identity"
  op: "Identity"
  input: "guitar_model/loss_fold/while/Switch:1"
  attr {
    key: "T"
    value {
      type: DT_INT32
    }
  }
  attr {
    key: "_output_shapes"
    value {
      list {
        shape {
        }
      }
    }
  }
}
node {
  name: "guitar_model/loss_fold/while/Identity_1"
  op: "Identity"
  input: "guitar_model/loss_fold/while/Switch_1:1"
  attr {
    key: "T"
    value {
      type: DT_COMPLEX64
    }
  }
  attr {
    key: "_output_shapes"
    value {
      list {
        shape {
          dim {
            size: -1
          }
          dim {
            size: 5
          }
        }
      }
    }
  }
}
node {
  name: "guitar_model/loss_fold/while/Identity_2"
  op: "Identity"
  input: "guitar_model/loss_fold/while/Switch_2:1"
  attr {
    key: "T"
    value {
      type: DT_FLOAT
    }
  }
  attr {
    key: "_output_shapes"
    value {
      list {
        shape {
          dim {
            size: -1
          }
        }
      }
    }
  }
}
node {
  name: "guitar_model/loss_fold/while/TensorArrayReadV3"
  op: "TensorArrayReadV3"
  input: "guitar_model/loss_fold/while/TensorArrayReadV3/Enter"
  input: "guitar_model/loss_fold/while/Identity"
  input: "guitar_model/loss_fold/while/TensorArrayReadV3/Enter_1"
  attr {
    key: "_output_shapes"
    value {
      list {
        shape {
          dim {
            size: -1
          }
        }
      }
    }
  }
  attr {
    key: "dtype"
    value {
      type: DT_FLOAT
    }
  }
}
node {
  name: "guitar_model/loss_fold/while/TensorArrayReadV3/Enter"
  op: "Enter"
  input: "guitar_model/loss_fold/TensorArray"
  attr {
    key: "T"
    value {
      type: DT_RESOURCE
    }
  }
  attr {
    key: "_output_shapes"
    value {
      list {
        shape {
          dim {
            size: 2
          }
        }
      }
    }
  }
  attr {
    key: "frame_name"
    value {
      s: "guitar_model/loss_fold/while/while_context"
    }
  }
  attr {
    key: "is_constant"
    value {
      b: true
    }
  }
  attr {
    key: "parallel_iterations"
    value {
      i: 10
    }
  }
}
node {
  name: "guitar_model/loss_fold/while/TensorArrayReadV3/Enter_1"
  op: "Enter"
  input: "guitar_model/loss_fold/TensorArrayUnstack/TensorArrayScatter/TensorArrayScatterV3"
  attr {
    key: "T"
    value {
      type: DT_FLOAT
    }
  }
  attr {
    key: "_output_shapes"
    value {
      list {
        shape {
        }
      }
    }
  }
  attr {
    key: "frame_name"
    value {
      s: "guitar_model/loss_fold/while/while_context"
    }
  }
  attr {
    key: "is_constant"
    value {
      b: true
    }
  }
  attr {
    key: "parallel_iterations"
    value {
      i: 10
    }
  }
}
node {
  name: "guitar_model/loss_fold/while/update_ancilla/Cast"
  op: "Cast"
  input: "guitar_model/loss_fold/while/TensorArrayReadV3"
  attr {
    key: "DstT"
    value {
      type: DT_COMPLEX64
    }
  }
  attr {
    key: "SrcT"
    value {
      type: DT_FLOAT
    }
  }
  attr {
    key: "_output_shapes"
    value {
      list {
        shape {
          dim {
            size: -1
          }
        }
      }
    }
  }
}
node {
  name: "guitar_model/loss_fold/while/update_ancilla/Cast_1"
  op: "Cast"
  input: "guitar_model/loss_fold/while/update_ancilla/Cast_1/Enter"
  input: "^guitar_model/loss_fold/while/Identity"
  attr {
    key: "DstT"
    value {
      type: DT_COMPLEX64
    }
  }
  attr {
    key: "SrcT"
    value {
      type: DT_FLOAT
    }
  }
  attr {
    key: "_output_shapes"
    value {
      list {
        shape {
          dim {
            size: 5
          }
          dim {
            size: 5
          }
        }
      }
    }
  }
}
node {
  name: "guitar_model/loss_fold/while/update_ancilla/Cast_1/Enter"
  op: "Enter"
  input: "guitar_model/symmetrize/add"
  attr {
    key: "T"
    value {
      type: DT_FLOAT
    }
  }
  attr {
    key: "_output_shapes"
    value {
      list {
        shape {
          dim {
            size: 5
          }
          dim {
            size: 5
          }
        }
      }
    }
  }
  attr {
    key: "frame_name"
    value {
      s: "guitar_model/loss_fold/while/while_context"
    }
  }
  attr {
    key: "is_constant"
    value {
      b: true
    }
  }
  attr {
    key: "parallel_iterations"
    value {
      i: 10
    }
  }
}
node {
  name: "guitar_model/loss_fold/while/update_ancilla/Cast_2"
  op: "Cast"
  input: "guitar_model/loss_fold/while/update_ancilla/Cast_2/Enter"
  input: "^guitar_model/loss_fold/while/Identity"
  attr {
    key: "DstT"
    value {
      type: DT_COMPLEX64
    }
  }
  attr {
    key: "SrcT"
    value {
      type: DT_FLOAT
    }
  }
  attr {
    key: "_output_shapes"
    value {
      list {
        shape {
          dim {
            size: 5
          }
          dim {
            size: 5
          }
        }
      }
    }
  }
}
node {
  name: "guitar_model/loss_fold/while/update_ancilla/Cast_2/Enter"
  op: "Enter"
  input: "guitar_model/R/read"
  attr {
    key: "T"
    value {
      type: DT_FLOAT
    }
  }
  attr {
    key: "_output_shapes"
    value {
      list {
        shape {
          dim {
            size: 5
          }
          dim {
            size: 5
          }
        }
      }
    }
  }
  attr {
    key: "frame_name"
    value {
      s: "guitar_model/loss_fold/while/while_context"
    }
  }
  attr {
    key: "is_constant"
    value {
      b: true
    }
  }
  attr {
    key: "parallel_iterations"
    value {
      i: 10
    }
  }
}
node {
  name: "guitar_model/loss_fold/while/update_ancilla/mul/x"
  op: "Const"
  input: "^guitar_model/loss_fold/while/Identity"
  attr {
    key: "_output_shapes"
    value {
      list {
        shape {
        }
      }
    }
  }
  attr {
    key: "dtype"
    value {
      type: DT_COMPLEX64
    }
  }
  attr {
    key: "value"
    value {
      tensor {
        dtype: DT_COMPLEX64
        tensor_shape {
        }
        scomplex_val: -0.0
        scomplex_val: -1.0
      }
    }
  }
}
node {
  name: "guitar_model/loss_fold/while/update_ancilla/mul"
  op: "Mul"
  input: "guitar_model/loss_fold/while/update_ancilla/mul/x"
  input: "guitar_model/loss_fold/while/update_ancilla/Cast_1"
  attr {
    key: "T"
    value {
      type: DT_COMPLEX64
    }
  }
  attr {
    key: "_output_shapes"
    value {
      list {
        shape {
          dim {
            size: 5
          }
          dim {
            size: 5
          }
        }
      }
    }
  }
}
node {
  name: "guitar_model/loss_fold/while/update_ancilla/MatMul"
  op: "MatMul"
  input: "guitar_model/loss_fold/while/update_ancilla/Cast_2"
  input: "guitar_model/loss_fold/while/update_ancilla/Cast_2"
  attr {
    key: "T"
    value {
      type: DT_COMPLEX64
    }
  }
  attr {
    key: "_output_shapes"
    value {
      list {
        shape {
          dim {
            size: 5
          }
          dim {
            size: 5
          }
        }
      }
    }
  }
  attr {
    key: "transpose_a"
    value {
      b: true
    }
  }
  attr {
    key: "transpose_b"
    value {
      b: false
    }
  }
}
node {
  name: "guitar_model/loss_fold/while/update_ancilla/truediv/y"
  op: "Const"
  input: "^guitar_model/loss_fold/while/Identity"
  attr {
    key: "_output_shapes"
    value {
      list {
        shape {
        }
      }
    }
  }
  attr {
    key: "dtype"
    value {
      type: DT_COMPLEX64
    }
  }
  attr {
    key: "value"
    value {
      tensor {
        dtype: DT_COMPLEX64
        tensor_shape {
        }
        scomplex_val: 2.0
        scomplex_val: 0.0
      }
    }
  }
}
node {
  name: "guitar_model/loss_fold/while/update_ancilla/truediv"
  op: "RealDiv"
  input: "guitar_model/loss_fold/while/update_ancilla/MatMul"
  input: "guitar_model/loss_fold/while/update_ancilla/truediv/y"
  attr {
    key: "T"
    value {
      type: DT_COMPLEX64
    }
  }
  attr {
    key: "_output_shapes"
    value {
      list {
        shape {
          dim {
            size: 5
          }
          dim {
            size: 5
          }
        }
      }
    }
  }
}
node {
  name: "guitar_model/loss_fold/while/update_ancilla/sub"
  op: "Sub"
  input: "guitar_model/loss_fold/while/update_ancilla/mul"
  input: "guitar_model/loss_fold/while/update_ancilla/truediv"
  attr {
    key: "T"
    value {
      type: DT_COMPLEX64
    }
  }
  attr {
    key: "_output_shapes"
    value {
      list {
        shape {
          dim {
            size: 5
          }
          dim {
            size: 5
          }
        }
      }
    }
  }
}
node {
  name: "guitar_model/loss_fold/while/update_ancilla/mul_1/x"
  op: "Const"
  input: "^guitar_model/loss_fold/while/Identity"
  attr {
    key: "_output_shapes"
    value {
      list {
        shape {
        }
      }
    }
  }
  attr {
    key: "dtype"
    value {
      type: DT_COMPLEX64
    }
  }
  attr {
    key: "value"
    value {
      tensor {
        dtype: DT_COMPLEX64
        tensor_shape {
        }
        scomplex_val: 0.009999999776482582
        scomplex_val: 0.0
      }
    }
  }
}
node {
  name: "guitar_model/loss_fold/while/update_ancilla/mul_1"
  op: "Mul"
  input: "guitar_model/loss_fold/while/update_ancilla/mul_1/x"
  input: "guitar_model/loss_fold/while/update_ancilla/sub"
  attr {
    key: "T"
    value {
      type: DT_COMPLEX64
    }
  }
  attr {
    key: "_output_shapes"
    value {
      list {
        shape {
          dim {
            size: 5
          }
          dim {
            size: 5
          }
        }
      }
    }
  }
}
node {
  name: "guitar_model/loss_fold/while/update_ancilla/einsum/transpose/perm"
  op: "Const"
  input: "^guitar_model/loss_fold/while/Identity"
  attr {
    key: "_output_shapes"
    value {
      list {
        shape {
          dim {
            size: 2
          }
        }
      }
    }
  }
  attr {
    key: "dtype"
    value {
      type: DT_INT32
    }
  }
  attr {
    key: "value"
    value {
      tensor {
        dtype: DT_INT32
        tensor_shape {
          dim {
            size: 2
          }
        }
        tensor_content: "\000\000\000\000\001\000\000\000"
      }
    }
  }
}
node {
  name: "guitar_model/loss_fold/while/update_ancilla/einsum/transpose"
  op: "Transpose"
  input: "guitar_model/loss_fold/while/update_ancilla/mul_1"
  input: "guitar_model/loss_fold/while/update_ancilla/einsum/transpose/perm"
  attr {
    key: "T"
    value {
      type: DT_COMPLEX64
    }
  }
  attr {
    key: "Tperm"
    value {
      type: DT_INT32
    }
  }
  attr {
    key: "_output_shapes"
    value {
      list {
        shape {
          dim {
            size: 5
          }
          dim {
            size: 5
          }
        }
      }
    }
  }
}
node {
  name: "guitar_model/loss_fold/while/update_ancilla/einsum/transpose_1/perm"
  op: "Const"
  input: "^guitar_model/loss_fold/while/Identity"
  attr {
    key: "_output_shapes"
    value {
      list {
        shape {
          dim {
            size: 2
          }
        }
      }
    }
  }
  attr {
    key: "dtype"
    value {
      type: DT_INT32
    }
  }
  attr {
    key: "value"
    value {
      tensor {
        dtype: DT_INT32
        tensor_shape {
          dim {
            size: 2
          }
        }
        tensor_content: "\001\000\000\000\000\000\000\000"
      }
    }
  }
}
node {
  name: "guitar_model/loss_fold/while/update_ancilla/einsum/transpose_1"
  op: "Transpose"
  input: "guitar_model/loss_fold/while/Identity_1"
  input: "guitar_model/loss_fold/while/update_ancilla/einsum/transpose_1/perm"
  attr {
    key: "T"
    value {
      type: DT_COMPLEX64
    }
  }
  attr {
    key: "Tperm"
    value {
      type: DT_INT32
    }
  }
  attr {
    key: "_output_shapes"
    value {
      list {
        shape {
          dim {
            size: 5
          }
          dim {
            size: -1
          }
        }
      }
    }
  }
}
node {
  name: "guitar_model/loss_fold/while/update_ancilla/einsum/Shape"
  op: "Shape"
  input: "guitar_model/loss_fold/while/update_ancilla/einsum/transpose_1"
  attr {
    key: "T"
    value {
      type: DT_COMPLEX64
    }
  }
  attr {
    key: "_output_shapes"
    value {
      list {
        shape {
          dim {
            size: 2
          }
        }
      }
    }
  }
  attr {
    key: "out_type"
    value {
      type: DT_INT32
    }
  }
}
node {
  name: "guitar_model/loss_fold/while/update_ancilla/einsum/strided_slice/stack"
  op: "Const"
  input: "^guitar_model/loss_fold/while/Identity"
  attr {
    key: "_output_shapes"
    value {
      list {
        shape {
          dim {
            size: 1
          }
        }
      }
    }
  }
  attr {
    key: "dtype"
    value {
      type: DT_INT32
    }
  }
  attr {
    key: "value"
    value {
      tensor {
        dtype: DT_INT32
        tensor_shape {
          dim {
            size: 1
          }
        }
        int_val: 1
      }
    }
  }
}
node {
  name: "guitar_model/loss_fold/while/update_ancilla/einsum/strided_slice/stack_1"
  op: "Const"
  input: "^guitar_model/loss_fold/while/Identity"
  attr {
    key: "_output_shapes"
    value {
      list {
        shape {
          dim {
            size: 1
          }
        }
      }
    }
  }
  attr {
    key: "dtype"
    value {
      type: DT_INT32
    }
  }
  attr {
    key: "value"
    value {
      tensor {
        dtype: DT_INT32
        tensor_shape {
          dim {
            size: 1
          }
        }
        int_val: 2
      }
    }
  }
}
node {
  name: "guitar_model/loss_fold/while/update_ancilla/einsum/strided_slice/stack_2"
  op: "Const"
  input: "^guitar_model/loss_fold/while/Identity"
  attr {
    key: "_output_shapes"
    value {
      list {
        shape {
          dim {
            size: 1
          }
        }
      }
    }
  }
  attr {
    key: "dtype"
    value {
      type: DT_INT32
    }
  }
  attr {
    key: "value"
    value {
      tensor {
        dtype: DT_INT32
        tensor_shape {
          dim {
            size: 1
          }
        }
        int_val: 1
      }
    }
  }
}
node {
  name: "guitar_model/loss_fold/while/update_ancilla/einsum/strided_slice"
  op: "StridedSlice"
  input: "guitar_model/loss_fold/while/update_ancilla/einsum/Shape"
  input: "guitar_model/loss_fold/while/update_ancilla/einsum/strided_slice/stack"
  input: "guitar_model/loss_fold/while/update_ancilla/einsum/strided_slice/stack_1"
  input: "guitar_model/loss_fold/while/update_ancilla/einsum/strided_slice/stack_2"
  attr {
    key: "Index"
    value {
      type: DT_INT32
    }
  }
  attr {
    key: "T"
    value {
      type: DT_INT32
    }
  }
  attr {
    key: "_output_shapes"
    value {
      list {
        shape {
        }
      }
    }
  }
  attr {
    key: "begin_mask"
    value {
      i: 0
    }
  }
  attr {
    key: "ellipsis_mask"
    value {
      i: 0
    }
  }
  attr {
    key: "end_mask"
    value {
      i: 0
    }
  }
  attr {
    key: "new_axis_mask"
    value {
      i: 0
    }
  }
  attr {
    key: "shrink_axis_mask"
    value {
      i: 1
    }
  }
}
node {
  name: "guitar_model/loss_fold/while/update_ancilla/einsum/mul/x"
  op: "Const"
  input: "^guitar_model/loss_fold/while/Identity"
  attr {
    key: "_output_shapes"
    value {
      list {
        shape {
        }
      }
    }
  }
  attr {
    key: "dtype"
    value {
      type: DT_INT32
    }
  }
  attr {
    key: "value"
    value {
      tensor {
        dtype: DT_INT32
        tensor_shape {
        }
        int_val: 1
      }
    }
  }
}
node {
  name: "guitar_model/loss_fold/while/update_ancilla/einsum/mul"
  op: "Mul"
  input: "guitar_model/loss_fold/while/update_ancilla/einsum/mul/x"
  input: "guitar_model/loss_fold/while/update_ancilla/einsum/strided_slice"
  attr {
    key: "T"
    value {
      type: DT_INT32
    }
  }
  attr {
    key: "_output_shapes"
    value {
      list {
        shape {
        }
      }
    }
  }
}
node {
  name: "guitar_model/loss_fold/while/update_ancilla/einsum/Reshape/shape/0"
  op: "Const"
  input: "^guitar_model/loss_fold/while/Identity"
  attr {
    key: "_output_shapes"
    value {
      list {
        shape {
        }
      }
    }
  }
  attr {
    key: "dtype"
    value {
      type: DT_INT32
    }
  }
  attr {
    key: "value"
    value {
      tensor {
        dtype: DT_INT32
        tensor_shape {
        }
        int_val: 5
      }
    }
  }
}
node {
  name: "guitar_model/loss_fold/while/update_ancilla/einsum/Reshape/shape"
  op: "Pack"
  input: "guitar_model/loss_fold/while/update_ancilla/einsum/Reshape/shape/0"
  input: "guitar_model/loss_fold/while/update_ancilla/einsum/mul"
  attr {
    key: "N"
    value {
      i: 2
    }
  }
  attr {
    key: "T"
    value {
      type: DT_INT32
    }
  }
  attr {
    key: "_output_shapes"
    value {
      list {
        shape {
          dim {
            size: 2
          }
        }
      }
    }
  }
  attr {
    key: "axis"
    value {
      i: 0
    }
  }
}
node {
  name: "guitar_model/loss_fold/while/update_ancilla/einsum/Reshape"
  op: "Reshape"
  input: "guitar_model/loss_fold/while/update_ancilla/einsum/transpose_1"
  input: "guitar_model/loss_fold/while/update_ancilla/einsum/Reshape/shape"
  attr {
    key: "T"
    value {
      type: DT_COMPLEX64
    }
  }
  attr {
    key: "Tshape"
    value {
      type: DT_INT32
    }
  }
  attr {
    key: "_output_shapes"
    value {
      list {
        shape {
          dim {
            size: 5
          }
          dim {
            size: -1
          }
        }
      }
    }
  }
}
node {
  name: "guitar_model/loss_fold/while/update_ancilla/einsum/MatMul"
  op: "MatMul"
  input: "guitar_model/loss_fold/while/update_ancilla/einsum/transpose"
  input: "guitar_model/loss_fold/while/update_ancilla/einsum/Reshape"
  attr {
    key: "T"
    value {
      type: DT_COMPLEX64
    }
  }
  attr {
    key: "_output_shapes"
    value {
      list {
        shape {
          dim {
            size: 5
          }
          dim {
            size: -1
          }
        }
      }
    }
  }
  attr {
    key: "transpose_a"
    value {
      b: false
    }
  }
  attr {
    key: "transpose_b"
    value {
      b: false
    }
  }
}
node {
  name: "guitar_model/loss_fold/while/update_ancilla/einsum/Reshape_1/shape/0"
  op: "Const"
  input: "^guitar_model/loss_fold/while/Identity"
  attr {
    key: "_output_shapes"
    value {
      list {
        shape {
        }
      }
    }
  }
  attr {
    key: "dtype"
    value {
      type: DT_INT32
    }
  }
  attr {
    key: "value"
    value {
      tensor {
        dtype: DT_INT32
        tensor_shape {
        }
        int_val: 5
      }
    }
  }
}
node {
  name: "guitar_model/loss_fold/while/update_ancilla/einsum/Reshape_1/shape"
  op: "Pack"
  input: "guitar_model/loss_fold/while/update_ancilla/einsum/Reshape_1/shape/0"
  input: "guitar_model/loss_fold/while/update_ancilla/einsum/strided_slice"
  attr {
    key: "N"
    value {
      i: 2
    }
  }
  attr {
    key: "T"
    value {
      type: DT_INT32
    }
  }
  attr {
    key: "_output_shapes"
    value {
      list {
        shape {
          dim {
            size: 2
          }
        }
      }
    }
  }
  attr {
    key: "axis"
    value {
      i: 0
    }
  }
}
node {
  name: "guitar_model/loss_fold/while/update_ancilla/einsum/Reshape_1"
  op: "Reshape"
  input: "guitar_model/loss_fold/while/update_ancilla/einsum/MatMul"
  input: "guitar_model/loss_fold/while/update_ancilla/einsum/Reshape_1/shape"
  attr {
    key: "T"
    value {
      type: DT_COMPLEX64
    }
  }
  attr {
    key: "Tshape"
    value {
      type: DT_INT32
    }
  }
  attr {
    key: "_output_shapes"
    value {
      list {
        shape {
          dim {
            size: 5
          }
          dim {
            size: -1
          }
        }
      }
    }
  }
}
node {
  name: "guitar_model/loss_fold/while/update_ancilla/einsum/transpose_2/perm"
  op: "Const"
  input: "^guitar_model/loss_fold/while/Identity"
  attr {
    key: "_output_shapes"
    value {
      list {
        shape {
          dim {
            size: 2
          }
        }
      }
    }
  }
  attr {
    key: "dtype"
    value {
      type: DT_INT32
    }
  }
  attr {
    key: "value"
    value {
      tensor {
        dtype: DT_INT32
        tensor_shape {
          dim {
            size: 2
          }
        }
        tensor_content: "\001\000\000\000\000\000\000\000"
      }
    }
  }
}
node {
  name: "guitar_model/loss_fold/while/update_ancilla/einsum/transpose_2"
  op: "Transpose"
  input: "guitar_model/loss_fold/while/update_ancilla/einsum/Reshape_1"
  input: "guitar_model/loss_fold/while/update_ancilla/einsum/transpose_2/perm"
  attr {
    key: "T"
    value {
      type: DT_COMPLEX64
    }
  }
  attr {
    key: "Tperm"
    value {
      type: DT_INT32
    }
  }
  attr {
    key: "_output_shapes"
    value {
      list {
        shape {
          dim {
            size: -1
          }
          dim {
            size: 5
          }
        }
      }
    }
  }
}
node {
  name: "guitar_model/loss_fold/while/update_ancilla/add"
  op: "Add"
  input: "guitar_model/loss_fold/while/Identity_1"
  input: "guitar_model/loss_fold/while/update_ancilla/einsum/transpose_2"
  attr {
    key: "T"
    value {
      type: DT_COMPLEX64
    }
  }
  attr {
    key: "_output_shapes"
    value {
      list {
        shape {
          dim {
            size: -1
          }
          dim {
            size: 5
          }
        }
      }
    }
  }
}
node {
  name: "guitar_model/loss_fold/while/update_ancilla/einsum_1/transpose/perm"
  op: "Const"
  input: "^guitar_model/loss_fold/while/Identity"
  attr {
    key: "_output_shapes"
    value {
      list {
        shape {
          dim {
            size: 1
          }
        }
      }
    }
  }
  attr {
    key: "dtype"
    value {
      type: DT_INT32
    }
  }
  attr {
    key: "value"
    value {
      tensor {
        dtype: DT_INT32
        tensor_shape {
          dim {
            size: 1
          }
        }
        int_val: 0
      }
    }
  }
}
node {
  name: "guitar_model/loss_fold/while/update_ancilla/einsum_1/transpose"
  op: "Transpose"
  input: "guitar_model/loss_fold/while/update_ancilla/Cast"
  input: "guitar_model/loss_fold/while/update_ancilla/einsum_1/transpose/perm"
  attr {
    key: "T"
    value {
      type: DT_COMPLEX64
    }
  }
  attr {
    key: "Tperm"
    value {
      type: DT_INT32
    }
  }
  attr {
    key: "_output_shapes"
    value {
      list {
        shape {
          dim {
            size: -1
          }
        }
      }
    }
  }
}
node {
  name: "guitar_model/loss_fold/while/update_ancilla/einsum_1/transpose_1/perm"
  op: "Const"
  input: "^guitar_model/loss_fold/while/Identity"
  attr {
    key: "_output_shapes"
    value {
      list {
        shape {
          dim {
            size: 2
          }
        }
      }
    }
  }
  attr {
    key: "dtype"
    value {
      type: DT_INT32
    }
  }
  attr {
    key: "value"
    value {
      tensor {
        dtype: DT_INT32
        tensor_shape {
          dim {
            size: 2
          }
        }
        tensor_content: "\000\000\000\000\001\000\000\000"
      }
    }
  }
}
node {
  name: "guitar_model/loss_fold/while/update_ancilla/einsum_1/transpose_1"
  op: "Transpose"
  input: "guitar_model/loss_fold/while/update_ancilla/Cast_2"
  input: "guitar_model/loss_fold/while/update_ancilla/einsum_1/transpose_1/perm"
  attr {
    key: "T"
    value {
      type: DT_COMPLEX64
    }
  }
  attr {
    key: "Tperm"
    value {
      type: DT_INT32
    }
  }
  attr {
    key: "_output_shapes"
    value {
      list {
        shape {
          dim {
            size: 5
          }
          dim {
            size: 5
          }
        }
      }
    }
  }
}
node {
  name: "guitar_model/loss_fold/while/update_ancilla/einsum_1/ExpandDims/dim"
  op: "Const"
  input: "^guitar_model/loss_fold/while/Identity"
  attr {
    key: "_output_shapes"
    value {
      list {
        shape {
        }
      }
    }
  }
  attr {
    key: "dtype"
    value {
      type: DT_INT32
    }
  }
  attr {
    key: "value"
    value {
      tensor {
        dtype: DT_INT32
        tensor_shape {
        }
        int_val: -1
      }
    }
  }
}
node {
  name: "guitar_model/loss_fold/while/update_ancilla/einsum_1/ExpandDims"
  op: "ExpandDims"
  input: "guitar_model/loss_fold/while/update_ancilla/einsum_1/transpose"
  input: "guitar_model/loss_fold/while/update_ancilla/einsum_1/ExpandDims/dim"
  attr {
    key: "T"
    value {
      type: DT_COMPLEX64
    }
  }
  attr {
    key: "Tdim"
    value {
      type: DT_INT32
    }
  }
  attr {
    key: "_output_shapes"
    value {
      list {
        shape {
          dim {
            size: -1
          }
          dim {
            size: 1
          }
        }
      }
    }
  }
}
node {
  name: "guitar_model/loss_fold/while/update_ancilla/einsum_1/ExpandDims_1/dim"
  op: "Const"
  input: "^guitar_model/loss_fold/while/Identity"
  attr {
    key: "_output_shapes"
    value {
      list {
        shape {
        }
      }
    }
  }
  attr {
    key: "dtype"
    value {
      type: DT_INT32
    }
  }
  attr {
    key: "value"
    value {
      tensor {
        dtype: DT_INT32
        tensor_shape {
        }
        int_val: -1
      }
    }
  }
}
node {
  name: "guitar_model/loss_fold/while/update_ancilla/einsum_1/ExpandDims_1"
  op: "ExpandDims"
  input: "guitar_model/loss_fold/while/update_ancilla/einsum_1/ExpandDims"
  input: "guitar_model/loss_fold/while/update_ancilla/einsum_1/ExpandDims_1/dim"
  attr {
    key: "T"
    value {
      type: DT_COMPLEX64
    }
  }
  attr {
    key: "Tdim"
    value {
      type: DT_INT32
    }
  }
  attr {
    key: "_output_shapes"
    value {
      list {
        shape {
          dim {
            size: -1
          }
          dim {
            size: 1
          }
          dim {
            size: 1
          }
        }
      }
    }
  }
}
node {
  name: "guitar_model/loss_fold/while/update_ancilla/einsum_1/ExpandDims_2/dim"
  op: "Const"
  input: "^guitar_model/loss_fold/while/Identity"
  attr {
    key: "_output_shapes"
    value {
      list {
        shape {
        }
      }
    }
  }
  attr {
    key: "dtype"
    value {
      type: DT_INT32
    }
  }
  attr {
    key: "value"
    value {
      tensor {
        dtype: DT_INT32
        tensor_shape {
        }
        int_val: 0
      }
    }
  }
}
node {
  name: "guitar_model/loss_fold/while/update_ancilla/einsum_1/ExpandDims_2"
  op: "ExpandDims"
  input: "guitar_model/loss_fold/while/update_ancilla/einsum_1/transpose_1"
  input: "guitar_model/loss_fold/while/update_ancilla/einsum_1/ExpandDims_2/dim"
  attr {
    key: "T"
    value {
      type: DT_COMPLEX64
    }
  }
  attr {
    key: "Tdim"
    value {
      type: DT_INT32
    }
  }
  attr {
    key: "_output_shapes"
    value {
      list {
        shape {
          dim {
            size: 1
          }
          dim {
            size: 5
          }
          dim {
            size: 5
          }
        }
      }
    }
  }
}
node {
  name: "guitar_model/loss_fold/while/update_ancilla/einsum_1/Mul"
  op: "Mul"
  input: "guitar_model/loss_fold/while/update_ancilla/einsum_1/ExpandDims_1"
  input: "guitar_model/loss_fold/while/update_ancilla/einsum_1/ExpandDims_2"
  attr {
    key: "T"
    value {
      type: DT_COMPLEX64
    }
  }
  attr {
    key: "_output_shapes"
    value {
      list {
        shape {
          dim {
            size: -1
          }
          dim {
            size: 5
          }
          dim {
            size: 5
          }
        }
      }
    }
  }
}
node {
  name: "guitar_model/loss_fold/while/update_ancilla/einsum_1/transpose_2/perm"
  op: "Const"
  input: "^guitar_model/loss_fold/while/Identity"
  attr {
    key: "_output_shapes"
    value {
      list {
        shape {
          dim {
            size: 3
          }
        }
      }
    }
  }
  attr {
    key: "dtype"
    value {
      type: DT_INT32
    }
  }
  attr {
    key: "value"
    value {
      tensor {
        dtype: DT_INT32
        tensor_shape {
          dim {
            size: 3
          }
        }
        tensor_content: "\000\000\000\000\001\000\000\000\002\000\000\000"
      }
    }
  }
}
node {
  name: "guitar_model/loss_fold/while/update_ancilla/einsum_1/transpose_2"
  op: "Transpose"
  input: "guitar_model/loss_fold/while/update_ancilla/einsum_1/Mul"
  input: "guitar_model/loss_fold/while/update_ancilla/einsum_1/transpose_2/perm"
  attr {
    key: "T"
    value {
      type: DT_COMPLEX64
    }
  }
  attr {
    key: "Tperm"
    value {
      type: DT_INT32
    }
  }
  attr {
    key: "_output_shapes"
    value {
      list {
        shape {
          dim {
            size: -1
          }
          dim {
            size: 5
          }
          dim {
            size: 5
          }
        }
      }
    }
  }
}
node {
  name: "guitar_model/loss_fold/while/update_ancilla/einsum_1/transpose_3/perm"
  op: "Const"
  input: "^guitar_model/loss_fold/while/Identity"
  attr {
    key: "_output_shapes"
    value {
      list {
        shape {
          dim {
            size: 2
          }
        }
      }
    }
  }
  attr {
    key: "dtype"
    value {
      type: DT_INT32
    }
  }
  attr {
    key: "value"
    value {
      tensor {
        dtype: DT_INT32
        tensor_shape {
          dim {
            size: 2
          }
        }
        tensor_content: "\000\000\000\000\001\000\000\000"
      }
    }
  }
}
node {
  name: "guitar_model/loss_fold/while/update_ancilla/einsum_1/transpose_3"
  op: "Transpose"
  input: "guitar_model/loss_fold/while/Identity_1"
  input: "guitar_model/loss_fold/while/update_ancilla/einsum_1/transpose_3/perm"
  attr {
    key: "T"
    value {
      type: DT_COMPLEX64
    }
  }
  attr {
    key: "Tperm"
    value {
      type: DT_INT32
    }
  }
  attr {
    key: "_output_shapes"
    value {
      list {
        shape {
          dim {
            size: -1
          }
          dim {
            size: 5
          }
        }
      }
    }
  }
}
node {
  name: "guitar_model/loss_fold/while/update_ancilla/einsum_1/Shape"
  op: "Shape"
  input: "guitar_model/loss_fold/while/update_ancilla/einsum_1/transpose_2"
  attr {
    key: "T"
    value {
      type: DT_COMPLEX64
    }
  }
  attr {
    key: "_output_shapes"
    value {
      list {
        shape {
          dim {
            size: 3
          }
        }
      }
    }
  }
  attr {
    key: "out_type"
    value {
      type: DT_INT32
    }
  }
}
node {
  name: "guitar_model/loss_fold/while/update_ancilla/einsum_1/strided_slice/stack"
  op: "Const"
  input: "^guitar_model/loss_fold/while/Identity"
  attr {
    key: "_output_shapes"
    value {
      list {
        shape {
          dim {
            size: 1
          }
        }
      }
    }
  }
  attr {
    key: "dtype"
    value {
      type: DT_INT32
    }
  }
  attr {
    key: "value"
    value {
      tensor {
        dtype: DT_INT32
        tensor_shape {
          dim {
            size: 1
          }
        }
        int_val: 0
      }
    }
  }
}
node {
  name: "guitar_model/loss_fold/while/update_ancilla/einsum_1/strided_slice/stack_1"
  op: "Const"
  input: "^guitar_model/loss_fold/while/Identity"
  attr {
    key: "_output_shapes"
    value {
      list {
        shape {
          dim {
            size: 1
          }
        }
      }
    }
  }
  attr {
    key: "dtype"
    value {
      type: DT_INT32
    }
  }
  attr {
    key: "value"
    value {
      tensor {
        dtype: DT_INT32
        tensor_shape {
          dim {
            size: 1
          }
        }
        int_val: 1
      }
    }
  }
}
node {
  name: "guitar_model/loss_fold/while/update_ancilla/einsum_1/strided_slice/stack_2"
  op: "Const"
  input: "^guitar_model/loss_fold/while/Identity"
  attr {
    key: "_output_shapes"
    value {
      list {
        shape {
          dim {
            size: 1
          }
        }
      }
    }
  }
  attr {
    key: "dtype"
    value {
      type: DT_INT32
    }
  }
  attr {
    key: "value"
    value {
      tensor {
        dtype: DT_INT32
        tensor_shape {
          dim {
            size: 1
          }
        }
        int_val: 1
      }
    }
  }
}
node {
  name: "guitar_model/loss_fold/while/update_ancilla/einsum_1/strided_slice"
  op: "StridedSlice"
  input: "guitar_model/loss_fold/while/update_ancilla/einsum_1/Shape"
  input: "guitar_model/loss_fold/while/update_ancilla/einsum_1/strided_slice/stack"
  input: "guitar_model/loss_fold/while/update_ancilla/einsum_1/strided_slice/stack_1"
  input: "guitar_model/loss_fold/while/update_ancilla/einsum_1/strided_slice/stack_2"
  attr {
    key: "Index"
    value {
      type: DT_INT32
    }
  }
  attr {
    key: "T"
    value {
      type: DT_INT32
    }
  }
  attr {
    key: "_output_shapes"
    value {
      list {
        shape {
        }
      }
    }
  }
  attr {
    key: "begin_mask"
    value {
      i: 0
    }
  }
  attr {
    key: "ellipsis_mask"
    value {
      i: 0
    }
  }
  attr {
    key: "end_mask"
    value {
      i: 0
    }
  }
  attr {
    key: "new_axis_mask"
    value {
      i: 0
    }
  }
  attr {
    key: "shrink_axis_mask"
    value {
      i: 1
    }
  }
}
node {
  name: "guitar_model/loss_fold/while/update_ancilla/einsum_1/Reshape/shape/1"
  op: "Const"
  input: "^guitar_model/loss_fold/while/Identity"
  attr {
    key: "_output_shapes"
    value {
      list {
        shape {
        }
      }
    }
  }
  attr {
    key: "dtype"
    value {
      type: DT_INT32
    }
  }
  attr {
    key: "value"
    value {
      tensor {
        dtype: DT_INT32
        tensor_shape {
        }
        int_val: 5
      }
    }
  }
}
node {
  name: "guitar_model/loss_fold/while/update_ancilla/einsum_1/Reshape/shape/2"
  op: "Const"
  input: "^guitar_model/loss_fold/while/Identity"
  attr {
    key: "_output_shapes"
    value {
      list {
        shape {
        }
      }
    }
  }
  attr {
    key: "dtype"
    value {
      type: DT_INT32
    }
  }
  attr {
    key: "value"
    value {
      tensor {
        dtype: DT_INT32
        tensor_shape {
        }
        int_val: 5
      }
    }
  }
}
node {
  name: "guitar_model/loss_fold/while/update_ancilla/einsum_1/Reshape/shape"
  op: "Pack"
  input: "guitar_model/loss_fold/while/update_ancilla/einsum_1/strided_slice"
  input: "guitar_model/loss_fold/while/update_ancilla/einsum_1/Reshape/shape/1"
  input: "guitar_model/loss_fold/while/update_ancilla/einsum_1/Reshape/shape/2"
  attr {
    key: "N"
    value {
      i: 3
    }
  }
  attr {
    key: "T"
    value {
      type: DT_INT32
    }
  }
  attr {
    key: "_output_shapes"
    value {
      list {
        shape {
          dim {
            size: 3
          }
        }
      }
    }
  }
  attr {
    key: "axis"
    value {
      i: 0
    }
  }
}
node {
  name: "guitar_model/loss_fold/while/update_ancilla/einsum_1/Reshape"
  op: "Reshape"
  input: "guitar_model/loss_fold/while/update_ancilla/einsum_1/transpose_2"
  input: "guitar_model/loss_fold/while/update_ancilla/einsum_1/Reshape/shape"
  attr {
    key: "T"
    value {
      type: DT_COMPLEX64
    }
  }
  attr {
    key: "Tshape"
    value {
      type: DT_INT32
    }
  }
  attr {
    key: "_output_shapes"
    value {
      list {
        shape {
          dim {
            size: -1
          }
          dim {
            size: 5
          }
          dim {
            size: 5
          }
        }
      }
    }
  }
}
node {
  name: "guitar_model/loss_fold/while/update_ancilla/einsum_1/Shape_1"
  op: "Shape"
  input: "guitar_model/loss_fold/while/update_ancilla/einsum_1/transpose_3"
  attr {
    key: "T"
    value {
      type: DT_COMPLEX64
    }
  }
  attr {
    key: "_output_shapes"
    value {
      list {
        shape {
          dim {
            size: 2
          }
        }
      }
    }
  }
  attr {
    key: "out_type"
    value {
      type: DT_INT32
    }
  }
}
node {
  name: "guitar_model/loss_fold/while/update_ancilla/einsum_1/strided_slice_1/stack"
  op: "Const"
  input: "^guitar_model/loss_fold/while/Identity"
  attr {
    key: "_output_shapes"
    value {
      list {
        shape {
          dim {
            size: 1
          }
        }
      }
    }
  }
  attr {
    key: "dtype"
    value {
      type: DT_INT32
    }
  }
  attr {
    key: "value"
    value {
      tensor {
        dtype: DT_INT32
        tensor_shape {
          dim {
            size: 1
          }
        }
        int_val: 0
      }
    }
  }
}
node {
  name: "guitar_model/loss_fold/while/update_ancilla/einsum_1/strided_slice_1/stack_1"
  op: "Const"
  input: "^guitar_model/loss_fold/while/Identity"
  attr {
    key: "_output_shapes"
    value {
      list {
        shape {
          dim {
            size: 1
          }
        }
      }
    }
  }
  attr {
    key: "dtype"
    value {
      type: DT_INT32
    }
  }
  attr {
    key: "value"
    value {
      tensor {
        dtype: DT_INT32
        tensor_shape {
          dim {
            size: 1
          }
        }
        int_val: 1
      }
    }
  }
}
node {
  name: "guitar_model/loss_fold/while/update_ancilla/einsum_1/strided_slice_1/stack_2"
  op: "Const"
  input: "^guitar_model/loss_fold/while/Identity"
  attr {
    key: "_output_shapes"
    value {
      list {
        shape {
          dim {
            size: 1
          }
        }
      }
    }
  }
  attr {
    key: "dtype"
    value {
      type: DT_INT32
    }
  }
  attr {
    key: "value"
    value {
      tensor {
        dtype: DT_INT32
        tensor_shape {
          dim {
            size: 1
          }
        }
        int_val: 1
      }
    }
  }
}
node {
  name: "guitar_model/loss_fold/while/update_ancilla/einsum_1/strided_slice_1"
  op: "StridedSlice"
  input: "guitar_model/loss_fold/while/update_ancilla/einsum_1/Shape_1"
  input: "guitar_model/loss_fold/while/update_ancilla/einsum_1/strided_slice_1/stack"
  input: "guitar_model/loss_fold/while/update_ancilla/einsum_1/strided_slice_1/stack_1"
  input: "guitar_model/loss_fold/while/update_ancilla/einsum_1/strided_slice_1/stack_2"
  attr {
    key: "Index"
    value {
      type: DT_INT32
    }
  }
  attr {
    key: "T"
    value {
      type: DT_INT32
    }
  }
  attr {
    key: "_output_shapes"
    value {
      list {
        shape {
        }
      }
    }
  }
  attr {
    key: "begin_mask"
    value {
      i: 0
    }
  }
  attr {
    key: "ellipsis_mask"
    value {
      i: 0
    }
  }
  attr {
    key: "end_mask"
    value {
      i: 0
    }
  }
  attr {
    key: "new_axis_mask"
    value {
      i: 0
    }
  }
  attr {
    key: "shrink_axis_mask"
    value {
      i: 1
    }
  }
}
node {
  name: "guitar_model/loss_fold/while/update_ancilla/einsum_1/Reshape_1/shape/1"
  op: "Const"
  input: "^guitar_model/loss_fold/while/Identity"
  attr {
    key: "_output_shapes"
    value {
      list {
        shape {
        }
      }
    }
  }
  attr {
    key: "dtype"
    value {
      type: DT_INT32
    }
  }
  attr {
    key: "value"
    value {
      tensor {
        dtype: DT_INT32
        tensor_shape {
        }
        int_val: 5
      }
    }
  }
}
node {
  name: "guitar_model/loss_fold/while/update_ancilla/einsum_1/Reshape_1/shape/2"
  op: "Const"
  input: "^guitar_model/loss_fold/while/Identity"
  attr {
    key: "_output_shapes"
    value {
      list {
        shape {
        }
      }
    }
  }
  attr {
    key: "dtype"
    value {
      type: DT_INT32
    }
  }
  attr {
    key: "value"
    value {
      tensor {
        dtype: DT_INT32
        tensor_shape {
        }
        int_val: 1
      }
    }
  }
}
node {
  name: "guitar_model/loss_fold/while/update_ancilla/einsum_1/Reshape_1/shape"
  op: "Pack"
  input: "guitar_model/loss_fold/while/update_ancilla/einsum_1/strided_slice_1"
  input: "guitar_model/loss_fold/while/update_ancilla/einsum_1/Reshape_1/shape/1"
  input: "guitar_model/loss_fold/while/update_ancilla/einsum_1/Reshape_1/shape/2"
  attr {
    key: "N"
    value {
      i: 3
    }
  }
  attr {
    key: "T"
    value {
      type: DT_INT32
    }
  }
  attr {
    key: "_output_shapes"
    value {
      list {
        shape {
          dim {
            size: 3
          }
        }
      }
    }
  }
  attr {
    key: "axis"
    value {
      i: 0
    }
  }
}
node {
  name: "guitar_model/loss_fold/while/update_ancilla/einsum_1/Reshape_1"
  op: "Reshape"
  input: "guitar_model/loss_fold/while/update_ancilla/einsum_1/transpose_3"
  input: "guitar_model/loss_fold/while/update_ancilla/einsum_1/Reshape_1/shape"
  attr {
    key: "T"
    value {
      type: DT_COMPLEX64
    }
  }
  attr {
    key: "Tshape"
    value {
      type: DT_INT32
    }
  }
  attr {
    key: "_output_shapes"
    value {
      list {
        shape {
          dim {
            size: -1
          }
          dim {
            size: 5
          }
          dim {
            size: 1
          }
        }
      }
    }
  }
}
node {
  name: "guitar_model/loss_fold/while/update_ancilla/einsum_1/MatMul"
  op: "BatchMatMul"
  input: "guitar_model/loss_fold/while/update_ancilla/einsum_1/Reshape"
  input: "guitar_model/loss_fold/while/update_ancilla/einsum_1/Reshape_1"
  attr {
    key: "T"
    value {
      type: DT_COMPLEX64
    }
  }
  attr {
    key: "_output_shapes"
    value {
      list {
        shape {
          dim {
            size: -1
          }
          dim {
            size: 5
          }
          dim {
            size: 1
          }
        }
      }
    }
  }
  attr {
    key: "adj_x"
    value {
      b: false
    }
  }
  attr {
    key: "adj_y"
    value {
      b: false
    }
  }
}
node {
  name: "guitar_model/loss_fold/while/update_ancilla/einsum_1/Reshape_2/shape/1"
  op: "Const"
  input: "^guitar_model/loss_fold/while/Identity"
  attr {
    key: "_output_shapes"
    value {
      list {
        shape {
        }
      }
    }
  }
  attr {
    key: "dtype"
    value {
      type: DT_INT32
    }
  }
  attr {
    key: "value"
    value {
      tensor {
        dtype: DT_INT32
        tensor_shape {
        }
        int_val: 5
      }
    }
  }
}
node {
  name: "guitar_model/loss_fold/while/update_ancilla/einsum_1/Reshape_2/shape"
  op: "Pack"
  input: "guitar_model/loss_fold/while/update_ancilla/einsum_1/strided_slice"
  input: "guitar_model/loss_fold/while/update_ancilla/einsum_1/Reshape_2/shape/1"
  attr {
    key: "N"
    value {
      i: 2
    }
  }
  attr {
    key: "T"
    value {
      type: DT_INT32
    }
  }
  attr {
    key: "_output_shapes"
    value {
      list {
        shape {
          dim {
            size: 2
          }
        }
      }
    }
  }
  attr {
    key: "axis"
    value {
      i: 0
    }
  }
}
node {
  name: "guitar_model/loss_fold/while/update_ancilla/einsum_1/Reshape_2"
  op: "Reshape"
  input: "guitar_model/loss_fold/while/update_ancilla/einsum_1/MatMul"
  input: "guitar_model/loss_fold/while/update_ancilla/einsum_1/Reshape_2/shape"
  attr {
    key: "T"
    value {
      type: DT_COMPLEX64
    }
  }
  attr {
    key: "Tshape"
    value {
      type: DT_INT32
    }
  }
  attr {
    key: "_output_shapes"
    value {
      list {
        shape {
          dim {
            size: -1
          }
          dim {
            size: 5
          }
        }
      }
    }
  }
}
node {
  name: "guitar_model/loss_fold/while/update_ancilla/einsum_1/transpose_4/perm"
  op: "Const"
  input: "^guitar_model/loss_fold/while/Identity"
  attr {
    key: "_output_shapes"
    value {
      list {
        shape {
          dim {
            size: 2
          }
        }
      }
    }
  }
  attr {
    key: "dtype"
    value {
      type: DT_INT32
    }
  }
  attr {
    key: "value"
    value {
      tensor {
        dtype: DT_INT32
        tensor_shape {
          dim {
            size: 2
          }
        }
        tensor_content: "\000\000\000\000\001\000\000\000"
      }
    }
  }
}
node {
  name: "guitar_model/loss_fold/while/update_ancilla/einsum_1/transpose_4"
  op: "Transpose"
  input: "guitar_model/loss_fold/while/update_ancilla/einsum_1/Reshape_2"
  input: "guitar_model/loss_fold/while/update_ancilla/einsum_1/transpose_4/perm"
  attr {
    key: "T"
    value {
      type: DT_COMPLEX64
    }
  }
  attr {
    key: "Tperm"
    value {
      type: DT_INT32
    }
  }
  attr {
    key: "_output_shapes"
    value {
      list {
        shape {
          dim {
            size: -1
          }
          dim {
            size: 5
          }
        }
      }
    }
  }
}
node {
  name: "guitar_model/loss_fold/while/update_ancilla/mul_2/x"
  op: "Const"
  input: "^guitar_model/loss_fold/while/Identity"
  attr {
    key: "_output_shapes"
    value {
      list {
        shape {
        }
      }
    }
  }
  attr {
    key: "dtype"
    value {
      type: DT_COMPLEX64
    }
  }
  attr {
    key: "value"
    value {
      tensor {
        dtype: DT_COMPLEX64
        tensor_shape {
        }
        scomplex_val: 0.009999999776482582
        scomplex_val: 0.0
      }
    }
  }
}
node {
  name: "guitar_model/loss_fold/while/update_ancilla/mul_2"
  op: "Mul"
  input: "guitar_model/loss_fold/while/update_ancilla/mul_2/x"
  input: "guitar_model/loss_fold/while/update_ancilla/einsum_1/transpose_4"
  attr {
    key: "T"
    value {
      type: DT_COMPLEX64
    }
  }
  attr {
    key: "_output_shapes"
    value {
      list {
        shape {
          dim {
            size: -1
          }
          dim {
            size: 5
          }
        }
      }
    }
  }
}
node {
  name: "guitar_model/loss_fold/while/update_ancilla/add_1"
  op: "Add"
  input: "guitar_model/loss_fold/while/update_ancilla/add"
  input: "guitar_model/loss_fold/while/update_ancilla/mul_2"
  attr {
    key: "T"
    value {
      type: DT_COMPLEX64
    }
  }
  attr {
    key: "_output_shapes"
    value {
      list {
        shape {
          dim {
            size: -1
          }
          dim {
            size: 5
          }
        }
      }
    }
  }
}
node {
  name: "guitar_model/loss_fold/while/update_ancilla/normalize/Abs"
  op: "ComplexAbs"
  input: "guitar_model/loss_fold/while/update_ancilla/add_1"
  attr {
    key: "T"
    value {
      type: DT_COMPLEX64
    }
  }
  attr {
    key: "Tout"
    value {
      type: DT_FLOAT
    }
  }
  attr {
    key: "_output_shapes"
    value {
      list {
        shape {
          dim {
            size: -1
          }
          dim {
            size: 5
          }
        }
      }
    }
  }
}
node {
  name: "guitar_model/loss_fold/while/update_ancilla/normalize/Square"
  op: "Square"
  input: "guitar_model/loss_fold/while/update_ancilla/normalize/Abs"
  attr {
    key: "T"
    value {
      type: DT_FLOAT
    }
  }
  attr {
    key: "_output_shapes"
    value {
      list {
        shape {
          dim {
            size: -1
          }
          dim {
            size: 5
          }
        }
      }
    }
  }
}
node {
  name: "guitar_model/loss_fold/while/update_ancilla/normalize/Sum/reduction_indices"
  op: "Const"
  input: "^guitar_model/loss_fold/while/Identity"
  attr {
    key: "_output_shapes"
    value {
      list {
        shape {
        }
      }
    }
  }
  attr {
    key: "dtype"
    value {
      type: DT_INT32
    }
  }
  attr {
    key: "value"
    value {
      tensor {
        dtype: DT_INT32
        tensor_shape {
        }
        int_val: 1
      }
    }
  }
}
node {
  name: "guitar_model/loss_fold/while/update_ancilla/normalize/Sum"
  op: "Sum"
  input: "guitar_model/loss_fold/while/update_ancilla/normalize/Square"
  input: "guitar_model/loss_fold/while/update_ancilla/normalize/Sum/reduction_indices"
  attr {
    key: "T"
    value {
      type: DT_FLOAT
    }
  }
  attr {
    key: "Tidx"
    value {
      type: DT_INT32
    }
  }
  attr {
    key: "_output_shapes"
    value {
      list {
        shape {
          dim {
            size: -1
          }
          dim {
            size: 1
          }
        }
      }
    }
  }
  attr {
    key: "keep_dims"
    value {
      b: true
    }
  }
}
node {
  name: "guitar_model/loss_fold/while/update_ancilla/normalize/Maximum/y"
  op: "Const"
  input: "^guitar_model/loss_fold/while/Identity"
  attr {
    key: "_output_shapes"
    value {
      list {
        shape {
        }
      }
    }
  }
  attr {
    key: "dtype"
    value {
      type: DT_FLOAT
    }
  }
  attr {
    key: "value"
    value {
      tensor {
        dtype: DT_FLOAT
        tensor_shape {
        }
        float_val: 9.999999960041972e-13
      }
    }
  }
}
node {
  name: "guitar_model/loss_fold/while/update_ancilla/normalize/Maximum"
  op: "Maximum"
  input: "guitar_model/loss_fold/while/update_ancilla/normalize/Sum"
  input: "guitar_model/loss_fold/while/update_ancilla/normalize/Maximum/y"
  attr {
    key: "T"
    value {
      type: DT_FLOAT
    }
  }
  attr {
    key: "_output_shapes"
    value {
      list {
        shape {
          dim {
            size: -1
          }
          dim {
            size: 1
          }
        }
      }
    }
  }
}
node {
  name: "guitar_model/loss_fold/while/update_ancilla/normalize/Rsqrt"
  op: "Rsqrt"
  input: "guitar_model/loss_fold/while/update_ancilla/normalize/Maximum"
  attr {
    key: "T"
    value {
      type: DT_FLOAT
    }
  }
  attr {
    key: "_output_shapes"
    value {
      list {
        shape {
          dim {
            size: -1
          }
          dim {
            size: 1
          }
        }
      }
    }
  }
}
node {
  name: "guitar_model/loss_fold/while/update_ancilla/normalize/Cast"
  op: "Cast"
  input: "guitar_model/loss_fold/while/update_ancilla/normalize/Rsqrt"
  attr {
    key: "DstT"
    value {
      type: DT_COMPLEX64
    }
  }
  attr {
    key: "SrcT"
    value {
      type: DT_FLOAT
    }
  }
  attr {
    key: "_output_shapes"
    value {
      list {
        shape {
          dim {
            size: -1
          }
          dim {
            size: 1
          }
        }
      }
    }
  }
}
node {
  name: "guitar_model/loss_fold/while/update_ancilla/normalize/Mul"
  op: "Mul"
  input: "guitar_model/loss_fold/while/update_ancilla/add_1"
  input: "guitar_model/loss_fold/while/update_ancilla/normalize/Cast"
  attr {
    key: "T"
    value {
      type: DT_COMPLEX64
    }
  }
  attr {
    key: "_output_shapes"
    value {
      list {
        shape {
          dim {
            size: -1
          }
          dim {
            size: 5
          }
        }
      }
    }
  }
}
node {
  name: "guitar_model/loss_fold/while/expectation/Cast"
  op: "Cast"
  input: "guitar_model/loss_fold/while/update_ancilla/Cast_2/Enter"
  input: "^guitar_model/loss_fold/while/Identity"
  attr {
    key: "DstT"
    value {
      type: DT_COMPLEX64
    }
  }
  attr {
    key: "SrcT"
    value {
      type: DT_FLOAT
    }
  }
  attr {
    key: "_output_shapes"
    value {
      list {
        shape {
          dim {
            size: 5
          }
          dim {
            size: 5
          }
        }
      }
    }
  }
}
node {
  name: "guitar_model/loss_fold/while/expectation/Conj"
  op: "Conj"
  input: "guitar_model/loss_fold/while/update_ancilla/normalize/Mul"
  attr {
    key: "T"
    value {
      type: DT_COMPLEX64
    }
  }
  attr {
    key: "_output_shapes"
    value {
      list {
        shape {
          dim {
            size: -1
          }
          dim {
            size: 5
          }
        }
      }
    }
  }
}
node {
  name: "guitar_model/loss_fold/while/expectation/einsum/transpose/perm"
  op: "Const"
  input: "^guitar_model/loss_fold/while/Identity"
  attr {
    key: "_output_shapes"
    value {
      list {
        shape {
          dim {
            size: 2
          }
        }
      }
    }
  }
  attr {
    key: "dtype"
    value {
      type: DT_INT32
    }
  }
  attr {
    key: "value"
    value {
      tensor {
        dtype: DT_INT32
        tensor_shape {
          dim {
            size: 2
          }
        }
        tensor_content: "\000\000\000\000\001\000\000\000"
      }
    }
  }
}
node {
  name: "guitar_model/loss_fold/while/expectation/einsum/transpose"
  op: "Transpose"
  input: "guitar_model/loss_fold/while/expectation/Conj"
  input: "guitar_model/loss_fold/while/expectation/einsum/transpose/perm"
  attr {
    key: "T"
    value {
      type: DT_COMPLEX64
    }
  }
  attr {
    key: "Tperm"
    value {
      type: DT_INT32
    }
  }
  attr {
    key: "_output_shapes"
    value {
      list {
        shape {
          dim {
            size: -1
          }
          dim {
            size: 5
          }
        }
      }
    }
  }
}
node {
  name: "guitar_model/loss_fold/while/expectation/einsum/transpose_1/perm"
  op: "Const"
  input: "^guitar_model/loss_fold/while/Identity"
  attr {
    key: "_output_shapes"
    value {
      list {
        shape {
          dim {
            size: 2
          }
        }
      }
    }
  }
  attr {
    key: "dtype"
    value {
      type: DT_INT32
    }
  }
  attr {
    key: "value"
    value {
      tensor {
        dtype: DT_INT32
        tensor_shape {
          dim {
            size: 2
          }
        }
        tensor_content: "\000\000\000\000\001\000\000\000"
      }
    }
  }
}
node {
  name: "guitar_model/loss_fold/while/expectation/einsum/transpose_1"
  op: "Transpose"
  input: "guitar_model/loss_fold/while/expectation/Cast"
  input: "guitar_model/loss_fold/while/expectation/einsum/transpose_1/perm"
  attr {
    key: "T"
    value {
      type: DT_COMPLEX64
    }
  }
  attr {
    key: "Tperm"
    value {
      type: DT_INT32
    }
  }
  attr {
    key: "_output_shapes"
    value {
      list {
        shape {
          dim {
            size: 5
          }
          dim {
            size: 5
          }
        }
      }
    }
  }
}
node {
  name: "guitar_model/loss_fold/while/expectation/einsum/Shape"
  op: "Shape"
  input: "guitar_model/loss_fold/while/expectation/einsum/transpose"
  attr {
    key: "T"
    value {
      type: DT_COMPLEX64
    }
  }
  attr {
    key: "_output_shapes"
    value {
      list {
        shape {
          dim {
            size: 2
          }
        }
      }
    }
  }
  attr {
    key: "out_type"
    value {
      type: DT_INT32
    }
  }
}
node {
  name: "guitar_model/loss_fold/while/expectation/einsum/strided_slice/stack"
  op: "Const"
  input: "^guitar_model/loss_fold/while/Identity"
  attr {
    key: "_output_shapes"
    value {
      list {
        shape {
          dim {
            size: 1
          }
        }
      }
    }
  }
  attr {
    key: "dtype"
    value {
      type: DT_INT32
    }
  }
  attr {
    key: "value"
    value {
      tensor {
        dtype: DT_INT32
        tensor_shape {
          dim {
            size: 1
          }
        }
        int_val: 0
      }
    }
  }
}
node {
  name: "guitar_model/loss_fold/while/expectation/einsum/strided_slice/stack_1"
  op: "Const"
  input: "^guitar_model/loss_fold/while/Identity"
  attr {
    key: "_output_shapes"
    value {
      list {
        shape {
          dim {
            size: 1
          }
        }
      }
    }
  }
  attr {
    key: "dtype"
    value {
      type: DT_INT32
    }
  }
  attr {
    key: "value"
    value {
      tensor {
        dtype: DT_INT32
        tensor_shape {
          dim {
            size: 1
          }
        }
        int_val: 1
      }
    }
  }
}
node {
  name: "guitar_model/loss_fold/while/expectation/einsum/strided_slice/stack_2"
  op: "Const"
  input: "^guitar_model/loss_fold/while/Identity"
  attr {
    key: "_output_shapes"
    value {
      list {
        shape {
          dim {
            size: 1
          }
        }
      }
    }
  }
  attr {
    key: "dtype"
    value {
      type: DT_INT32
    }
  }
  attr {
    key: "value"
    value {
      tensor {
        dtype: DT_INT32
        tensor_shape {
          dim {
            size: 1
          }
        }
        int_val: 1
      }
    }
  }
}
node {
  name: "guitar_model/loss_fold/while/expectation/einsum/strided_slice"
  op: "StridedSlice"
  input: "guitar_model/loss_fold/while/expectation/einsum/Shape"
  input: "guitar_model/loss_fold/while/expectation/einsum/strided_slice/stack"
  input: "guitar_model/loss_fold/while/expectation/einsum/strided_slice/stack_1"
  input: "guitar_model/loss_fold/while/expectation/einsum/strided_slice/stack_2"
  attr {
    key: "Index"
    value {
      type: DT_INT32
    }
  }
  attr {
    key: "T"
    value {
      type: DT_INT32
    }
  }
  attr {
    key: "_output_shapes"
    value {
      list {
        shape {
        }
      }
    }
  }
  attr {
    key: "begin_mask"
    value {
      i: 0
    }
  }
  attr {
    key: "ellipsis_mask"
    value {
      i: 0
    }
  }
  attr {
    key: "end_mask"
    value {
      i: 0
    }
  }
  attr {
    key: "new_axis_mask"
    value {
      i: 0
    }
  }
  attr {
    key: "shrink_axis_mask"
    value {
      i: 1
    }
  }
}
node {
  name: "guitar_model/loss_fold/while/expectation/einsum/mul/x"
  op: "Const"
  input: "^guitar_model/loss_fold/while/Identity"
  attr {
    key: "_output_shapes"
    value {
      list {
        shape {
        }
      }
    }
  }
  attr {
    key: "dtype"
    value {
      type: DT_INT32
    }
  }
  attr {
    key: "value"
    value {
      tensor {
        dtype: DT_INT32
        tensor_shape {
        }
        int_val: 1
      }
    }
  }
}
node {
  name: "guitar_model/loss_fold/while/expectation/einsum/mul"
  op: "Mul"
  input: "guitar_model/loss_fold/while/expectation/einsum/mul/x"
  input: "guitar_model/loss_fold/while/expectation/einsum/strided_slice"
  attr {
    key: "T"
    value {
      type: DT_INT32
    }
  }
  attr {
    key: "_output_shapes"
    value {
      list {
        shape {
        }
      }
    }
  }
}
node {
  name: "guitar_model/loss_fold/while/expectation/einsum/Reshape/shape/1"
  op: "Const"
  input: "^guitar_model/loss_fold/while/Identity"
  attr {
    key: "_output_shapes"
    value {
      list {
        shape {
        }
      }
    }
  }
  attr {
    key: "dtype"
    value {
      type: DT_INT32
    }
  }
  attr {
    key: "value"
    value {
      tensor {
        dtype: DT_INT32
        tensor_shape {
        }
        int_val: 5
      }
    }
  }
}
node {
  name: "guitar_model/loss_fold/while/expectation/einsum/Reshape/shape"
  op: "Pack"
  input: "guitar_model/loss_fold/while/expectation/einsum/mul"
  input: "guitar_model/loss_fold/while/expectation/einsum/Reshape/shape/1"
  attr {
    key: "N"
    value {
      i: 2
    }
  }
  attr {
    key: "T"
    value {
      type: DT_INT32
    }
  }
  attr {
    key: "_output_shapes"
    value {
      list {
        shape {
          dim {
            size: 2
          }
        }
      }
    }
  }
  attr {
    key: "axis"
    value {
      i: 0
    }
  }
}
node {
  name: "guitar_model/loss_fold/while/expectation/einsum/Reshape"
  op: "Reshape"
  input: "guitar_model/loss_fold/while/expectation/einsum/transpose"
  input: "guitar_model/loss_fold/while/expectation/einsum/Reshape/shape"
  attr {
    key: "T"
    value {
      type: DT_COMPLEX64
    }
  }
  attr {
    key: "Tshape"
    value {
      type: DT_INT32
    }
  }
  attr {
    key: "_output_shapes"
    value {
      list {
        shape {
          dim {
            size: -1
          }
          dim {
            size: 5
          }
        }
      }
    }
  }
}
node {
  name: "guitar_model/loss_fold/while/expectation/einsum/MatMul"
  op: "MatMul"
  input: "guitar_model/loss_fold/while/expectation/einsum/Reshape"
  input: "guitar_model/loss_fold/while/expectation/einsum/transpose_1"
  attr {
    key: "T"
    value {
      type: DT_COMPLEX64
    }
  }
  attr {
    key: "_output_shapes"
    value {
      list {
        shape {
          dim {
            size: -1
          }
          dim {
            size: 5
          }
        }
      }
    }
  }
  attr {
    key: "transpose_a"
    value {
      b: false
    }
  }
  attr {
    key: "transpose_b"
    value {
      b: false
    }
  }
}
node {
  name: "guitar_model/loss_fold/while/expectation/einsum/Reshape_1/shape/1"
  op: "Const"
  input: "^guitar_model/loss_fold/while/Identity"
  attr {
    key: "_output_shapes"
    value {
      list {
        shape {
        }
      }
    }
  }
  attr {
    key: "dtype"
    value {
      type: DT_INT32
    }
  }
  attr {
    key: "value"
    value {
      tensor {
        dtype: DT_INT32
        tensor_shape {
        }
        int_val: 5
      }
    }
  }
}
node {
  name: "guitar_model/loss_fold/while/expectation/einsum/Reshape_1/shape"
  op: "Pack"
  input: "guitar_model/loss_fold/while/expectation/einsum/strided_slice"
  input: "guitar_model/loss_fold/while/expectation/einsum/Reshape_1/shape/1"
  attr {
    key: "N"
    value {
      i: 2
    }
  }
  attr {
    key: "T"
    value {
      type: DT_INT32
    }
  }
  attr {
    key: "_output_shapes"
    value {
      list {
        shape {
          dim {
            size: 2
          }
        }
      }
    }
  }
  attr {
    key: "axis"
    value {
      i: 0
    }
  }
}
node {
  name: "guitar_model/loss_fold/while/expectation/einsum/Reshape_1"
  op: "Reshape"
  input: "guitar_model/loss_fold/while/expectation/einsum/MatMul"
  input: "guitar_model/loss_fold/while/expectation/einsum/Reshape_1/shape"
  attr {
    key: "T"
    value {
      type: DT_COMPLEX64
    }
  }
  attr {
    key: "Tshape"
    value {
      type: DT_INT32
    }
  }
  attr {
    key: "_output_shapes"
    value {
      list {
        shape {
          dim {
            size: -1
          }
          dim {
            size: 5
          }
        }
      }
    }
  }
}
node {
  name: "guitar_model/loss_fold/while/expectation/einsum/transpose_2/perm"
  op: "Const"
  input: "^guitar_model/loss_fold/while/Identity"
  attr {
    key: "_output_shapes"
    value {
      list {
        shape {
          dim {
            size: 2
          }
        }
      }
    }
  }
  attr {
    key: "dtype"
    value {
      type: DT_INT32
    }
  }
  attr {
    key: "value"
    value {
      tensor {
        dtype: DT_INT32
        tensor_shape {
          dim {
            size: 2
          }
        }
        tensor_content: "\000\000\000\000\001\000\000\000"
      }
    }
  }
}
node {
  name: "guitar_model/loss_fold/while/expectation/einsum/transpose_2"
  op: "Transpose"
  input: "guitar_model/loss_fold/while/expectation/einsum/Reshape_1"
  input: "guitar_model/loss_fold/while/expectation/einsum/transpose_2/perm"
  attr {
    key: "T"
    value {
      type: DT_COMPLEX64
    }
  }
  attr {
    key: "Tperm"
    value {
      type: DT_INT32
    }
  }
  attr {
    key: "_output_shapes"
    value {
      list {
        shape {
          dim {
            size: -1
          }
          dim {
            size: 5
          }
        }
      }
    }
  }
}
node {
  name: "guitar_model/loss_fold/while/expectation/einsum/transpose_3/perm"
  op: "Const"
  input: "^guitar_model/loss_fold/while/Identity"
  attr {
    key: "_output_shapes"
    value {
      list {
        shape {
          dim {
            size: 2
          }
        }
      }
    }
  }
  attr {
    key: "dtype"
    value {
      type: DT_INT32
    }
  }
  attr {
    key: "value"
    value {
      tensor {
        dtype: DT_INT32
        tensor_shape {
          dim {
            size: 2
          }
        }
        tensor_content: "\000\000\000\000\001\000\000\000"
      }
    }
  }
}
node {
  name: "guitar_model/loss_fold/while/expectation/einsum/transpose_3"
  op: "Transpose"
  input: "guitar_model/loss_fold/while/update_ancilla/normalize/Mul"
  input: "guitar_model/loss_fold/while/expectation/einsum/transpose_3/perm"
  attr {
    key: "T"
    value {
      type: DT_COMPLEX64
    }
  }
  attr {
    key: "Tperm"
    value {
      type: DT_INT32
    }
  }
  attr {
    key: "_output_shapes"
    value {
      list {
        shape {
          dim {
            size: -1
          }
          dim {
            size: 5
          }
        }
      }
    }
  }
}
node {
  name: "guitar_model/loss_fold/while/expectation/einsum/Shape_1"
  op: "Shape"
  input: "guitar_model/loss_fold/while/expectation/einsum/transpose_2"
  attr {
    key: "T"
    value {
      type: DT_COMPLEX64
    }
  }
  attr {
    key: "_output_shapes"
    value {
      list {
        shape {
          dim {
            size: 2
          }
        }
      }
    }
  }
  attr {
    key: "out_type"
    value {
      type: DT_INT32
    }
  }
}
node {
  name: "guitar_model/loss_fold/while/expectation/einsum/strided_slice_1/stack"
  op: "Const"
  input: "^guitar_model/loss_fold/while/Identity"
  attr {
    key: "_output_shapes"
    value {
      list {
        shape {
          dim {
            size: 1
          }
        }
      }
    }
  }
  attr {
    key: "dtype"
    value {
      type: DT_INT32
    }
  }
  attr {
    key: "value"
    value {
      tensor {
        dtype: DT_INT32
        tensor_shape {
          dim {
            size: 1
          }
        }
        int_val: 0
      }
    }
  }
}
node {
  name: "guitar_model/loss_fold/while/expectation/einsum/strided_slice_1/stack_1"
  op: "Const"
  input: "^guitar_model/loss_fold/while/Identity"
  attr {
    key: "_output_shapes"
    value {
      list {
        shape {
          dim {
            size: 1
          }
        }
      }
    }
  }
  attr {
    key: "dtype"
    value {
      type: DT_INT32
    }
  }
  attr {
    key: "value"
    value {
      tensor {
        dtype: DT_INT32
        tensor_shape {
          dim {
            size: 1
          }
        }
        int_val: 1
      }
    }
  }
}
node {
  name: "guitar_model/loss_fold/while/expectation/einsum/strided_slice_1/stack_2"
  op: "Const"
  input: "^guitar_model/loss_fold/while/Identity"
  attr {
    key: "_output_shapes"
    value {
      list {
        shape {
          dim {
            size: 1
          }
        }
      }
    }
  }
  attr {
    key: "dtype"
    value {
      type: DT_INT32
    }
  }
  attr {
    key: "value"
    value {
      tensor {
        dtype: DT_INT32
        tensor_shape {
          dim {
            size: 1
          }
        }
        int_val: 1
      }
    }
  }
}
node {
  name: "guitar_model/loss_fold/while/expectation/einsum/strided_slice_1"
  op: "StridedSlice"
  input: "guitar_model/loss_fold/while/expectation/einsum/Shape_1"
  input: "guitar_model/loss_fold/while/expectation/einsum/strided_slice_1/stack"
  input: "guitar_model/loss_fold/while/expectation/einsum/strided_slice_1/stack_1"
  input: "guitar_model/loss_fold/while/expectation/einsum/strided_slice_1/stack_2"
  attr {
    key: "Index"
    value {
      type: DT_INT32
    }
  }
  attr {
    key: "T"
    value {
      type: DT_INT32
    }
  }
  attr {
    key: "_output_shapes"
    value {
      list {
        shape {
        }
      }
    }
  }
  attr {
    key: "begin_mask"
    value {
      i: 0
    }
  }
  attr {
    key: "ellipsis_mask"
    value {
      i: 0
    }
  }
  attr {
    key: "end_mask"
    value {
      i: 0
    }
  }
  attr {
    key: "new_axis_mask"
    value {
      i: 0
    }
  }
  attr {
    key: "shrink_axis_mask"
    value {
      i: 1
    }
  }
}
node {
  name: "guitar_model/loss_fold/while/expectation/einsum/Reshape_2/shape/1"
  op: "Const"
  input: "^guitar_model/loss_fold/while/Identity"
  attr {
    key: "_output_shapes"
    value {
      list {
        shape {
        }
      }
    }
  }
  attr {
    key: "dtype"
    value {
      type: DT_INT32
    }
  }
  attr {
    key: "value"
    value {
      tensor {
        dtype: DT_INT32
        tensor_shape {
        }
        int_val: 1
      }
    }
  }
}
node {
  name: "guitar_model/loss_fold/while/expectation/einsum/Reshape_2/shape/2"
  op: "Const"
  input: "^guitar_model/loss_fold/while/Identity"
  attr {
    key: "_output_shapes"
    value {
      list {
        shape {
        }
      }
    }
  }
  attr {
    key: "dtype"
    value {
      type: DT_INT32
    }
  }
  attr {
    key: "value"
    value {
      tensor {
        dtype: DT_INT32
        tensor_shape {
        }
        int_val: 5
      }
    }
  }
}
node {
  name: "guitar_model/loss_fold/while/expectation/einsum/Reshape_2/shape"
  op: "Pack"
  input: "guitar_model/loss_fold/while/expectation/einsum/strided_slice_1"
  input: "guitar_model/loss_fold/while/expectation/einsum/Reshape_2/shape/1"
  input: "guitar_model/loss_fold/while/expectation/einsum/Reshape_2/shape/2"
  attr {
    key: "N"
    value {
      i: 3
    }
  }
  attr {
    key: "T"
    value {
      type: DT_INT32
    }
  }
  attr {
    key: "_output_shapes"
    value {
      list {
        shape {
          dim {
            size: 3
          }
        }
      }
    }
  }
  attr {
    key: "axis"
    value {
      i: 0
    }
  }
}
node {
  name: "guitar_model/loss_fold/while/expectation/einsum/Reshape_2"
  op: "Reshape"
  input: "guitar_model/loss_fold/while/expectation/einsum/transpose_2"
  input: "guitar_model/loss_fold/while/expectation/einsum/Reshape_2/shape"
  attr {
    key: "T"
    value {
      type: DT_COMPLEX64
    }
  }
  attr {
    key: "Tshape"
    value {
      type: DT_INT32
    }
  }
  attr {
    key: "_output_shapes"
    value {
      list {
        shape {
          dim {
            size: -1
          }
          dim {
            size: 1
          }
          dim {
            size: 5
          }
        }
      }
    }
  }
}
node {
  name: "guitar_model/loss_fold/while/expectation/einsum/Shape_2"
  op: "Shape"
  input: "guitar_model/loss_fold/while/expectation/einsum/transpose_3"
  attr {
    key: "T"
    value {
      type: DT_COMPLEX64
    }
  }
  attr {
    key: "_output_shapes"
    value {
      list {
        shape {
          dim {
            size: 2
          }
        }
      }
    }
  }
  attr {
    key: "out_type"
    value {
      type: DT_INT32
    }
  }
}
node {
  name: "guitar_model/loss_fold/while/expectation/einsum/strided_slice_2/stack"
  op: "Const"
  input: "^guitar_model/loss_fold/while/Identity"
  attr {
    key: "_output_shapes"
    value {
      list {
        shape {
          dim {
            size: 1
          }
        }
      }
    }
  }
  attr {
    key: "dtype"
    value {
      type: DT_INT32
    }
  }
  attr {
    key: "value"
    value {
      tensor {
        dtype: DT_INT32
        tensor_shape {
          dim {
            size: 1
          }
        }
        int_val: 0
      }
    }
  }
}
node {
  name: "guitar_model/loss_fold/while/expectation/einsum/strided_slice_2/stack_1"
  op: "Const"
  input: "^guitar_model/loss_fold/while/Identity"
  attr {
    key: "_output_shapes"
    value {
      list {
        shape {
          dim {
            size: 1
          }
        }
      }
    }
  }
  attr {
    key: "dtype"
    value {
      type: DT_INT32
    }
  }
  attr {
    key: "value"
    value {
      tensor {
        dtype: DT_INT32
        tensor_shape {
          dim {
            size: 1
          }
        }
        int_val: 1
      }
    }
  }
}
node {
  name: "guitar_model/loss_fold/while/expectation/einsum/strided_slice_2/stack_2"
  op: "Const"
  input: "^guitar_model/loss_fold/while/Identity"
  attr {
    key: "_output_shapes"
    value {
      list {
        shape {
          dim {
            size: 1
          }
        }
      }
    }
  }
  attr {
    key: "dtype"
    value {
      type: DT_INT32
    }
  }
  attr {
    key: "value"
    value {
      tensor {
        dtype: DT_INT32
        tensor_shape {
          dim {
            size: 1
          }
        }
        int_val: 1
      }
    }
  }
}
node {
  name: "guitar_model/loss_fold/while/expectation/einsum/strided_slice_2"
  op: "StridedSlice"
  input: "guitar_model/loss_fold/while/expectation/einsum/Shape_2"
  input: "guitar_model/loss_fold/while/expectation/einsum/strided_slice_2/stack"
  input: "guitar_model/loss_fold/while/expectation/einsum/strided_slice_2/stack_1"
  input: "guitar_model/loss_fold/while/expectation/einsum/strided_slice_2/stack_2"
  attr {
    key: "Index"
    value {
      type: DT_INT32
    }
  }
  attr {
    key: "T"
    value {
      type: DT_INT32
    }
  }
  attr {
    key: "_output_shapes"
    value {
      list {
        shape {
        }
      }
    }
  }
  attr {
    key: "begin_mask"
    value {
      i: 0
    }
  }
  attr {
    key: "ellipsis_mask"
    value {
      i: 0
    }
  }
  attr {
    key: "end_mask"
    value {
      i: 0
    }
  }
  attr {
    key: "new_axis_mask"
    value {
      i: 0
    }
  }
  attr {
    key: "shrink_axis_mask"
    value {
      i: 1
    }
  }
}
node {
  name: "guitar_model/loss_fold/while/expectation/einsum/Reshape_3/shape/1"
  op: "Const"
  input: "^guitar_model/loss_fold/while/Identity"
  attr {
    key: "_output_shapes"
    value {
      list {
        shape {
        }
      }
    }
  }
  attr {
    key: "dtype"
    value {
      type: DT_INT32
    }
  }
  attr {
    key: "value"
    value {
      tensor {
        dtype: DT_INT32
        tensor_shape {
        }
        int_val: 5
      }
    }
  }
}
node {
  name: "guitar_model/loss_fold/while/expectation/einsum/Reshape_3/shape/2"
  op: "Const"
  input: "^guitar_model/loss_fold/while/Identity"
  attr {
    key: "_output_shapes"
    value {
      list {
        shape {
        }
      }
    }
  }
  attr {
    key: "dtype"
    value {
      type: DT_INT32
    }
  }
  attr {
    key: "value"
    value {
      tensor {
        dtype: DT_INT32
        tensor_shape {
        }
        int_val: 1
      }
    }
  }
}
node {
  name: "guitar_model/loss_fold/while/expectation/einsum/Reshape_3/shape"
  op: "Pack"
  input: "guitar_model/loss_fold/while/expectation/einsum/strided_slice_2"
  input: "guitar_model/loss_fold/while/expectation/einsum/Reshape_3/shape/1"
  input: "guitar_model/loss_fold/while/expectation/einsum/Reshape_3/shape/2"
  attr {
    key: "N"
    value {
      i: 3
    }
  }
  attr {
    key: "T"
    value {
      type: DT_INT32
    }
  }
  attr {
    key: "_output_shapes"
    value {
      list {
        shape {
          dim {
            size: 3
          }
        }
      }
    }
  }
  attr {
    key: "axis"
    value {
      i: 0
    }
  }
}
node {
  name: "guitar_model/loss_fold/while/expectation/einsum/Reshape_3"
  op: "Reshape"
  input: "guitar_model/loss_fold/while/expectation/einsum/transpose_3"
  input: "guitar_model/loss_fold/while/expectation/einsum/Reshape_3/shape"
  attr {
    key: "T"
    value {
      type: DT_COMPLEX64
    }
  }
  attr {
    key: "Tshape"
    value {
      type: DT_INT32
    }
  }
  attr {
    key: "_output_shapes"
    value {
      list {
        shape {
          dim {
            size: -1
          }
          dim {
            size: 5
          }
          dim {
            size: 1
          }
        }
      }
    }
  }
}
node {
  name: "guitar_model/loss_fold/while/expectation/einsum/MatMul_1"
  op: "BatchMatMul"
  input: "guitar_model/loss_fold/while/expectation/einsum/Reshape_2"
  input: "guitar_model/loss_fold/while/expectation/einsum/Reshape_3"
  attr {
    key: "T"
    value {
      type: DT_COMPLEX64
    }
  }
  attr {
    key: "_output_shapes"
    value {
      list {
        shape {
          dim {
            size: -1
          }
          dim {
            size: 1
          }
          dim {
            size: 1
          }
        }
      }
    }
  }
  attr {
    key: "adj_x"
    value {
      b: false
    }
  }
  attr {
    key: "adj_y"
    value {
      b: false
    }
  }
}
node {
  name: "guitar_model/loss_fold/while/expectation/einsum/Reshape_4/shape"
  op: "Pack"
  input: "guitar_model/loss_fold/while/expectation/einsum/strided_slice_1"
  attr {
    key: "N"
    value {
      i: 1
    }
  }
  attr {
    key: "T"
    value {
      type: DT_INT32
    }
  }
  attr {
    key: "_output_shapes"
    value {
      list {
        shape {
          dim {
            size: 1
          }
        }
      }
    }
  }
  attr {
    key: "axis"
    value {
      i: 0
    }
  }
}
node {
  name: "guitar_model/loss_fold/while/expectation/einsum/Reshape_4"
  op: "Reshape"
  input: "guitar_model/loss_fold/while/expectation/einsum/MatMul_1"
  input: "guitar_model/loss_fold/while/expectation/einsum/Reshape_4/shape"
  attr {
    key: "T"
    value {
      type: DT_COMPLEX64
    }
  }
  attr {
    key: "Tshape"
    value {
      type: DT_INT32
    }
  }
  attr {
    key: "_output_shapes"
    value {
      list {
        shape {
          dim {
            size: -1
          }
        }
      }
    }
  }
}
node {
  name: "guitar_model/loss_fold/while/expectation/einsum/transpose_4/perm"
  op: "Const"
  input: "^guitar_model/loss_fold/while/Identity"
  attr {
    key: "_output_shapes"
    value {
      list {
        shape {
          dim {
            size: 1
          }
        }
      }
    }
  }
  attr {
    key: "dtype"
    value {
      type: DT_INT32
    }
  }
  attr {
    key: "value"
    value {
      tensor {
        dtype: DT_INT32
        tensor_shape {
          dim {
            size: 1
          }
        }
        int_val: 0
      }
    }
  }
}
node {
  name: "guitar_model/loss_fold/while/expectation/einsum/transpose_4"
  op: "Transpose"
  input: "guitar_model/loss_fold/while/expectation/einsum/Reshape_4"
  input: "guitar_model/loss_fold/while/expectation/einsum/transpose_4/perm"
  attr {
    key: "T"
    value {
      type: DT_COMPLEX64
    }
  }
  attr {
    key: "Tperm"
    value {
      type: DT_INT32
    }
  }
  attr {
    key: "_output_shapes"
    value {
      list {
        shape {
          dim {
            size: -1
          }
        }
      }
    }
  }
}
node {
  name: "guitar_model/loss_fold/while/expectation/Real"
  op: "Real"
  input: "guitar_model/loss_fold/while/expectation/einsum/transpose_4"
  attr {
    key: "T"
    value {
      type: DT_COMPLEX64
    }
  }
  attr {
    key: "Tout"
    value {
      type: DT_FLOAT
    }
  }
  attr {
    key: "_output_shapes"
    value {
      list {
        shape {
          dim {
            size: -1
          }
        }
      }
    }
  }
}
node {
  name: "guitar_model/loss_fold/while/expectation/mul/x"
  op: "Const"
  input: "^guitar_model/loss_fold/while/Identity"
  attr {
    key: "_output_shapes"
    value {
      list {
        shape {
        }
      }
    }
  }
  attr {
    key: "dtype"
    value {
      type: DT_FLOAT
    }
  }
  attr {
    key: "value"
    value {
      tensor {
        dtype: DT_FLOAT
        tensor_shape {
        }
        float_val: 2.0
      }
    }
  }
}
node {
  name: "guitar_model/loss_fold/while/expectation/mul"
  op: "Mul"
  input: "guitar_model/loss_fold/while/expectation/mul/x"
  input: "guitar_model/loss_fold/while/expectation/Real"
  attr {
    key: "T"
    value {
      type: DT_FLOAT
    }
  }
  attr {
    key: "_output_shapes"
    value {
      list {
        shape {
          dim {
            size: -1
          }
        }
      }
    }
  }
}
node {
  name: "guitar_model/loss_fold/while/sub"
  op: "Sub"
  input: "guitar_model/loss_fold/while/TensorArrayReadV3"
  input: "guitar_model/loss_fold/while/expectation/mul"
  attr {
    key: "T"
    value {
      type: DT_FLOAT
    }
  }
  attr {
    key: "_output_shapes"
    value {
      list {
        shape {
          dim {
            size: -1
          }
        }
      }
    }
  }
}
node {
  name: "guitar_model/loss_fold/while/pow/y"
  op: "Const"
  input: "^guitar_model/loss_fold/while/Identity"
  attr {
    key: "_output_shapes"
    value {
      list {
        shape {
        }
      }
    }
  }
  attr {
    key: "dtype"
    value {
      type: DT_FLOAT
    }
  }
  attr {
    key: "value"
    value {
      tensor {
        dtype: DT_FLOAT
        tensor_shape {
        }
        float_val: 2.0
      }
    }
  }
}
node {
  name: "guitar_model/loss_fold/while/pow"
  op: "Pow"
  input: "guitar_model/loss_fold/while/sub"
  input: "guitar_model/loss_fold/while/pow/y"
  attr {
    key: "T"
    value {
      type: DT_FLOAT
    }
  }
  attr {
    key: "_output_shapes"
    value {
      list {
        shape {
          dim {
            size: -1
          }
        }
      }
    }
  }
}
node {
  name: "guitar_model/loss_fold/while/truediv/y"
  op: "Const"
  input: "^guitar_model/loss_fold/while/Identity"
  attr {
    key: "_output_shapes"
    value {
      list {
        shape {
        }
      }
    }
  }
  attr {
    key: "dtype"
    value {
      type: DT_FLOAT
    }
  }
  attr {
    key: "value"
    value {
      tensor {
        dtype: DT_FLOAT
        tensor_shape {
        }
        float_val: 2.0
      }
    }
  }
}
node {
  name: "guitar_model/loss_fold/while/truediv"
  op: "RealDiv"
  input: "guitar_model/loss_fold/while/pow"
  input: "guitar_model/loss_fold/while/truediv/y"
  attr {
    key: "T"
    value {
      type: DT_FLOAT
    }
  }
  attr {
    key: "_output_shapes"
    value {
      list {
        shape {
          dim {
            size: -1
          }
        }
      }
    }
  }
}
node {
  name: "guitar_model/loss_fold/while/add"
  op: "Add"
  input: "guitar_model/loss_fold/while/Identity_2"
  input: "guitar_model/loss_fold/while/truediv"
  attr {
    key: "T"
    value {
      type: DT_FLOAT
    }
  }
  attr {
    key: "_output_shapes"
    value {
      list {
        shape {
          dim {
            size: -1
          }
        }
      }
    }
  }
}
node {
  name: "guitar_model/loss_fold/while/add_1/y"
  op: "Const"
  input: "^guitar_model/loss_fold/while/Identity"
  attr {
    key: "_output_shapes"
    value {
      list {
        shape {
        }
      }
    }
  }
  attr {
    key: "dtype"
    value {
      type: DT_INT32
    }
  }
  attr {
    key: "value"
    value {
      tensor {
        dtype: DT_INT32
        tensor_shape {
        }
        int_val: 1
      }
    }
  }
}
node {
  name: "guitar_model/loss_fold/while/add_1"
  op: "Add"
  input: "guitar_model/loss_fold/while/Identity"
  input: "guitar_model/loss_fold/while/add_1/y"
  attr {
    key: "T"
    value {
      type: DT_INT32
    }
  }
  attr {
    key: "_output_shapes"
    value {
      list {
        shape {
        }
      }
    }
  }
}
node {
  name: "guitar_model/loss_fold/while/NextIteration"
  op: "NextIteration"
  input: "guitar_model/loss_fold/while/add_1"
  attr {
    key: "T"
    value {
      type: DT_INT32
    }
  }
  attr {
    key: "_output_shapes"
    value {
      list {
        shape {
        }
      }
    }
  }
}
node {
  name: "guitar_model/loss_fold/while/NextIteration_1"
  op: "NextIteration"
  input: "guitar_model/loss_fold/while/update_ancilla/normalize/Mul"
  attr {
    key: "T"
    value {
      type: DT_COMPLEX64
    }
  }
  attr {
    key: "_output_shapes"
    value {
      list {
        shape {
          dim {
            size: -1
          }
          dim {
            size: 5
          }
        }
      }
    }
  }
}
node {
  name: "guitar_model/loss_fold/while/NextIteration_2"
  op: "NextIteration"
  input: "guitar_model/loss_fold/while/add"
  attr {
    key: "T"
    value {
      type: DT_FLOAT
    }
  }
  attr {
    key: "_output_shapes"
    value {
      list {
        shape {
          dim {
            size: -1
          }
        }
      }
    }
  }
}
node {
  name: "guitar_model/loss_fold/while/Exit"
  op: "Exit"
  input: "guitar_model/loss_fold/while/Switch"
  attr {
    key: "T"
    value {
      type: DT_INT32
    }
  }
  attr {
    key: "_output_shapes"
    value {
      list {
        shape {
        }
      }
    }
  }
}
node {
  name: "guitar_model/loss_fold/while/Exit_1"
  op: "Exit"
  input: "guitar_model/loss_fold/while/Switch_1"
  attr {
    key: "T"
    value {
      type: DT_COMPLEX64
    }
  }
  attr {
    key: "_output_shapes"
    value {
      list {
        shape {
          dim {
            size: -1
          }
          dim {
            size: 5
          }
        }
      }
    }
  }
}
node {
  name: "guitar_model/loss_fold/while/Exit_2"
  op: "Exit"
  input: "guitar_model/loss_fold/while/Switch_2"
  attr {
    key: "T"
    value {
      type: DT_FLOAT
    }
  }
  attr {
    key: "_output_shapes"
    value {
      list {
        shape {
          dim {
            size: -1
          }
        }
      }
    }
  }
}
node {
  name: "guitar_model/Const"
  op: "Const"
  attr {
    key: "_output_shapes"
    value {
      list {
        shape {
          dim {
            size: 1
          }
        }
      }
    }
  }
  attr {
    key: "dtype"
    value {
      type: DT_INT32
    }
  }
  attr {
    key: "value"
    value {
      tensor {
        dtype: DT_INT32
        tensor_shape {
          dim {
            size: 1
          }
        }
        int_val: 0
      }
    }
  }
}
node {
  name: "guitar_model/Mean"
  op: "Mean"
  input: "guitar_model/loss_fold/while/Exit_2"
  input: "guitar_model/Const"
  attr {
    key: "T"
    value {
      type: DT_FLOAT
    }
  }
  attr {
    key: "Tidx"
    value {
      type: DT_INT32
    }
  }
  attr {
    key: "_output_shapes"
    value {
      list {
        shape {
        }
      }
    }
  }
  attr {
    key: "keep_dims"
    value {
      b: false
    }
  }
}
node {
  name: "init"
  op: "NoOp"
  input: "^guitar_model/H/Assign"
  input: "^guitar_model/R/Assign"
}
node {
  name: "range/start"
  op: "Const"
  attr {
    key: "_output_shapes"
    value {
      list {
        shape {
        }
      }
    }
  }
  attr {
    key: "dtype"
    value {
      type: DT_FLOAT
    }
  }
  attr {
    key: "value"
    value {
      tensor {
        dtype: DT_FLOAT
        tensor_shape {
        }
        float_val: 0.0
      }
    }
  }
}
node {
  name: "range/limit"
  op: "Const"
  attr {
    key: "_output_shapes"
    value {
      list {
        shape {
        }
      }
    }
  }
  attr {
    key: "dtype"
    value {
      type: DT_FLOAT
    }
  }
  attr {
    key: "value"
    value {
      tensor {
        dtype: DT_FLOAT
        tensor_shape {
        }
        float_val: 4096.0
      }
    }
  }
}
node {
  name: "range/delta"
  op: "Const"
  attr {
    key: "_output_shapes"
    value {
      list {
        shape {
        }
      }
    }
  }
  attr {
    key: "dtype"
    value {
      type: DT_FLOAT
    }
  }
  attr {
    key: "value"
    value {
      tensor {
        dtype: DT_FLOAT
        tensor_shape {
        }
        float_val: 1.0
      }
    }
  }
}
node {
  name: "range"
  op: "Range"
  input: "range/start"
  input: "range/limit"
  input: "range/delta"
  attr {
    key: "Tidx"
    value {
      type: DT_FLOAT
    }
  }
  attr {
    key: "_output_shapes"
    value {
      list {
        shape {
          dim {
            size: 4096
          }
        }
      }
    }
  }
}
node {
  name: "truediv/y"
  op: "Const"
  attr {
    key: "_output_shapes"
    value {
      list {
        shape {
        }
      }
    }
  }
  attr {
    key: "dtype"
    value {
      type: DT_FLOAT
    }
  }
  attr {
    key: "value"
    value {
      tensor {
        dtype: DT_FLOAT
        tensor_shape {
        }
        float_val: 10.0
      }
    }
  }
}
node {
  name: "truediv"
  op: "RealDiv"
  input: "range"
  input: "truediv/y"
  attr {
    key: "T"
    value {
      type: DT_FLOAT
    }
  }
  attr {
    key: "_output_shapes"
    value {
      list {
        shape {
          dim {
            size: 4096
          }
        }
      }
    }
  }
}
node {
  name: "random_uniform/shape"
  op: "Const"
  attr {
    key: "_output_shapes"
    value {
      list {
        shape {
          dim {
            size: 1
          }
        }
      }
    }
  }
  attr {
    key: "dtype"
    value {
      type: DT_INT32
    }
  }
  attr {
    key: "value"
    value {
      tensor {
        dtype: DT_INT32
        tensor_shape {
          dim {
            size: 1
          }
        }
        int_val: 1
      }
    }
  }
}
node {
  name: "random_uniform/min"
  op: "Const"
  attr {
    key: "_output_shapes"
    value {
      list {
        shape {
        }
      }
    }
  }
  attr {
    key: "dtype"
    value {
      type: DT_FLOAT
    }
  }
  attr {
    key: "value"
    value {
      tensor {
        dtype: DT_FLOAT
        tensor_shape {
        }
        float_val: 0.0
      }
    }
  }
}
node {
  name: "random_uniform/max"
  op: "Const"
  attr {
    key: "_output_shapes"
    value {
      list {
        shape {
        }
      }
    }
  }
  attr {
    key: "dtype"
    value {
      type: DT_FLOAT
    }
  }
  attr {
    key: "value"
    value {
      tensor {
        dtype: DT_FLOAT
        tensor_shape {
        }
        float_val: 6.2831854820251465
      }
    }
  }
}
node {
  name: "random_uniform/RandomUniform"
  op: "RandomUniform"
  input: "random_uniform/shape"
  attr {
    key: "T"
    value {
      type: DT_INT32
    }
  }
  attr {
    key: "_output_shapes"
    value {
      list {
        shape {
          dim {
            size: 1
          }
        }
      }
    }
  }
  attr {
    key: "dtype"
    value {
      type: DT_FLOAT
    }
  }
  attr {
    key: "seed"
    value {
      i: 0
    }
  }
  attr {
    key: "seed2"
    value {
      i: 0
    }
  }
}
node {
  name: "random_uniform/sub"
  op: "Sub"
  input: "random_uniform/max"
  input: "random_uniform/min"
  attr {
    key: "T"
    value {
      type: DT_FLOAT
    }
  }
  attr {
    key: "_output_shapes"
    value {
      list {
        shape {
        }
      }
    }
  }
}
node {
  name: "random_uniform/mul"
  op: "Mul"
  input: "random_uniform/RandomUniform"
  input: "random_uniform/sub"
  attr {
    key: "T"
    value {
      type: DT_FLOAT
    }
  }
  attr {
    key: "_output_shapes"
    value {
      list {
        shape {
          dim {
            size: 1
          }
        }
      }
    }
  }
}
node {
  name: "random_uniform"
  op: "Add"
  input: "random_uniform/mul"
  input: "random_uniform/min"
  attr {
    key: "T"
    value {
      type: DT_FLOAT
    }
  }
  attr {
    key: "_output_shapes"
    value {
      list {
        shape {
          dim {
            size: 1
          }
        }
      }
    }
  }
}
node {
  name: "add"
  op: "Add"
  input: "truediv"
  input: "random_uniform"
  attr {
    key: "T"
    value {
      type: DT_FLOAT
    }
  }
  attr {
    key: "_output_shapes"
    value {
      list {
        shape {
          dim {
            size: 4096
          }
        }
      }
    }
  }
}
node {
  name: "Sin"
  op: "Sin"
  input: "add"
  attr {
    key: "T"
    value {
      type: DT_FLOAT
    }
  }
  attr {
    key: "_output_shapes"
    value {
      list {
        shape {
          dim {
            size: 4096
          }
        }
      }
    }
  }
}
node {
  name: "range_1/start"
  op: "Const"
  attr {
    key: "_output_shapes"
    value {
      list {
        shape {
        }
      }
    }
  }
  attr {
    key: "dtype"
    value {
      type: DT_FLOAT
    }
  }
  attr {
    key: "value"
    value {
      tensor {
        dtype: DT_FLOAT
        tensor_shape {
        }
        float_val: 0.0
      }
    }
  }
}
node {
  name: "range_1/limit"
  op: "Const"
  attr {
    key: "_output_shapes"
    value {
      list {
        shape {
        }
      }
    }
  }
  attr {
    key: "dtype"
    value {
      type: DT_FLOAT
    }
  }
  attr {
    key: "value"
    value {
      tensor {
        dtype: DT_FLOAT
        tensor_shape {
        }
        float_val: 4096.0
      }
    }
  }
}
node {
  name: "range_1/delta"
  op: "Const"
  attr {
    key: "_output_shapes"
    value {
      list {
        shape {
        }
      }
    }
  }
  attr {
    key: "dtype"
    value {
      type: DT_FLOAT
    }
  }
  attr {
    key: "value"
    value {
      tensor {
        dtype: DT_FLOAT
        tensor_shape {
        }
        float_val: 1.0
      }
    }
  }
}
node {
  name: "range_1"
  op: "Range"
  input: "range_1/start"
  input: "range_1/limit"
  input: "range_1/delta"
  attr {
    key: "Tidx"
    value {
      type: DT_FLOAT
    }
  }
  attr {
    key: "_output_shapes"
    value {
      list {
        shape {
          dim {
            size: 4096
          }
        }
      }
    }
  }
}
node {
  name: "mul/x"
  op: "Const"
  attr {
    key: "_output_shapes"
    value {
      list {
        shape {
        }
      }
    }
  }
  attr {
    key: "dtype"
    value {
      type: DT_FLOAT
    }
  }
  attr {
    key: "value"
    value {
      tensor {
        dtype: DT_FLOAT
        tensor_shape {
        }
        float_val: -0.0010000000474974513
      }
    }
  }
}
node {
  name: "mul"
  op: "Mul"
  input: "mul/x"
  input: "range_1"
  attr {
    key: "T"
    value {
      type: DT_FLOAT
    }
  }
  attr {
    key: "_output_shapes"
    value {
      list {
        shape {
          dim {
            size: 4096
          }
        }
      }
    }
  }
}
node {
  name: "Exp"
  op: "Exp"
  input: "mul"
  attr {
    key: "T"
    value {
      type: DT_FLOAT
    }
  }
  attr {
    key: "_output_shapes"
    value {
      list {
        shape {
          dim {
            size: 4096
          }
        }
      }
    }
  }
}
node {
  name: "mul_1"
  op: "Mul"
  input: "Sin"
  input: "Exp"
  attr {
    key: "T"
    value {
      type: DT_FLOAT
    }
  }
  attr {
    key: "_output_shapes"
    value {
      list {
        shape {
          dim {
            size: 4096
          }
        }
      }
    }
  }
}
node {
  name: "stack"
  op: "Pack"
  input: "mul_1"
  input: "mul_1"
  input: "mul_1"
  input: "mul_1"
  input: "mul_1"
  input: "mul_1"
  input: "mul_1"
  input: "mul_1"
  attr {
    key: "N"
    value {
      i: 8
    }
  }
  attr {
    key: "T"
    value {
      type: DT_FLOAT
    }
  }
  attr {
    key: "_output_shapes"
    value {
      list {
        shape {
          dim {
            size: 8
          }
          dim {
            size: 4096
          }
        }
      }
    }
  }
  attr {
    key: "axis"
    value {
      i: 0
    }
  }
}
node {
  name: "sine_model/H/Initializer/random_uniform/shape"
  op: "Const"
  attr {
    key: "_class"
    value {
      list {
        s: "loc:@sine_model/H"
      }
    }
  }
  attr {
    key: "_output_shapes"
    value {
      list {
        shape {
          dim {
            size: 2
          }
        }
      }
    }
  }
  attr {
    key: "dtype"
    value {
      type: DT_INT32
    }
  }
  attr {
    key: "value"
    value {
      tensor {
        dtype: DT_INT32
        tensor_shape {
          dim {
            size: 2
          }
        }
        tensor_content: "\005\000\000\000\005\000\000\000"
      }
    }
  }
}
node {
  name: "sine_model/H/Initializer/random_uniform/min"
  op: "Const"
  attr {
    key: "_class"
    value {
      list {
        s: "loc:@sine_model/H"
      }
    }
  }
  attr {
    key: "_output_shapes"
    value {
      list {
        shape {
        }
      }
    }
  }
  attr {
    key: "dtype"
    value {
      type: DT_FLOAT
    }
  }
  attr {
    key: "value"
    value {
      tensor {
        dtype: DT_FLOAT
        tensor_shape {
        }
        float_val: -0.7745966911315918
      }
    }
  }
}
node {
  name: "sine_model/H/Initializer/random_uniform/max"
  op: "Const"
  attr {
    key: "_class"
    value {
      list {
        s: "loc:@sine_model/H"
      }
    }
  }
  attr {
    key: "_output_shapes"
    value {
      list {
        shape {
        }
      }
    }
  }
  attr {
    key: "dtype"
    value {
      type: DT_FLOAT
    }
  }
  attr {
    key: "value"
    value {
      tensor {
        dtype: DT_FLOAT
        tensor_shape {
        }
        float_val: 0.7745966911315918
      }
    }
  }
}
node {
  name: "sine_model/H/Initializer/random_uniform/RandomUniform"
  op: "RandomUniform"
  input: "sine_model/H/Initializer/random_uniform/shape"
  attr {
    key: "T"
    value {
      type: DT_INT32
    }
  }
  attr {
    key: "_class"
    value {
      list {
        s: "loc:@sine_model/H"
      }
    }
  }
  attr {
    key: "_output_shapes"
    value {
      list {
        shape {
          dim {
            size: 5
          }
          dim {
            size: 5
          }
        }
      }
    }
  }
  attr {
    key: "dtype"
    value {
      type: DT_FLOAT
    }
  }
  attr {
    key: "seed"
    value {
      i: 0
    }
  }
  attr {
    key: "seed2"
    value {
      i: 0
    }
  }
}
node {
  name: "sine_model/H/Initializer/random_uniform/sub"
  op: "Sub"
  input: "sine_model/H/Initializer/random_uniform/max"
  input: "sine_model/H/Initializer/random_uniform/min"
  attr {
    key: "T"
    value {
      type: DT_FLOAT
    }
  }
  attr {
    key: "_class"
    value {
      list {
        s: "loc:@sine_model/H"
      }
    }
  }
  attr {
    key: "_output_shapes"
    value {
      list {
        shape {
        }
      }
    }
  }
}
node {
  name: "sine_model/H/Initializer/random_uniform/mul"
  op: "Mul"
  input: "sine_model/H/Initializer/random_uniform/RandomUniform"
  input: "sine_model/H/Initializer/random_uniform/sub"
  attr {
    key: "T"
    value {
      type: DT_FLOAT
    }
  }
  attr {
    key: "_class"
    value {
      list {
        s: "loc:@sine_model/H"
      }
    }
  }
  attr {
    key: "_output_shapes"
    value {
      list {
        shape {
          dim {
            size: 5
          }
          dim {
            size: 5
          }
        }
      }
    }
  }
}
node {
  name: "sine_model/H/Initializer/random_uniform"
  op: "Add"
  input: "sine_model/H/Initializer/random_uniform/mul"
  input: "sine_model/H/Initializer/random_uniform/min"
  attr {
    key: "T"
    value {
      type: DT_FLOAT
    }
  }
  attr {
    key: "_class"
    value {
      list {
        s: "loc:@sine_model/H"
      }
    }
  }
  attr {
    key: "_output_shapes"
    value {
      list {
        shape {
          dim {
            size: 5
          }
          dim {
            size: 5
          }
        }
      }
    }
  }
}
node {
  name: "sine_model/H"
  op: "VariableV2"
  attr {
    key: "_class"
    value {
      list {
        s: "loc:@sine_model/H"
      }
    }
  }
  attr {
    key: "_output_shapes"
    value {
      list {
        shape {
          dim {
            size: 5
          }
          dim {
            size: 5
          }
        }
      }
    }
  }
  attr {
    key: "container"
    value {
      s: ""
    }
  }
  attr {
    key: "dtype"
    value {
      type: DT_FLOAT
    }
  }
  attr {
    key: "shape"
    value {
      shape {
        dim {
          size: 5
        }
        dim {
          size: 5
        }
      }
    }
  }
  attr {
    key: "shared_name"
    value {
      s: ""
    }
  }
}
node {
  name: "sine_model/H/Assign"
  op: "Assign"
  input: "sine_model/H"
  input: "sine_model/H/Initializer/random_uniform"
  attr {
    key: "T"
    value {
      type: DT_FLOAT
    }
  }
  attr {
    key: "_class"
    value {
      list {
        s: "loc:@sine_model/H"
      }
    }
  }
  attr {
    key: "_output_shapes"
    value {
      list {
        shape {
          dim {
            size: 5
          }
          dim {
            size: 5
          }
        }
      }
    }
  }
  attr {
    key: "use_locking"
    value {
      b: true
    }
  }
  attr {
    key: "validate_shape"
    value {
      b: true
    }
  }
}
node {
  name: "sine_model/H/read"
  op: "Identity"
  input: "sine_model/H"
  attr {
    key: "T"
    value {
      type: DT_FLOAT
    }
  }
  attr {
    key: "_class"
    value {
      list {
        s: "loc:@sine_model/H"
      }
    }
  }
  attr {
    key: "_output_shapes"
    value {
      list {
        shape {
          dim {
            size: 5
          }
          dim {
            size: 5
          }
        }
      }
    }
  }
}
node {
  name: "sine_model/symmetrize/MatrixBandPart/num_lower"
  op: "Const"
  attr {
    key: "_output_shapes"
    value {
      list {
        shape {
        }
      }
    }
  }
  attr {
    key: "dtype"
    value {
      type: DT_INT64
    }
  }
  attr {
    key: "value"
    value {
      tensor {
        dtype: DT_INT64
        tensor_shape {
        }
        int64_val: -1
      }
    }
  }
}
node {
  name: "sine_model/symmetrize/MatrixBandPart/num_upper"
  op: "Const"
  attr {
    key: "_output_shapes"
    value {
      list {
        shape {
        }
      }
    }
  }
  attr {
    key: "dtype"
    value {
      type: DT_INT64
    }
  }
  attr {
    key: "value"
    value {
      tensor {
        dtype: DT_INT64
        tensor_shape {
        }
        int64_val: 0
      }
    }
  }
}
node {
  name: "sine_model/symmetrize/MatrixBandPart"
  op: "MatrixBandPart"
  input: "sine_model/H/read"
  input: "sine_model/symmetrize/MatrixBandPart/num_lower"
  input: "sine_model/symmetrize/MatrixBandPart/num_upper"
  attr {
    key: "T"
    value {
      type: DT_FLOAT
    }
  }
  attr {
    key: "Tindex"
    value {
      type: DT_INT64
    }
  }
  attr {
    key: "_output_shapes"
    value {
      list {
        shape {
          dim {
            size: 5
          }
          dim {
            size: 5
          }
        }
      }
    }
  }
}
node {
  name: "sine_model/symmetrize/matrix_transpose/transpose/perm"
  op: "Const"
  attr {
    key: "_output_shapes"
    value {
      list {
        shape {
          dim {
            size: 2
          }
        }
      }
    }
  }
  attr {
    key: "dtype"
    value {
      type: DT_INT32
    }
  }
  attr {
    key: "value"
    value {
      tensor {
        dtype: DT_INT32
        tensor_shape {
          dim {
            size: 2
          }
        }
        tensor_content: "\001\000\000\000\000\000\000\000"
      }
    }
  }
}
node {
  name: "sine_model/symmetrize/matrix_transpose/transpose"
  op: "Transpose"
  input: "sine_model/symmetrize/MatrixBandPart"
  input: "sine_model/symmetrize/matrix_transpose/transpose/perm"
  attr {
    key: "T"
    value {
      type: DT_FLOAT
    }
  }
  attr {
    key: "Tperm"
    value {
      type: DT_INT32
    }
  }
  attr {
    key: "_output_shapes"
    value {
      list {
        shape {
          dim {
            size: 5
          }
          dim {
            size: 5
          }
        }
      }
    }
  }
}
node {
  name: "sine_model/symmetrize/add"
  op: "Add"
  input: "sine_model/symmetrize/MatrixBandPart"
  input: "sine_model/symmetrize/matrix_transpose/transpose"
  attr {
    key: "T"
    value {
      type: DT_FLOAT
    }
  }
  attr {
    key: "_output_shapes"
    value {
      list {
        shape {
          dim {
            size: 5
          }
          dim {
            size: 5
          }
        }
      }
    }
  }
}
node {
  name: "sine_model/R/Initializer/random_uniform/shape"
  op: "Const"
  attr {
    key: "_class"
    value {
      list {
        s: "loc:@sine_model/R"
      }
    }
  }
  attr {
    key: "_output_shapes"
    value {
      list {
        shape {
          dim {
            size: 2
          }
        }
      }
    }
  }
  attr {
    key: "dtype"
    value {
      type: DT_INT32
    }
  }
  attr {
    key: "value"
    value {
      tensor {
        dtype: DT_INT32
        tensor_shape {
          dim {
            size: 2
          }
        }
        tensor_content: "\005\000\000\000\005\000\000\000"
      }
    }
  }
}
node {
  name: "sine_model/R/Initializer/random_uniform/min"
  op: "Const"
  attr {
    key: "_class"
    value {
      list {
        s: "loc:@sine_model/R"
      }
    }
  }
  attr {
    key: "_output_shapes"
    value {
      list {
        shape {
        }
      }
    }
  }
  attr {
    key: "dtype"
    value {
      type: DT_FLOAT
    }
  }
  attr {
    key: "value"
    value {
      tensor {
        dtype: DT_FLOAT
        tensor_shape {
        }
        float_val: -0.7745966911315918
      }
    }
  }
}
node {
  name: "sine_model/R/Initializer/random_uniform/max"
  op: "Const"
  attr {
    key: "_class"
    value {
      list {
        s: "loc:@sine_model/R"
      }
    }
  }
  attr {
    key: "_output_shapes"
    value {
      list {
        shape {
        }
      }
    }
  }
  attr {
    key: "dtype"
    value {
      type: DT_FLOAT
    }
  }
  attr {
    key: "value"
    value {
      tensor {
        dtype: DT_FLOAT
        tensor_shape {
        }
        float_val: 0.7745966911315918
      }
    }
  }
}
node {
  name: "sine_model/R/Initializer/random_uniform/RandomUniform"
  op: "RandomUniform"
  input: "sine_model/R/Initializer/random_uniform/shape"
  attr {
    key: "T"
    value {
      type: DT_INT32
    }
  }
  attr {
    key: "_class"
    value {
      list {
        s: "loc:@sine_model/R"
      }
    }
  }
  attr {
    key: "_output_shapes"
    value {
      list {
        shape {
          dim {
            size: 5
          }
          dim {
            size: 5
          }
        }
      }
    }
  }
  attr {
    key: "dtype"
    value {
      type: DT_FLOAT
    }
  }
  attr {
    key: "seed"
    value {
      i: 0
    }
  }
  attr {
    key: "seed2"
    value {
      i: 0
    }
  }
}
node {
  name: "sine_model/R/Initializer/random_uniform/sub"
  op: "Sub"
  input: "sine_model/R/Initializer/random_uniform/max"
  input: "sine_model/R/Initializer/random_uniform/min"
  attr {
    key: "T"
    value {
      type: DT_FLOAT
    }
  }
  attr {
    key: "_class"
    value {
      list {
        s: "loc:@sine_model/R"
      }
    }
  }
  attr {
    key: "_output_shapes"
    value {
      list {
        shape {
        }
      }
    }
  }
}
node {
  name: "sine_model/R/Initializer/random_uniform/mul"
  op: "Mul"
  input: "sine_model/R/Initializer/random_uniform/RandomUniform"
  input: "sine_model/R/Initializer/random_uniform/sub"
  attr {
    key: "T"
    value {
      type: DT_FLOAT
    }
  }
  attr {
    key: "_class"
    value {
      list {
        s: "loc:@sine_model/R"
      }
    }
  }
  attr {
    key: "_output_shapes"
    value {
      list {
        shape {
          dim {
            size: 5
          }
          dim {
            size: 5
          }
        }
      }
    }
  }
}
node {
  name: "sine_model/R/Initializer/random_uniform"
  op: "Add"
  input: "sine_model/R/Initializer/random_uniform/mul"
  input: "sine_model/R/Initializer/random_uniform/min"
  attr {
    key: "T"
    value {
      type: DT_FLOAT
    }
  }
  attr {
    key: "_class"
    value {
      list {
        s: "loc:@sine_model/R"
      }
    }
  }
  attr {
    key: "_output_shapes"
    value {
      list {
        shape {
          dim {
            size: 5
          }
          dim {
            size: 5
          }
        }
      }
    }
  }
}
node {
  name: "sine_model/R"
  op: "VariableV2"
  attr {
    key: "_class"
    value {
      list {
        s: "loc:@sine_model/R"
      }
    }
  }
  attr {
    key: "_output_shapes"
    value {
      list {
        shape {
          dim {
            size: 5
          }
          dim {
            size: 5
          }
        }
      }
    }
  }
  attr {
    key: "container"
    value {
      s: ""
    }
  }
  attr {
    key: "dtype"
    value {
      type: DT_FLOAT
    }
  }
  attr {
    key: "shape"
    value {
      shape {
        dim {
          size: 5
        }
        dim {
          size: 5
        }
      }
    }
  }
  attr {
    key: "shared_name"
    value {
      s: ""
    }
  }
}
node {
  name: "sine_model/R/Assign"
  op: "Assign"
  input: "sine_model/R"
  input: "sine_model/R/Initializer/random_uniform"
  attr {
…
    key: "T"
    value {
      type: DT_STRING
    }
  }
  attr {
    key: "Tidx"
    value {
      type: DT_INT32
    }
  }
  attr {
    key: "_output_shapes"
    value {
      list {
        shape {
          dim {
            size: -1
          }
        }
      }
    }
  }
}
node {
  name: "report_uninitialized_variables_1/IsVariableInitialized"
  op: "IsVariableInitialized"
  input: "guitar_model/H"
  attr {
    key: "_class"
    value {
      list {
        s: "loc:@guitar_model/H"
      }
    }
  }
  attr {
    key: "_output_shapes"
    value {
      list {
        shape {
        }
      }
    }
  }
  attr {
    key: "dtype"
    value {
      type: DT_FLOAT
    }
  }
}
node {
  name: "report_uninitialized_variables_1/IsVariableInitialized_1"
  op: "IsVariableInitialized"
  input: "guitar_model/R"
  attr {
    key: "_class"
    value {
      list {
        s: "loc:@guitar_model/R"
      }
    }
  }
  attr {
    key: "_output_shapes"
    value {
      list {
        shape {
        }
      }
    }
  }
  attr {
    key: "dtype"
    value {
      type: DT_FLOAT
    }
  }
}
node {
  name: "report_uninitialized_variables_1/IsVariableInitialized_2"
  op: "IsVariableInitialized"
  input: "sine_model/H"
  attr {
    key: "_class"
    value {
      list {
        s: "loc:@sine_model/H"
      }
    }
  }
  attr {
    key: "_output_shapes"
    value {
      list {
        shape {
        }
      }
    }
  }
  attr {
    key: "dtype"
    value {
      type: DT_FLOAT
    }
  }
}
node {
  name: "report_uninitialized_variables_1/IsVariableInitialized_3"
  op: "IsVariableInitialized"
  input: "sine_model/R"
  attr {
    key: "_class"
    value {
      list {
        s: "loc:@sine_model/R"
      }
    }
  }
  attr {
    key: "_output_shapes"
    value {
      list {
        shape {
        }
      }
    }
  }
  attr {
    key: "dtype"
    value {
      type: DT_FLOAT
    }
  }
}
node {
  name: "report_uninitialized_variables_1/IsVariableInitialized_4"
  op: "IsVariableInitialized"
  input: "global_step"
  attr {
    key: "_class"
    value {
      list {
        s: "loc:@global_step"
      }
    }
  }
  attr {
    key: "_output_shapes"
    value {
      list {
        shape {
        }
      }
    }
  }
  attr {
    key: "dtype"
    value {
      type: DT_INT64
    }
  }
}
node {
  name: "report_uninitialized_variables_1/IsVariableInitialized_5"
  op: "IsVariableInitialized"
  input: "beta1_power"
  attr {
    key: "_class"
    value {
      list {
        s: "loc:@sine_model/H"
      }
    }
  }
  attr {
    key: "_output_shapes"
    value {
      list {
        shape {
        }
      }
    }
  }
  attr {
    key: "dtype"
    value {
      type: DT_FLOAT
    }
  }
}
node {
  name: "report_uninitialized_variables_1/IsVariableInitialized_6"
  op: "IsVariableInitialized"
  input: "beta2_power"
  attr {
    key: "_class"
    value {
      list {
        s: "loc:@sine_model/H"
      }
    }
  }
  attr {
    key: "_output_shapes"
    value {
      list {
        shape {
        }
      }
    }
  }
  attr {
    key: "dtype"
    value {
      type: DT_FLOAT
    }
  }
}
node {
  name: "report_uninitialized_variables_1/IsVariableInitialized_7"
  op: "IsVariableInitialized"
  input: "sine_model/H/Adam"
  attr {
    key: "_class"
    value {
      list {
        s: "loc:@sine_model/H"
      }
    }
  }
  attr {
    key: "_output_shapes"
    value {
      list {
        shape {
        }
      }
    }
  }
  attr {
    key: "dtype"
    value {
      type: DT_FLOAT
    }
  }
}
node {
  name: "report_uninitialized_variables_1/IsVariableInitialized_8"
  op: "IsVariableInitialized"
  input: "sine_model/H/Adam_1"
  attr {
    key: "_class"
    value {
      list {
        s: "loc:@sine_model/H"
      }
    }
  }
  attr {
    key: "_output_shapes"
    value {
      list {
        shape {
        }
      }
    }
  }
  attr {
    key: "dtype"
    value {
      type: DT_FLOAT
    }
  }
}
node {
  name: "report_uninitialized_variables_1/IsVariableInitialized_9"
  op: "IsVariableInitialized"
  input: "sine_model/R/Adam"
  attr {
    key: "_class"
    value {
      list {
        s: "loc:@sine_model/R"
      }
    }
  }
  attr {
    key: "_output_shapes"
    value {
      list {
        shape {
        }
      }
    }
  }
  attr {
    key: "dtype"
    value {
      type: DT_FLOAT
    }
  }
}
node {
  name: "report_uninitialized_variables_1/IsVariableInitialized_10"
  op: "IsVariableInitialized"
  input: "sine_model/R/Adam_1"
  attr {
    key: "_class"
    value {
      list {
        s: "loc:@sine_model/R"
      }
    }
  }
  attr {
    key: "_output_shapes"
    value {
      list {
        shape {
        }
      }
    }
  }
  attr {
    key: "dtype"
    value {
      type: DT_FLOAT
    }
  }
}
node {
  name: "report_uninitialized_variables_1/stack"
  op: "Pack"
  input: "report_uninitialized_variables_1/IsVariableInitialized"
  input: "report_uninitialized_variables_1/IsVariableInitialized_1"
  input: "report_uninitialized_variables_1/IsVariableInitialized_2"
  input: "report_uninitialized_variables_1/IsVariableInitialized_3"
  input: "report_uninitialized_variables_1/IsVariableInitialized_4"
  input: "report_uninitialized_variables_1/IsVariableInitialized_5"
  input: "report_uninitialized_variables_1/IsVariableInitialized_6"
  input: "report_uninitialized_variables_1/IsVariableInitialized_7"
  input: "report_uninitialized_variables_1/IsVariableInitialized_8"
  input: "report_uninitialized_variables_1/IsVariableInitialized_9"
  input: "report_uninitialized_variables_1/IsVariableInitialized_10"
  device: "/device:CPU:0"
  attr {
    key: "N"
    value {
      i: 11
    }
  }
  attr {
    key: "T"
    value {
      type: DT_BOOL
    }
  }
  attr {
    key: "_output_shapes"
    value {
      list {
        shape {
          dim {
            size: 11
          }
        }
      }
    }
  }
  attr {
    key: "axis"
    value {
      i: 0
    }
  }
}
node {
  name: "report_uninitialized_variables_1/LogicalNot"
  op: "LogicalNot"
  input: "report_uninitialized_variables_1/stack"
  device: "/device:CPU:0"
  attr {
    key: "_output_shapes"
    value {
      list {
        shape {
          dim {
            size: 11
          }
        }
      }
    }
  }
}
node {
  name: "report_uninitialized_variables_1/Const"
  op: "Const"
  device: "/device:CPU:0"
  attr {
    key: "_output_shapes"
    value {
      list {
        shape {
          dim {
            size: 11
          }
        }
      }
    }
  }
  attr {
    key: "dtype"
    value {
      type: DT_STRING
    }
  }
  attr {
    key: "value"
    value {
      tensor {
        dtype: DT_STRING
        tensor_shape {
          dim {
            size: 11
          }
        }
        string_val: "guitar_model/H"
        string_val: "guitar_model/R"
        string_val: "sine_model/H"
        string_val: "sine_model/R"
        string_val: "global_step"
        string_val: "beta1_power"
        string_val: "beta2_power"
        string_val: "sine_model/H/Adam"
        string_val: "sine_model/H/Adam_1"
        string_val: "sine_model/R/Adam"
        string_val: "sine_model/R/Adam_1"
      }
    }
  }
}
node {
  name: "report_uninitialized_variables_1/boolean_mask/Shape"
  op: "Const"
  device: "/device:CPU:0"
  attr {
    key: "_output_shapes"
    value {
      list {
        shape {
          dim {
            size: 1
          }
        }
      }
    }
  }
  attr {
    key: "dtype"
    value {
      type: DT_INT32
    }
  }
  attr {
    key: "value"
    value {
      tensor {
        dtype: DT_INT32
        tensor_shape {
          dim {
            size: 1
          }
        }
        int_val: 11
      }
    }
  }
}
node {
  name: "report_uninitialized_variables_1/boolean_mask/strided_slice/stack"
  op: "Const"
  device: "/device:CPU:0"
  attr {
    key: "_output_shapes"
    value {
      list {
        shape {
          dim {
            size: 1
          }
        }
      }
    }
  }
  attr {
    key: "dtype"
    value {
      type: DT_INT32
    }
  }
  attr {
    key: "value"
    value {
      tensor {
        dtype: DT_INT32
        tensor_shape {
          dim {
            size: 1
          }
        }
        int_val: 0
      }
    }
  }
}
node {
  name: "report_uninitialized_variables_1/boolean_mask/strided_slice/stack_1"
  op: "Const"
  device: "/device:CPU:0"
  attr {
    key: "_output_shapes"
    value {
      list {
        shape {
          dim {
            size: 1
          }
        }
      }
    }
  }
  attr {
    key: "dtype"
    value {
      type: DT_INT32
    }
  }
  attr {
    key: "value"
    value {
      tensor {
        dtype: DT_INT32
        tensor_shape {
          dim {
            size: 1
          }
        }
        int_val: 1
      }
    }
  }
}
node {
  name: "report_uninitialized_variables_1/boolean_mask/strided_slice/stack_2"
  op: "Const"
  device: "/device:CPU:0"
  attr {
    key: "_output_shapes"
    value {
      list {
        shape {
          dim {
            size: 1
          }
        }
      }
    }
  }
  attr {
    key: "dtype"
    value {
      type: DT_INT32
    }
  }
  attr {
    key: "value"
    value {
      tensor {
        dtype: DT_INT32
        tensor_shape {
          dim {
            size: 1
          }
        }
        int_val: 1
      }
    }
  }
}
node {
  name: "report_uninitialized_variables_1/boolean_mask/strided_slice"
  op: "StridedSlice"
  input: "report_uninitialized_variables_1/boolean_mask/Shape"
  input: "report_uninitialized_variables_1/boolean_mask/strided_slice/stack"
  input: "report_uninitialized_variables_1/boolean_mask/strided_slice/stack_1"
  input: "report_uninitialized_variables_1/boolean_mask/strided_slice/stack_2"
  device: "/device:CPU:0"
  attr {
    key: "Index"
    value {
      type: DT_INT32
    }
  }
  attr {
    key: "T"
    value {
      type: DT_INT32
    }
  }
  attr {
    key: "_output_shapes"
    value {
      list {
        shape {
          dim {
            size: 1
          }
        }
      }
    }
  }
  attr {
    key: "begin_mask"
    value {
      i: 0
    }
  }
  attr {
    key: "ellipsis_mask"
    value {
      i: 0
    }
  }
  attr {
    key: "end_mask"
    value {
      i: 0
    }
  }
  attr {
    key: "new_axis_mask"
    value {
      i: 0
    }
  }
  attr {
    key: "shrink_axis_mask"
    value {
      i: 0
    }
  }
}
node {
  name: "report_uninitialized_variables_1/boolean_mask/Prod/reduction_indices"
  op: "Const"
  device: "/device:CPU:0"
  attr {
    key: "_output_shapes"
    value {
      list {
        shape {
          dim {
            size: 1
          }
        }
      }
    }
  }
  attr {
    key: "dtype"
    value {
      type: DT_INT32
    }
  }
  attr {
    key: "value"
    value {
      tensor {
        dtype: DT_INT32
        tensor_shape {
          dim {
            size: 1
          }
        }
        int_val: 0
      }
    }
  }
}
node {
  name: "report_uninitialized_variables_1/boolean_mask/Prod"
  op: "Prod"
  input: "report_uninitialized_variables_1/boolean_mask/strided_slice"
  input: "report_uninitialized_variables_1/boolean_mask/Prod/reduction_indices"
  device: "/device:CPU:0"
  attr {
    key: "T"
    value {
      type: DT_INT32
    }
  }
  attr {
    key: "Tidx"
    value {
      type: DT_INT32
    }
  }
  attr {
    key: "_output_shapes"
    value {
      list {
        shape {
        }
      }
    }
  }
  attr {
    key: "keep_dims"
    value {
      b: false
    }
  }
}
node {
  name: "report_uninitialized_variables_1/boolean_mask/Shape_1"
  op: "Const"
  device: "/device:CPU:0"
  attr {
    key: "_output_shapes"
    value {
      list {
        shape {
          dim {
            size: 1
          }
        }
      }
    }
  }
  attr {
    key: "dtype"
    value {
      type: DT_INT32
    }
  }
  attr {
    key: "value"
    value {
      tensor {
        dtype: DT_INT32
        tensor_shape {
          dim {
            size: 1
          }
        }
        int_val: 11
      }
    }
  }
}
node {
  name: "report_uninitialized_variables_1/boolean_mask/strided_slice_1/stack"
  op: "Const"
  device: "/device:CPU:0"
  attr {
    key: "_output_shapes"
    value {
      list {
        shape {
          dim {
            size: 1
          }
        }
      }
    }
  }
  attr {
    key: "dtype"
    value {
      type: DT_INT32
    }
  }
  attr {
    key: "value"
    value {
      tensor {
        dtype: DT_INT32
        tensor_shape {
          dim {
            size: 1
          }
        }
        int_val: 0
      }
    }
  }
}
node {
  name: "report_uninitialized_variables_1/boolean_mask/strided_slice_1/stack_1"
  op: "Const"
  device: "/device:CPU:0"
  attr {
    key: "_output_shapes"
    value {
      list {
        shape {
          dim {
            size: 1
          }
        }
      }
    }
  }
  attr {
    key: "dtype"
    value {
      type: DT_INT32
    }
  }
  attr {
    key: "value"
    value {
      tensor {
        dtype: DT_INT32
        tensor_shape {
          dim {
            size: 1
          }
        }
        int_val: 0
      }
    }
  }
}
node {
  name: "report_uninitialized_variables_1/boolean_mask/strided_slice_1/stack_2"
  op: "Const"
  device: "/device:CPU:0"
  attr {
    key: "_output_shapes"
    value {
      list {
        shape {
          dim {
            size: 1
          }
        }
      }
    }
  }
  attr {
    key: "dtype"
    value {
      type: DT_INT32
    }
  }
  attr {
    key: "value"
    value {
      tensor {
        dtype: DT_INT32
        tensor_shape {
          dim {
            size: 1
          }
        }
        int_val: 1
      }
    }
  }
}
node {
  name: "report_uninitialized_variables_1/boolean_mask/strided_slice_1"
  op: "StridedSlice"
  input: "report_uninitialized_variables_1/boolean_mask/Shape_1"
  input: "report_uninitialized_variables_1/boolean_mask/strided_slice_1/stack"
  input: "report_uninitialized_variables_1/boolean_mask/strided_slice_1/stack_1"
  input: "report_uninitialized_variables_1/boolean_mask/strided_slice_1/stack_2"
  device: "/device:CPU:0"
  attr {
    key: "Index"
    value {
      type: DT_INT32
    }
  }
  attr {
    key: "T"
    value {
      type: DT_INT32
    }
  }
  attr {
    key: "_output_shapes"
    value {
      list {
        shape {
          dim {
          }
        }
      }
    }
  }
  attr {
    key: "begin_mask"
    value {
      i: 1
    }
  }
  attr {
    key: "ellipsis_mask"
    value {
      i: 0
    }
  }
  attr {
    key: "end_mask"
    value {
      i: 0
    }
  }
  attr {
    key: "new_axis_mask"
    value {
      i: 0
    }
  }
  attr {
    key: "shrink_axis_mask"
    value {
      i: 0
    }
  }
}
node {
  name: "report_uninitialized_variables_1/boolean_mask/Shape_2"
  op: "Const"
  device: "/device:CPU:0"
  attr {
    key: "_output_shapes"
    value {
      list {
        shape {
          dim {
            size: 1
          }
        }
      }
    }
  }
  attr {
    key: "dtype"
    value {
      type: DT_INT32
    }
  }
  attr {
    key: "value"
    value {
      tensor {
        dtype: DT_INT32
        tensor_shape {
          dim {
            size: 1
          }
        }
        int_val: 11
      }
    }
  }
}
node {
  name: "report_uninitialized_variables_1/boolean_mask/strided_slice_2/stack"
  op: "Const"
  device: "/device:CPU:0"
  attr {
    key: "_output_shapes"
    value {
      list {
        shape {
          dim {
            size: 1
          }
        }
      }
    }
  }
  attr {
    key: "dtype"
    value {
      type: DT_INT32
    }
  }
  attr {
    key: "value"
    value {
      tensor {
        dtype: DT_INT32
        tensor_shape {
          dim {
            size: 1
          }
        }
        int_val: 1
      }
    }
  }
}
node {
  name: "report_uninitialized_variables_1/boolean_mask/strided_slice_2/stack_1"
  op: "Const"
  device: "/device:CPU:0"
  attr {
    key: "_output_shapes"
    value {
      list {
        shape {
          dim {
            size: 1
          }
        }
      }
    }
  }
  attr {
    key: "dtype"
    value {
      type: DT_INT32
    }
  }
  attr {
    key: "value"
    value {
      tensor {
        dtype: DT_INT32
        tensor_shape {
          dim {
            size: 1
          }
        }
        int_val: 0
      }
    }
  }
}
node {
  name: "report_uninitialized_variables_1/boolean_mask/strided_slice_2/stack_2"
  op: "Const"
  device: "/device:CPU:0"
  attr {
    key: "_output_shapes"
    value {
      list {
        shape {
          dim {
            size: 1
          }
        }
      }
    }
  }
  attr {
    key: "dtype"
    value {
      type: DT_INT32
    }
  }
  attr {
    key: "value"
    value {
      tensor {
        dtype: DT_INT32
        tensor_shape {
          dim {
            size: 1
          }
        }
        int_val: 1
      }
    }
  }
}
node {
  name: "report_uninitialized_variables_1/boolean_mask/strided_slice_2"
  op: "StridedSlice"
  input: "report_uninitialized_variables_1/boolean_mask/Shape_2"
  input: "report_uninitialized_variables_1/boolean_mask/strided_slice_2/stack"
  input: "report_uninitialized_variables_1/boolean_mask/strided_slice_2/stack_1"
  input: "report_uninitialized_variables_1/boolean_mask/strided_slice_2/stack_2"
  device: "/device:CPU:0"
  attr {
    key: "Index"
    value {
      type: DT_INT32
    }
  }
  attr {
    key: "T"
    value {
      type: DT_INT32
    }
  }
  attr {
    key: "_output_shapes"
    value {
      list {
        shape {
          dim {
          }
        }
      }
    }
  }
  attr {
    key: "begin_mask"
    value {
      i: 0
    }
  }
  attr {
    key: "ellipsis_mask"
    value {
      i: 0
    }
  }
  attr {
    key: "end_mask"
    value {
      i: 1
    }
  }
  attr {
    key: "new_axis_mask"
    value {
      i: 0
    }
  }
  attr {
    key: "shrink_axis_mask"
    value {
      i: 0
    }
  }
}
node {
  name: "report_uninitialized_variables_1/boolean_mask/concat/values_1"
  op: "Pack"
  input: "report_uninitialized_variables_1/boolean_mask/Prod"
  device: "/device:CPU:0"
  attr {
    key: "N"
    value {
      i: 1
    }
  }
  attr {
    key: "T"
    value {
      type: DT_INT32
    }
  }
  attr {
    key: "_output_shapes"
    value {
      list {
        shape {
          dim {
            size: 1
          }
        }
      }
    }
  }
  attr {
    key: "axis"
    value {
      i: 0
    }
  }
}
node {
  name: "report_uninitialized_variables_1/boolean_mask/concat/axis"
  op: "Const"
  device: "/device:CPU:0"
  attr {
    key: "_output_shapes"
    value {
      list {
        shape {
        }
      }
    }
  }
  attr {
    key: "dtype"
    value {
      type: DT_INT32
    }
  }
  attr {
    key: "value"
    value {
      tensor {
        dtype: DT_INT32
        tensor_shape {
        }
        int_val: 0
      }
    }
  }
}
node {
  name: "report_uninitialized_variables_1/boolean_mask/concat"
  op: "ConcatV2"
  input: "report_uninitialized_variables_1/boolean_mask/strided_slice_1"
  input: "report_uninitialized_variables_1/boolean_mask/concat/values_1"
  input: "report_uninitialized_variables_1/boolean_mask/strided_slice_2"
  input: "report_uninitialized_variables_1/boolean_mask/concat/axis"
  device: "/device:CPU:0"
  attr {
    key: "N"
    value {
      i: 3
    }
  }
  attr {
    key: "T"
    value {
      type: DT_INT32
    }
  }
  attr {
    key: "Tidx"
    value {
      type: DT_INT32
    }
  }
  attr {
    key: "_output_shapes"
    value {
      list {
        shape {
          dim {
            size: 1
          }
        }
      }
    }
  }
}
node {
  name: "report_uninitialized_variables_1/boolean_mask/Reshape"
  op: "Reshape"
  input: "report_uninitialized_variables_1/Const"
  input: "report_uninitialized_variables_1/boolean_mask/concat"
  device: "/device:CPU:0"
  attr {
    key: "T"
    value {
      type: DT_STRING
    }
  }
  attr {
    key: "Tshape"
    value {
      type: DT_INT32
    }
  }
  attr {
    key: "_output_shapes"
    value {
      list {
        shape {
          dim {
            size: 11
          }
        }
      }
    }
  }
}
node {
  name: "report_uninitialized_variables_1/boolean_mask/Reshape_1/shape"
  op: "Const"
  device: "/device:CPU:0"
  attr {
    key: "_output_shapes"
    value {
      list {
        shape {
          dim {
            size: 1
          }
        }
      }
    }
  }
  attr {
    key: "dtype"
    value {
      type: DT_INT32
    }
  }
  attr {
    key: "value"
    value {
      tensor {
        dtype: DT_INT32
        tensor_shape {
          dim {
            size: 1
          }
        }
        int_val: -1
      }
    }
  }
}
node {
  name: "report_uninitialized_variables_1/boolean_mask/Reshape_1"
  op: "Reshape"
  input: "report_uninitialized_variables_1/LogicalNot"
  input: "report_uninitialized_variables_1/boolean_mask/Reshape_1/shape"
  device: "/device:CPU:0"
  attr {
    key: "T"
    value {
      type: DT_BOOL
    }
  }
  attr {
    key: "Tshape"
    value {
      type: DT_INT32
    }
  }
  attr {
    key: "_output_shapes"
    value {
      list {
        shape {
          dim {
            size: 11
          }
        }
      }
    }
  }
}
node {
  name: "report_uninitialized_variables_1/boolean_mask/Where"
  op: "Where"
  input: "report_uninitialized_variables_1/boolean_mask/Reshape_1"
  device: "/device:CPU:0"
  attr {
    key: "T"
    value {
      type: DT_BOOL
    }
  }
  attr {
    key: "_output_shapes"
    value {
      list {
        shape {
          dim {
            size: -1
          }
          dim {
            size: 1
          }
        }
      }
    }
  }
}
node {
  name: "report_uninitialized_variables_1/boolean_mask/Squeeze"
  op: "Squeeze"
  input: "report_uninitialized_variables_1/boolean_mask/Where"
  device: "/device:CPU:0"
  attr {
    key: "T"
    value {
      type: DT_INT64
    }
  }
  attr {
    key: "_output_shapes"
    value {
      list {
        shape {
          dim {
            size: -1
          }
        }
      }
    }
  }
  attr {
    key: "squeeze_dims"
    value {
      list {
        i: 1
      }
    }
  }
}
node {
  name: "report_uninitialized_variables_1/boolean_mask/GatherV2/axis"
  op: "Const"
  device: "/device:CPU:0"
  attr {
    key: "_output_shapes"
    value {
      list {
        shape {
        }
      }
    }
  }
  attr {
    key: "dtype"
    value {
      type: DT_INT32
    }
  }
  attr {
    key: "value"
    value {
      tensor {
        dtype: DT_INT32
        tensor_shape {
        }
        int_val: 0
      }
    }
  }
}
node {
  name: "report_uninitialized_variables_1/boolean_mask/GatherV2"
  op: "GatherV2"
  input: "report_uninitialized_variables_1/boolean_mask/Reshape"
  input: "report_uninitialized_variables_1/boolean_mask/Squeeze"
  input: "report_uninitialized_variables_1/boolean_mask/GatherV2/axis"
  device: "/device:CPU:0"
  attr {
    key: "Taxis"
    value {
      type: DT_INT32
    }
  }
  attr {
    key: "Tindices"
    value {
      type: DT_INT64
    }
  }
  attr {
    key: "Tparams"
    value {
      type: DT_STRING
    }
  }
  attr {
    key: "_output_shapes"
    value {
      list {
        shape {
          dim {
            size: -1
          }
        }
      }
    }
  }
}
node {
  name: "init_3"
  op: "NoOp"
}
node {
  name: "init_all_tables"
  op: "NoOp"
}
node {
  name: "init_4"
  op: "NoOp"
}
node {
  name: "group_deps_1"
  op: "NoOp"
  input: "^init_3"
  input: "^init_4"
  input: "^init_all_tables"
}
node {
  name: "Merge/MergeSummary"
  op: "MergeSummary"
  input: "loss_function"
  input: "sample_inputs"
  attr {
    key: "N"
    value {
      i: 2
    }
  }
  attr {
    key: "_output_shapes"
    value {
      list {
        shape {
        }
      }
    }
  }
}
node {
  name: "save/Const"
  op: "Const"
  attr {
    key: "_output_shapes"
    value {
      list {
        shape {
        }
      }
    }
  }
  attr {
    key: "dtype"
    value {
      type: DT_STRING
    }
  }
  attr {
    key: "value"
    value {
      tensor {
        dtype: DT_STRING
        tensor_shape {
        }
        string_val: "model"
      }
    }
  }
}
node {
  name: "save/StringJoin/inputs_1"
  op: "Const"
  attr {
    key: "_output_shapes"
    value {
      list {
        shape {
        }
      }
    }
  }
  attr {
    key: "dtype"
    value {
      type: DT_STRING
    }
  }
  attr {
    key: "value"
    value {
      tensor {
        dtype: DT_STRING
        tensor_shape {
        }
        string_val: "_temp_8e97c2faed954e21aa388fa878ce8d65/part"
      }
    }
  }
}
node {
  name: "save/StringJoin"
  op: "StringJoin"
  input: "save/Const"
  input: "save/StringJoin/inputs_1"
  attr {
    key: "N"
    value {
      i: 2
    }
  }
  attr {
    key: "_output_shapes"
    value {
      list {
        shape {
        }
      }
    }
  }
  attr {
    key: "separator"
    value {
      s: ""
    }
  }
}
node {
  name: "save/num_shards"
  op: "Const"
  attr {
    key: "_output_shapes"
    value {
      list {
        shape {
        }
      }
    }
  }
  attr {
    key: "dtype"
    value {
      type: DT_INT32
    }
  }
  attr {
    key: "value"
    value {
      tensor {
        dtype: DT_INT32
        tensor_shape {
        }
        int_val: 1
      }
    }
  }
}
node {
  name: "save/ShardedFilename/shard"
  op: "Const"
  device: "/device:CPU:0"
  attr {
    key: "_output_shapes"
    value {
      list {
        shape {
        }
      }
    }
  }
  attr {
    key: "dtype"
    value {
      type: DT_INT32
    }
  }
  attr {
    key: "value"
    value {
      tensor {
        dtype: DT_INT32
        tensor_shape {
        }
        int_val: 0
      }
    }
  }
}
node {
  name: "save/ShardedFilename"
  op: "ShardedFilename"
  input: "save/StringJoin"
  input: "save/ShardedFilename/shard"
  input: "save/num_shards"
  device: "/device:CPU:0"
  attr {
    key: "_output_shapes"
    value {
      list {
        shape {
        }
      }
    }
  }
}
node {
  name: "save/SaveV2/tensor_names"
  op: "Const"
  device: "/device:CPU:0"
  attr {
    key: "_output_shapes"
    value {
      list {
        shape {
          dim {
            size: 11
          }
        }
      }
    }
  }
  attr {
    key: "dtype"
    value {
      type: DT_STRING
    }
  }
  attr {
    key: "value"
    value {
      tensor {
        dtype: DT_STRING
        tensor_shape {
          dim {
            size: 11
          }
        }
        string_val: "beta1_power"
        string_val: "beta2_power"
        string_val: "global_step"
        string_val: "guitar_model/H"
        string_val: "guitar_model/R"
        string_val: "sine_model/H"
        string_val: "sine_model/H/Adam"
        string_val: "sine_model/H/Adam_1"
        string_val: "sine_model/R"
        string_val: "sine_model/R/Adam"
        string_val: "sine_model/R/Adam_1"
      }
    }
  }
}
node {
  name: "save/SaveV2/shape_and_slices"
  op: "Const"
  device: "/device:CPU:0"
  attr {
    key: "_output_shapes"
    value {
      list {
        shape {
          dim {
            size: 11
          }
        }
      }
    }
  }
  attr {
    key: "dtype"
    value {
      type: DT_STRING
    }
  }
  attr {
    key: "value"
    value {
      tensor {
        dtype: DT_STRING
        tensor_shape {
          dim {
            size: 11
          }
        }
        string_val: ""
        string_val: ""
        string_val: ""
        string_val: ""
        string_val: ""
        string_val: ""
        string_val: ""
        string_val: ""
        string_val: ""
        string_val: ""
        string_val: ""
      }
    }
  }
}
node {
  name: "save/SaveV2"
  op: "SaveV2"
  input: "save/ShardedFilename"
  input: "save/SaveV2/tensor_names"
  input: "save/SaveV2/shape_and_slices"
  input: "beta1_power"
  input: "beta2_power"
  input: "global_step"
  input: "guitar_model/H"
  input: "guitar_model/R"
  input: "sine_model/H"
  input: "sine_model/H/Adam"
  input: "sine_model/H/Adam_1"
  input: "sine_model/R"
  input: "sine_model/R/Adam"
  input: "sine_model/R/Adam_1"
  device: "/device:CPU:0"
  attr {
    key: "dtypes"
    value {
      list {
        type: DT_FLOAT
        type: DT_FLOAT
        type: DT_INT64
        type: DT_FLOAT
        type: DT_FLOAT
        type: DT_FLOAT
        type: DT_FLOAT
        type: DT_FLOAT
        type: DT_FLOAT
        type: DT_FLOAT
        type: DT_FLOAT
      }
    }
  }
}
node {
  name: "save/control_dependency"
  op: "Identity"
  input: "save/ShardedFilename"
  input: "^save/SaveV2"
  device: "/device:CPU:0"
  attr {
    key: "T"
    value {
      type: DT_STRING
    }
  }
  attr {
    key: "_class"
    value {
      list {
        s: "loc:@save/ShardedFilename"
      }
    }
  }
  attr {
    key: "_output_shapes"
    value {
      list {
        shape {
        }
      }
    }
  }
}
node {
  name: "save/MergeV2Checkpoints/checkpoint_prefixes"
  op: "Pack"
  input: "save/ShardedFilename"
  input: "^save/control_dependency"
  device: "/device:CPU:0"
  attr {
    key: "N"
    value {
      i: 1
    }
  }
  attr {
    key: "T"
    value {
      type: DT_STRING
    }
  }
  attr {
    key: "_output_shapes"
    value {
      list {
        shape {
          dim {
            size: 1
          }
        }
      }
    }
  }
  attr {
    key: "axis"
    value {
      i: 0
    }
  }
}
node {
  name: "save/MergeV2Checkpoints"
  op: "MergeV2Checkpoints"
  input: "save/MergeV2Checkpoints/checkpoint_prefixes"
  input: "save/Const"
  device: "/device:CPU:0"
  attr {
    key: "delete_old_dirs"
    value {
      b: true
    }
  }
}
node {
  name: "save/Identity"
  op: "Identity"
  input: "save/Const"
  input: "^save/MergeV2Checkpoints"
  input: "^save/control_dependency"
  device: "/device:CPU:0"
  attr {
    key: "T"
    value {
      type: DT_STRING
    }
  }
  attr {
    key: "_output_shapes"
    value {
      list {
        shape {
        }
      }
    }
  }
}
node {
  name: "save/RestoreV2/tensor_names"
  op: "Const"
  device: "/device:CPU:0"
  attr {
    key: "_output_shapes"
    value {
      list {
        shape {
          dim {
            size: 11
          }
        }
      }
    }
  }
  attr {
    key: "dtype"
    value {
      type: DT_STRING
    }
  }
  attr {
    key: "value"
    value {
      tensor {
        dtype: DT_STRING
        tensor_shape {
          dim {
            size: 11
          }
        }
        string_val: "beta1_power"
        string_val: "beta2_power"
        string_val: "global_step"
        string_val: "guitar_model/H"
        string_val: "guitar_model/R"
        string_val: "sine_model/H"
        string_val: "sine_model/H/Adam"
        string_val: "sine_model/H/Adam_1"
        string_val: "sine_model/R"
        string_val: "sine_model/R/Adam"
        string_val: "sine_model/R/Adam_1"
      }
    }
  }
}
node {
  name: "save/RestoreV2/shape_and_slices"
  op: "Const"
  device: "/device:CPU:0"
  attr {
    key: "_output_shapes"
    value {
      list {
        shape {
          dim {
            size: 11
          }
        }
      }
    }
  }
  attr {
    key: "dtype"
    value {
      type: DT_STRING
    }
  }
  attr {
    key: "value"
    value {
      tensor {
        dtype: DT_STRING
        tensor_shape {
          dim {
            size: 11
          }
        }
        string_val: ""
        string_val: ""
        string_val: ""
        string_val: ""
        string_val: ""
        string_val: ""
        string_val: ""
        string_val: ""
        string_val: ""
        string_val: ""
        string_val: ""
      }
    }
  }
}
node {
  name: "save/RestoreV2"
  op: "RestoreV2"
  input: "save/Const"
  input: "save/RestoreV2/tensor_names"
  input: "save/RestoreV2/shape_and_slices"
  device: "/device:CPU:0"
  attr {
    key: "_output_shapes"
    value {
      list {
        shape {
          unknown_rank: true
        }
        shape {
          unknown_rank: true
        }
        shape {
          unknown_rank: true
        }
        shape {
          unknown_rank: true
        }
        shape {
          unknown_rank: true
        }
        shape {
          unknown_rank: true
        }
        shape {
          unknown_rank: true
        }
        shape {
          unknown_rank: true
        }
        shape {
          unknown_rank: true
        }
        shape {
          unknown_rank: true
        }
        shape {
          unknown_rank: true
        }
      }
    }
  }
  attr {
    key: "dtypes"
    value {
      list {
        type: DT_FLOAT
        type: DT_FLOAT
        type: DT_INT64
        type: DT_FLOAT
        type: DT_FLOAT
        type: DT_FLOAT
        type: DT_FLOAT
        type: DT_FLOAT
        type: DT_FLOAT
        type: DT_FLOAT
        type: DT_FLOAT
      }
    }
  }
}
node {
  name: "save/Assign"
  op: "Assign"
  input: "beta1_power"
  input: "save/RestoreV2"
  attr {
    key: "T"
    value {
      type: DT_FLOAT
    }
  }
  attr {
    key: "_class"
    value {
      list {
        s: "loc:@sine_model/H"
      }
    }
  }
  attr {
    key: "_output_shapes"
    value {
      list {
        shape {
        }
      }
    }
  }
  attr {
    key: "use_locking"
    value {
      b: true
    }
  }
  attr {
    key: "validate_shape"
    value {
      b: true
    }
  }
}
node {
  name: "save/Assign_1"
  op: "Assign"
  input: "beta2_power"
  input: "save/RestoreV2:1"
  attr {
    key: "T"
    value {
      type: DT_FLOAT
    }
  }
  attr {
    key: "_class"
    value {
      list {
        s: "loc:@sine_model/H"
      }
    }
  }
  attr {
    key: "_output_shapes"
    value {
      list {
        shape {
        }
      }
    }
  }
  attr {
    key: "use_locking"
    value {
      b: true
    }
  }
  attr {
    key: "validate_shape"
    value {
      b: true
    }
  }
}
node {
  name: "save/Assign_2"
  op: "Assign"
  input: "global_step"
  input: "save/RestoreV2:2"
  attr {
    key: "T"
    value {
      type: DT_INT64
    }
  }
  attr {
    key: "_class"
    value {
      list {
        s: "loc:@global_step"
      }
    }
  }
  attr {
    key: "_output_shapes"
    value {
      list {
        shape {
        }
      }
    }
  }
  attr {
    key: "use_locking"
    value {
      b: true
    }
  }
  attr {
    key: "validate_shape"
    value {
      b: true
    }
  }
}
node {
  name: "save/Assign_3"
  op: "Assign"
  input: "guitar_model/H"
  input: "save/RestoreV2:3"
  attr {
    key: "T"
    value {
      type: DT_FLOAT
    }
  }
  attr {
    key: "_class"
    value {
      list {
        s: "loc:@guitar_model/H"
      }
    }
  }
  attr {
    key: "_output_shapes"
    value {
      list {
        shape {
          dim {
            size: 5
          }
          dim {
            size: 5
          }
        }
      }
    }
  }
  attr {
    key: "use_locking"
    value {
      b: true
    }
  }
  attr {
    key: "validate_shape"
    value {
      b: true
    }
  }
}
node {
  name: "save/Assign_4"
  op: "Assign"
  input: "guitar_model/R"
  input: "save/RestoreV2:4"
  attr {
    key: "T"
    value {
      type: DT_FLOAT
    }
  }
  attr {
    key: "_class"
    value {
      list {
        s: "loc:@guitar_model/R"
      }
    }
  }
  attr {
    key: "_output_shapes"
    value {
      list {
        shape {
          dim {
            size: 5
          }
          dim {
            size: 5
          }
        }
      }
    }
  }
  attr {
    key: "use_locking"
    value {
      b: true
    }
  }
  attr {
    key: "validate_shape"
    value {
      b: true
    }
  }
}
node {
  name: "save/Assign_5"
  op: "Assign"
  input: "sine_model/H"
  input: "save/RestoreV2:5"
  attr {
    key: "T"
    value {
      type: DT_FLOAT
    }
  }
  attr {
    key: "_class"
    value {
      list {
        s: "loc:@sine_model/H"
      }
    }
  }
  attr {
    key: "_output_shapes"
    value {
      list {
        shape {
          dim {
            size: 5
          }
          dim {
            size: 5
          }
        }
      }
    }
  }
  attr {
    key: "use_locking"
    value {
      b: true
    }
  }
  attr {
    key: "validate_shape"
    value {
      b: true
    }
  }
}
node {
  name: "save/Assign_6"
  op: "Assign"
  input: "sine_model/H/Adam"
  input: "save/RestoreV2:6"
  attr {
    key: "T"
    value {
      type: DT_FLOAT
    }
  }
  attr {
    key: "_class"
    value {
      list {
        s: "loc:@sine_model/H"
      }
    }
  }
  attr {
    key: "_output_shapes"
    value {
      list {
        shape {
          dim {
            size: 5
          }
          dim {
            size: 5
          }
        }
      }
    }
  }
  attr {
    key: "use_locking"
    value {
      b: true
    }
  }
  attr {
    key: "validate_shape"
    value {
      b: true
    }
  }
}
node {
  name: "save/Assign_7"
  op: "Assign"
  input: "sine_model/H/Adam_1"
  input: "save/RestoreV2:7"
  attr {
    key: "T"
    value {
      type: DT_FLOAT
    }
  }
  attr {
    key: "_class"
    value {
      list {
        s: "loc:@sine_model/H"
      }
    }
  }
  attr {
    key: "_output_shapes"
    value {
      list {
        shape {
          dim {
            size: 5
          }
          dim {
            size: 5
          }
        }
      }
    }
  }
  attr {
    key: "use_locking"
    value {
      b: true
    }
  }
  attr {
    key: "validate_shape"
    value {
      b: true
    }
  }
}
node {
  name: "save/Assign_8"
  op: "Assign"
  input: "sine_model/R"
  input: "save/RestoreV2:8"
  attr {
    key: "T"
    value {
      type: DT_FLOAT
    }
  }
  attr {
    key: "_class"
    value {
      list {
        s: "loc:@sine_model/R"
      }
    }
  }
  attr {
    key: "_output_shapes"
    value {
      list {
        shape {
          dim {
            size: 5
          }
          dim {
            size: 5
          }
        }
      }
    }
  }
  attr {
    key: "use_locking"
    value {
      b: true
    }
  }
  attr {
    key: "validate_shape"
    value {
      b: true
    }
  }
}
node {
  name: "save/Assign_9"
  op: "Assign"
  input: "sine_model/R/Adam"
  input: "save/RestoreV2:9"
  attr {
    key: "T"
    value {
      type: DT_FLOAT
    }
  }
  attr {
    key: "_class"
    value {
      list {
        s: "loc:@sine_model/R"
      }
    }
  }
  attr {
    key: "_output_shapes"
    value {
      list {
        shape {
          dim {
            size: 5
          }
          dim {
            size: 5
          }
        }
      }
    }
  }
  attr {
    key: "use_locking"
    value {
      b: true
    }
  }
  attr {
    key: "validate_shape"
    value {
      b: true
    }
  }
}
node {
  name: "save/Assign_10"
  op: "Assign"
  input: "sine_model/R/Adam_1"
  input: "save/RestoreV2:10"
  attr {
    key: "T"
    value {
      type: DT_FLOAT
    }
  }
  attr {
    key: "_class"
    value {
      list {
        s: "loc:@sine_model/R"
      }
    }
  }
  attr {
    key: "_output_shapes"
    value {
      list {
        shape {
          dim {
            size: 5
          }
          dim {
            size: 5
          }
        }
      }
    }
  }
  attr {
    key: "use_locking"
    value {
      b: true
    }
  }
  attr {
    key: "validate_shape"
    value {
      b: true
    }
  }
}
node {
  name: "save/restore_shard"
  op: "NoOp"
  input: "^save/Assign"
  input: "^save/Assign_1"
  input: "^save/Assign_10"
  input: "^save/Assign_2"
  input: "^save/Assign_3"
  input: "^save/Assign_4"
  input: "^save/Assign_5"
  input: "^save/Assign_6"
  input: "^save/Assign_7"
  input: "^save/Assign_8"
  input: "^save/Assign_9"
}
node {
  name: "save/restore_all"
  op: "NoOp"
  input: "^save/restore_shard"
}
library {
  function {
    signature {
      name: "tf_data_structured_function_wrapper_Qky8TA5ITQU"
      input_arg {
        name: "arg0"
        type: DT_STRING
      }
      output_arg {
        name: "tfrecorddataset"
        type: DT_VARIANT
      }
      description: "Wrapper for passing nested structures to and from tf.data functions."
      is_stateful: true
    }
    node_def {
      name: "compression_type"
      op: "Const"
      attr {
        key: "dtype"
        value {
          type: DT_STRING
        }
      }
      attr {
        key: "value"
        value {
          tensor {
            dtype: DT_STRING
            tensor_shape {
            }
            string_val: ""
          }
        }
      }
    }
    node_def {
      name: "buffer_size"
      op: "Const"
      attr {
        key: "dtype"
        value {
          type: DT_INT64
        }
      }
      attr {
        key: "value"
        value {
          tensor {
            dtype: DT_INT64
            tensor_shape {
            }
            int64_val: 262144
          }
        }
      }
    }
    node_def {
      name: "TFRecordDataset"
      op: "TFRecordDataset"
      input: "arg0"
      input: "compression_type:output:0"
      input: "buffer_size:output:0"
    }
    ret {
      key: "tfrecorddataset"
      value: "TFRecordDataset:handle:0"
    }
  }
  function {
    signature {
      name: "tf_data_structured_function_wrapper_AuqsHeAbLzU"
      input_arg {
        name: "arg0"
        type: DT_STRING
      }
      output_arg {
        name: "parsesingleexample_parsesingleexample"
        type: DT_FLOAT
      }
      description: "Wrapper for passing nested structures to and from tf.data functions."
    }
    node_def {
      name: "ParseSingleExample/Const"
      op: "Const"
      attr {
        key: "dtype"
        value {
          type: DT_FLOAT
        }
      }
      attr {
        key: "value"
        value {
          tensor {
            dtype: DT_FLOAT
            tensor_shape {
              dim {
              }
            }
          }
        }
      }
    }
    node_def {
      name: "ParseSingleExample/ParseSingleExample"
      op: "ParseSingleExample"
      input: "arg0"
      input: "ParseSingleExample/Const:output:0"
      attr {
        key: "Tdense"
        value {
          list {
            type: DT_FLOAT
          }
        }
      }
      attr {
        key: "dense_keys"
        value {
          list {
            s: "audio"
          }
        }
      }
      attr {
        key: "dense_shapes"
        value {
          list {
            shape {
              dim {
                size: 65536
              }
            }
          }
        }
      }
      attr {
        key: "num_sparse"
        value {
          i: 0
        }
      }
      attr {
        key: "sparse_keys"
        value {
          list {
          }
        }
      }
      attr {
        key: "sparse_types"
        value {
          list {
          }
        }
      }
    }
    ret {
      key: "parsesingleexample_parsesingleexample"
      value: "ParseSingleExample/ParseSingleExample:dense_values:0"
    }
  }
  function {
    signature {
      name: "_make_dataset_SmWORJYaibI"
      output_arg {
        name: "repeatdataset"
        type: DT_VARIANT
      }
      is_stateful: true
    }
    node_def {
      name: "TensorSliceDataset/Const"
      op: "Const"
      attr {
        key: "dtype"
        value {
          type: DT_STRING
        }
      }
      attr {
        key: "value"
        value {
          tensor {
            dtype: DT_STRING
            tensor_shape {
            }
            string_val: "../data/guitar.tfrecords"
          }
        }
      }
    }
    node_def {
      name: "TensorSliceDataset/flat_filenames/shape"
      op: "Const"
      attr {
        key: "dtype"
        value {
          type: DT_INT32
        }
      }
      attr {
        key: "value"
        value {
          tensor {
            dtype: DT_INT32
            tensor_shape {
              dim {
                size: 1
              }
            }
            int_val: -1
          }
        }
      }
    }
    node_def {
      name: "TensorSliceDataset/flat_filenames"
      op: "Reshape"
      input: "TensorSliceDataset/Const:output:0"
      input: "TensorSliceDataset/flat_filenames/shape:output:0"
      attr {
        key: "T"
        value {
          type: DT_STRING
        }
      }
      attr {
        key: "Tshape"
        value {
          type: DT_INT32
        }
      }
    }
    node_def {
      name: "TensorSliceDataset"
      op: "TensorSliceDataset"
      input: "TensorSliceDataset/flat_filenames:output:0"
      attr {
        key: "Toutput_types"
        value {
          list {
            type: DT_STRING
          }
        }
      }
      attr {
        key: "output_shapes"
        value {
          list {
            shape {
            }
          }
        }
      }
    }
    node_def {
      name: "FlatMapDataset"
      op: "FlatMapDataset"
      input: "TensorSliceDataset:handle:0"
      attr {
        key: "Targuments"
        value {
          list {
          }
        }
      }
      attr {
        key: "f"
        value {
          func {
            name: "tf_data_structured_function_wrapper_Qky8TA5ITQU"
          }
        }
      }
      attr {
        key: "output_shapes"
        value {
          list {
            shape {
            }
          }
        }
      }
      attr {
        key: "output_types"
        value {
          list {
            type: DT_STRING
          }
        }
      }
    }
    node_def {
      name: "MapDataset"
      op: "MapDataset"
      input: "FlatMapDataset:handle:0"
      attr {
        key: "Targuments"
        value {
          list {
          }
        }
      }
      attr {
        key: "f"
        value {
          func {
            name: "tf_data_structured_function_wrapper_AuqsHeAbLzU"
          }
        }
      }
      attr {
        key: "output_shapes"
        value {
          list {
            shape {
              dim {
                size: 65536
              }
            }
          }
        }
      }
      attr {
        key: "output_types"
        value {
          list {
            type: DT_FLOAT
          }
        }
      }
    }
    node_def {
      name: "BatchDatasetV2/batch_size"
      op: "Const"
      attr {
        key: "dtype"
        value {
          type: DT_INT64
        }
      }
      attr {
        key: "value"
        value {
          tensor {
            dtype: DT_INT64
            tensor_shape {
            }
            int64_val: 32
          }
        }
      }
    }
    node_def {
      name: "BatchDatasetV2/drop_remainder"
      op: "Const"
      attr {
        key: "dtype"
        value {
          type: DT_BOOL
        }
      }
      attr {
        key: "value"
        value {
          tensor {
            dtype: DT_BOOL
            tensor_shape {
            }
            bool_val: false
          }
        }
      }
    }
    node_def {
      name: "BatchDatasetV2"
      op: "BatchDatasetV2"
      input: "MapDataset:handle:0"
      input: "BatchDatasetV2/batch_size:output:0"
      input: "BatchDatasetV2/drop_remainder:output:0"
      attr {
        key: "output_shapes"
        value {
          list {
            shape {
              dim {
                size: -1
              }
              dim {
                size: 65536
              }
            }
          }
        }
      }
      attr {
        key: "output_types"
        value {
          list {
            type: DT_FLOAT
          }
        }
      }
    }
    node_def {
      name: "ShuffleDataset/buffer_size"
      op: "Const"
      attr {
        key: "dtype"
        value {
          type: DT_INT64
        }
      }
      attr {
        key: "value"
        value {
          tensor {
            dtype: DT_INT64
            tensor_shape {
            }
            int64_val: 10000
          }
        }
      }
    }
    node_def {
      name: "ShuffleDataset/seed"
      op: "Const"
      attr {
        key: "dtype"
        value {
          type: DT_INT64
        }
      }
      attr {
        key: "value"
        value {
          tensor {
            dtype: DT_INT64
            tensor_shape {
            }
            int64_val: 0
          }
        }
      }
    }
    node_def {
      name: "ShuffleDataset/seed2"
      op: "Const"
      attr {
        key: "dtype"
        value {
          type: DT_INT64
        }
      }
      attr {
        key: "value"
        value {
          tensor {
            dtype: DT_INT64
            tensor_shape {
            }
            int64_val: 0
          }
        }
      }
    }
    node_def {
      name: "ShuffleDataset"
      op: "ShuffleDataset"
      input: "BatchDatasetV2:handle:0"
      input: "ShuffleDataset/buffer_size:output:0"
      input: "ShuffleDataset/seed:output:0"
      input: "ShuffleDataset/seed2:output:0"
      attr {
        key: "output_shapes"
        value {
          list {
            shape {
              dim {
                size: -1
              }
              dim {
                size: 65536
              }
            }
          }
        }
      }
      attr {
        key: "output_types"
        value {
          list {
            type: DT_FLOAT
          }
        }
      }
      attr {
        key: "reshuffle_each_iteration"
        value {
          b: true
        }
      }
    }
    node_def {
      name: "RepeatDataset/count"
      op: "Const"
      attr {
        key: "dtype"
        value {
          type: DT_INT64
        }
      }
      attr {
        key: "value"
        value {
          tensor {
            dtype: DT_INT64
            tensor_shape {
            }
            int64_val: -1
          }
        }
      }
    }
    node_def {
      name: "RepeatDataset"
      op: "RepeatDataset"
      input: "ShuffleDataset:handle:0"
      input: "RepeatDataset/count:output:0"
      attr {
        key: "output_shapes"
        value {
          list {
            shape {
              dim {
                size: -1
              }
              dim {
                size: 65536
              }
            }
          }
        }
      }
      attr {
        key: "output_types"
        value {
          list {
            type: DT_FLOAT
          }
        }
      }
    }
    ret {
      key: "repeatdataset"
      value: "RepeatDataset:handle:0"
    }
  }
}
versions {
  producer: 26
  min_consumer: 12
}
