node {
  name: "sine_model/H/Initializer/random_uniform/shape"
  op: "Const"
  attr {
    key: "_class"
    value {
      list {
        s: "loc:@sine_model/H"
      }
    }
  }
  attr {
    key: "_output_shapes"
    value {
      list {
        shape {
          dim {
            size: 2
          }
        }
      }
    }
  }
  attr {
    key: "dtype"
    value {
      type: DT_INT32
    }
  }
  attr {
    key: "value"
    value {
      tensor {
        dtype: DT_INT32
        tensor_shape {
          dim {
            size: 2
          }
        }
        tensor_content: "\005\000\000\000\005\000\000\000"
      }
    }
  }
}
node {
  name: "sine_model/H/Initializer/random_uniform/min"
  op: "Const"
  attr {
    key: "_class"
    value {
      list {
        s: "loc:@sine_model/H"
      }
    }
  }
  attr {
    key: "_output_shapes"
    value {
      list {
        shape {
        }
      }
    }
  }
  attr {
    key: "dtype"
    value {
      type: DT_FLOAT
    }
  }
  attr {
    key: "value"
    value {
      tensor {
        dtype: DT_FLOAT
        tensor_shape {
        }
        float_val: -0.7745966911315918
      }
    }
  }
}
node {
  name: "sine_model/H/Initializer/random_uniform/max"
  op: "Const"
  attr {
    key: "_class"
    value {
      list {
        s: "loc:@sine_model/H"
      }
    }
  }
  attr {
    key: "_output_shapes"
    value {
      list {
        shape {
        }
      }
    }
  }
  attr {
    key: "dtype"
    value {
      type: DT_FLOAT
    }
  }
  attr {
    key: "value"
    value {
      tensor {
        dtype: DT_FLOAT
        tensor_shape {
        }
        float_val: 0.7745966911315918
      }
    }
  }
}
node {
  name: "sine_model/H/Initializer/random_uniform/RandomUniform"
  op: "RandomUniform"
  input: "sine_model/H/Initializer/random_uniform/shape"
  attr {
    key: "T"
    value {
      type: DT_INT32
    }
  }
  attr {
    key: "_class"
    value {
      list {
        s: "loc:@sine_model/H"
      }
    }
  }
  attr {
    key: "_output_shapes"
    value {
      list {
        shape {
          dim {
            size: 5
          }
          dim {
            size: 5
          }
        }
      }
    }
  }
  attr {
    key: "dtype"
    value {
      type: DT_FLOAT
    }
  }
  attr {
    key: "seed"
    value {
      i: 0
    }
  }
  attr {
    key: "seed2"
    value {
      i: 0
    }
  }
}
node {
  name: "sine_model/H/Initializer/random_uniform/sub"
  op: "Sub"
  input: "sine_model/H/Initializer/random_uniform/max"
  input: "sine_model/H/Initializer/random_uniform/min"
  attr {
    key: "T"
    value {
      type: DT_FLOAT
    }
  }
  attr {
    key: "_class"
    value {
      list {
        s: "loc:@sine_model/H"
      }
    }
  }
  attr {
    key: "_output_shapes"
    value {
      list {
        shape {
        }
      }
    }
  }
}
node {
  name: "sine_model/H/Initializer/random_uniform/mul"
  op: "Mul"
  input: "sine_model/H/Initializer/random_uniform/RandomUniform"
  input: "sine_model/H/Initializer/random_uniform/sub"
  attr {
    key: "T"
    value {
      type: DT_FLOAT
    }
  }
  attr {
    key: "_class"
    value {
      list {
        s: "loc:@sine_model/H"
      }
    }
  }
  attr {
    key: "_output_shapes"
    value {
      list {
        shape {
          dim {
            size: 5
          }
          dim {
            size: 5
          }
        }
      }
    }
  }
}
node {
  name: "sine_model/H/Initializer/random_uniform"
  op: "Add"
  input: "sine_model/H/Initializer/random_uniform/mul"
  input: "sine_model/H/Initializer/random_uniform/min"
  attr {
    key: "T"
    value {
      type: DT_FLOAT
    }
  }
  attr {
    key: "_class"
    value {
      list {
        s: "loc:@sine_model/H"
      }
    }
  }
  attr {
    key: "_output_shapes"
    value {
      list {
        shape {
          dim {
            size: 5
          }
          dim {
            size: 5
          }
        }
      }
    }
  }
}
node {
  name: "sine_model/H"
  op: "VariableV2"
  attr {
    key: "_class"
    value {
      list {
        s: "loc:@sine_model/H"
      }
    }
  }
  attr {
    key: "_output_shapes"
    value {
      list {
        shape {
          dim {
            size: 5
          }
          dim {
            size: 5
          }
        }
      }
    }
  }
  attr {
    key: "container"
    value {
      s: ""
    }
  }
  attr {
    key: "dtype"
    value {
      type: DT_FLOAT
    }
  }
  attr {
    key: "shape"
    value {
      shape {
        dim {
          size: 5
        }
        dim {
          size: 5
        }
      }
    }
  }
  attr {
    key: "shared_name"
    value {
      s: ""
    }
  }
}
node {
  name: "sine_model/H/Assign"
  op: "Assign"
  input: "sine_model/H"
  input: "sine_model/H/Initializer/random_uniform"
  attr {
    key: "T"
    value {
      type: DT_FLOAT
    }
  }
  attr {
    key: "_class"
    value {
      list {
        s: "loc:@sine_model/H"
      }
    }
  }
  attr {
    key: "_output_shapes"
    value {
      list {
        shape {
          dim {
            size: 5
          }
          dim {
            size: 5
          }
        }
      }
    }
  }
  attr {
    key: "use_locking"
    value {
      b: true
    }
  }
  attr {
    key: "validate_shape"
    value {
      b: true
    }
  }
}
node {
  name: "sine_model/H/read"
  op: "Identity"
  input: "sine_model/H"
  attr {
    key: "T"
    value {
      type: DT_FLOAT
    }
  }
  attr {
    key: "_class"
    value {
      list {
        s: "loc:@sine_model/H"
      }
    }
  }
  attr {
    key: "_output_shapes"
    value {
      list {
        shape {
          dim {
            size: 5
          }
          dim {
            size: 5
          }
        }
      }
    }
  }
}
node {
  name: "sine_model/symmetrize/MatrixBandPart/num_lower"
  op: "Const"
  attr {
    key: "_output_shapes"
    value {
      list {
        shape {
        }
      }
    }
  }
  attr {
    key: "dtype"
    value {
      type: DT_INT64
    }
  }
  attr {
    key: "value"
    value {
      tensor {
        dtype: DT_INT64
        tensor_shape {
        }
        int64_val: -1
      }
    }
  }
}
node {
  name: "sine_model/symmetrize/MatrixBandPart/num_upper"
  op: "Const"
  attr {
    key: "_output_shapes"
    value {
      list {
        shape {
        }
      }
    }
  }
  attr {
    key: "dtype"
    value {
      type: DT_INT64
    }
  }
  attr {
    key: "value"
    value {
      tensor {
        dtype: DT_INT64
        tensor_shape {
        }
        int64_val: 0
      }
    }
  }
}
node {
  name: "sine_model/symmetrize/MatrixBandPart"
  op: "MatrixBandPart"
  input: "sine_model/H/read"
  input: "sine_model/symmetrize/MatrixBandPart/num_lower"
  input: "sine_model/symmetrize/MatrixBandPart/num_upper"
  attr {
    key: "T"
    value {
      type: DT_FLOAT
    }
  }
  attr {
    key: "Tindex"
    value {
      type: DT_INT64
    }
  }
  attr {
    key: "_output_shapes"
    value {
      list {
        shape {
          dim {
            size: 5
          }
          dim {
            size: 5
          }
        }
      }
    }
  }
}
node {
  name: "sine_model/symmetrize/matrix_transpose/transpose/perm"
  op: "Const"
  attr {
    key: "_output_shapes"
    value {
      list {
        shape {
          dim {
            size: 2
          }
        }
      }
    }
  }
  attr {
    key: "dtype"
    value {
      type: DT_INT32
    }
  }
  attr {
    key: "value"
    value {
      tensor {
        dtype: DT_INT32
        tensor_shape {
          dim {
            size: 2
          }
        }
        tensor_content: "\001\000\000\000\000\000\000\000"
      }
    }
  }
}
node {
  name: "sine_model/symmetrize/matrix_transpose/transpose"
  op: "Transpose"
  input: "sine_model/symmetrize/MatrixBandPart"
  input: "sine_model/symmetrize/matrix_transpose/transpose/perm"
  attr {
    key: "T"
    value {
      type: DT_FLOAT
    }
  }
  attr {
    key: "Tperm"
    value {
      type: DT_INT32
    }
  }
  attr {
    key: "_output_shapes"
    value {
      list {
        shape {
          dim {
            size: 5
          }
          dim {
            size: 5
          }
        }
      }
    }
  }
}
node {
  name: "sine_model/symmetrize/add"
  op: "Add"
  input: "sine_model/symmetrize/MatrixBandPart"
  input: "sine_model/symmetrize/matrix_transpose/transpose"
  attr {
    key: "T"
    value {
      type: DT_FLOAT
    }
  }
  attr {
    key: "_output_shapes"
    value {
      list {
        shape {
          dim {
            size: 5
          }
          dim {
            size: 5
          }
        }
      }
    }
  }
}
node {
  name: "sine_model/R/Initializer/random_uniform/shape"
  op: "Const"
  attr {
    key: "_class"
    value {
      list {
        s: "loc:@sine_model/R"
      }
    }
  }
  attr {
    key: "_output_shapes"
    value {
      list {
        shape {
          dim {
            size: 2
          }
        }
      }
    }
  }
  attr {
    key: "dtype"
    value {
      type: DT_INT32
    }
  }
  attr {
    key: "value"
    value {
      tensor {
        dtype: DT_INT32
        tensor_shape {
          dim {
            size: 2
          }
        }
        tensor_content: "\005\000\000\000\005\000\000\000"
      }
    }
  }
}
node {
  name: "sine_model/R/Initializer/random_uniform/min"
  op: "Const"
  attr {
    key: "_class"
    value {
      list {
        s: "loc:@sine_model/R"
      }
    }
  }
  attr {
    key: "_output_shapes"
    value {
      list {
        shape {
        }
      }
    }
  }
  attr {
    key: "dtype"
    value {
      type: DT_FLOAT
    }
  }
  attr {
    key: "value"
    value {
      tensor {
        dtype: DT_FLOAT
        tensor_shape {
        }
        float_val: -0.7745966911315918
      }
    }
  }
}
node {
  name: "sine_model/R/Initializer/random_uniform/max"
  op: "Const"
  attr {
    key: "_class"
    value {
      list {
        s: "loc:@sine_model/R"
      }
    }
  }
  attr {
    key: "_output_shapes"
    value {
      list {
        shape {
        }
      }
    }
  }
  attr {
    key: "dtype"
    value {
      type: DT_FLOAT
    }
  }
  attr {
    key: "value"
    value {
      tensor {
        dtype: DT_FLOAT
        tensor_shape {
        }
        float_val: 0.7745966911315918
      }
    }
  }
}
node {
  name: "sine_model/R/Initializer/random_uniform/RandomUniform"
  op: "RandomUniform"
  input: "sine_model/R/Initializer/random_uniform/shape"
  attr {
    key: "T"
    value {
      type: DT_INT32
    }
  }
  attr {
    key: "_class"
    value {
      list {
        s: "loc:@sine_model/R"
      }
    }
  }
  attr {
    key: "_output_shapes"
    value {
      list {
        shape {
          dim {
            size: 5
          }
          dim {
            size: 5
          }
        }
      }
    }
  }
  attr {
    key: "dtype"
    value {
      type: DT_FLOAT
    }
  }
  attr {
    key: "seed"
    value {
      i: 0
    }
  }
  attr {
    key: "seed2"
    value {
      i: 0
    }
  }
}
node {
  name: "sine_model/R/Initializer/random_uniform/sub"
  op: "Sub"
  input: "sine_model/R/Initializer/random_uniform/max"
  input: "sine_model/R/Initializer/random_uniform/min"
  attr {
    key: "T"
    value {
      type: DT_FLOAT
    }
  }
  attr {
    key: "_class"
    value {
      list {
        s: "loc:@sine_model/R"
      }
    }
  }
  attr {
    key: "_output_shapes"
    value {
      list {
        shape {
        }
      }
    }
  }
}
node {
  name: "sine_model/R/Initializer/random_uniform/mul"
  op: "Mul"
  input: "sine_model/R/Initializer/random_uniform/RandomUniform"
  input: "sine_model/R/Initializer/random_uniform/sub"
  attr {
    key: "T"
    value {
      type: DT_FLOAT
    }
  }
  attr {
    key: "_class"
    value {
      list {
        s: "loc:@sine_model/R"
      }
    }
  }
  attr {
    key: "_output_shapes"
    value {
      list {
        shape {
          dim {
            size: 5
          }
          dim {
            size: 5
          }
        }
      }
    }
  }
}
node {
  name: "sine_model/R/Initializer/random_uniform"
  op: "Add"
  input: "sine_model/R/Initializer/random_uniform/mul"
  input: "sine_model/R/Initializer/random_uniform/min"
  attr {
    key: "T"
    value {
      type: DT_FLOAT
    }
  }
  attr {
    key: "_class"
    value {
      list {
        s: "loc:@sine_model/R"
      }
    }
  }
  attr {
    key: "_output_shapes"
    value {
      list {
        shape {
          dim {
            size: 5
          }
          dim {
            size: 5
          }
        }
      }
    }
  }
}
node {
  name: "sine_model/R"
  op: "VariableV2"
  attr {
    key: "_class"
    value {
      list {
        s: "loc:@sine_model/R"
      }
    }
  }
  attr {
    key: "_output_shapes"
    value {
      list {
        shape {
          dim {
            size: 5
          }
          dim {
            size: 5
          }
        }
      }
    }
  }
  attr {
    key: "container"
    value {
      s: ""
    }
  }
  attr {
    key: "dtype"
    value {
      type: DT_FLOAT
    }
  }
  attr {
    key: "shape"
    value {
      shape {
        dim {
          size: 5
        }
        dim {
          size: 5
        }
      }
    }
  }
  attr {
    key: "shared_name"
    value {
      s: ""
    }
  }
}
node {
  name: "sine_model/R/Assign"
  op: "Assign"
  input: "sine_model/R"
  input: "sine_model/R/Initializer/random_uniform"
  attr {
    key: "T"
    value {
      type: DT_FLOAT
    }
  }
  attr {
    key: "_class"
    value {
      list {
        s: "loc:@sine_model/R"
      }
    }
  }
  attr {
    key: "_output_shapes"
    value {
      list {
        shape {
          dim {
            size: 5
          }
          dim {
            size: 5
          }
        }
      }
    }
  }
  attr {
    key: "use_locking"
    value {
      b: true
    }
  }
  attr {
    key: "validate_shape"
    value {
      b: true
    }
  }
}
node {
  name: "sine_model/R/read"
  op: "Identity"
  input: "sine_model/R"
  attr {
    key: "T"
    value {
      type: DT_FLOAT
    }
  }
  attr {
    key: "_class"
    value {
      list {
        s: "loc:@sine_model/R"
      }
    }
  }
  attr {
    key: "_output_shapes"
    value {
      list {
        shape {
          dim {
            size: 5
          }
          dim {
            size: 5
          }
        }
      }
    }
  }
}
node {
  name: "save/Const"
  op: "Const"
  attr {
    key: "_output_shapes"
    value {
      list {
        shape {
        }
      }
    }
  }
  attr {
    key: "dtype"
    value {
      type: DT_STRING
    }
  }
  attr {
    key: "value"
    value {
      tensor {
        dtype: DT_STRING
        tensor_shape {
        }
        string_val: "model"
      }
    }
  }
}
node {
  name: "save/SaveV2/tensor_names"
  op: "Const"
  attr {
    key: "_output_shapes"
    value {
      list {
        shape {
          dim {
            size: 2
          }
        }
      }
    }
  }
  attr {
    key: "dtype"
    value {
      type: DT_STRING
    }
  }
  attr {
    key: "value"
    value {
      tensor {
        dtype: DT_STRING
        tensor_shape {
          dim {
            size: 2
          }
        }
        string_val: "sine_model/H"
        string_val: "sine_model/R"
      }
    }
  }
}
node {
  name: "save/SaveV2/shape_and_slices"
  op: "Const"
  attr {
    key: "_output_shapes"
    value {
      list {
        shape {
          dim {
            size: 2
          }
        }
      }
    }
  }
  attr {
    key: "dtype"
    value {
      type: DT_STRING
    }
  }
  attr {
    key: "value"
    value {
      tensor {
        dtype: DT_STRING
        tensor_shape {
          dim {
            size: 2
          }
        }
        string_val: ""
        string_val: ""
      }
    }
  }
}
node {
  name: "save/SaveV2"
  op: "SaveV2"
  input: "save/Const"
  input: "save/SaveV2/tensor_names"
  input: "save/SaveV2/shape_and_slices"
  input: "sine_model/H"
  input: "sine_model/R"
  attr {
    key: "dtypes"
    value {
      list {
        type: DT_FLOAT
        type: DT_FLOAT
      }
    }
  }
}
node {
  name: "save/control_dependency"
  op: "Identity"
  input: "save/Const"
  input: "^save/SaveV2"
  attr {
    key: "T"
    value {
      type: DT_STRING
    }
  }
  attr {
    key: "_class"
    value {
      list {
        s: "loc:@save/Const"
      }
    }
  }
  attr {
    key: "_output_shapes"
    value {
      list {
        shape {
        }
      }
    }
  }
}
node {
  name: "save/RestoreV2/tensor_names"
  op: "Const"
  device: "/device:CPU:0"
  attr {
    key: "_output_shapes"
    value {
      list {
        shape {
          dim {
            size: 2
          }
        }
      }
    }
  }
  attr {
    key: "dtype"
    value {
      type: DT_STRING
    }
  }
  attr {
    key: "value"
    value {
      tensor {
        dtype: DT_STRING
        tensor_shape {
          dim {
            size: 2
          }
        }
        string_val: "sine_model/H"
        string_val: "sine_model/R"
      }
    }
  }
}
node {
  name: "save/RestoreV2/shape_and_slices"
  op: "Const"
  device: "/device:CPU:0"
  attr {
    key: "_output_shapes"
    value {
      list {
        shape {
          dim {
            size: 2
          }
        }
      }
    }
  }
  attr {
    key: "dtype"
    value {
      type: DT_STRING
    }
  }
  attr {
    key: "value"
    value {
      tensor {
        dtype: DT_STRING
        tensor_shape {
          dim {
            size: 2
          }
        }
        string_val: ""
        string_val: ""
      }
    }
  }
}
node {
  name: "save/RestoreV2"
  op: "RestoreV2"
  input: "save/Const"
  input: "save/RestoreV2/tensor_names"
  input: "save/RestoreV2/shape_and_slices"
  device: "/device:CPU:0"
  attr {
    key: "_output_shapes"
    value {
      list {
        shape {
          unknown_rank: true
        }
        shape {
          unknown_rank: true
        }
      }
    }
  }
  attr {
    key: "dtypes"
    value {
      list {
        type: DT_FLOAT
        type: DT_FLOAT
      }
    }
  }
}
node {
  name: "save/Assign"
  op: "Assign"
  input: "sine_model/H"
  input: "save/RestoreV2"
  attr {
    key: "T"
    value {
      type: DT_FLOAT
    }
  }
  attr {
    key: "_class"
    value {
      list {
        s: "loc:@sine_model/H"
      }
    }
  }
  attr {
    key: "_output_shapes"
    value {
      list {
        shape {
          dim {
            size: 5
          }
          dim {
            size: 5
          }
        }
      }
    }
  }
  attr {
    key: "use_locking"
    value {
      b: true
    }
  }
  attr {
    key: "validate_shape"
    value {
      b: true
    }
  }
}
node {
  name: "save/Assign_1"
  op: "Assign"
  input: "sine_model/R"
  input: "save/RestoreV2:1"
  attr {
    key: "T"
    value {
      type: DT_FLOAT
    }
  }
  attr {
    key: "_class"
    value {
      list {
        s: "loc:@sine_model/R"
      }
    }
  }
  attr {
    key: "_output_shapes"
    value {
      list {
        shape {
          dim {
            size: 5
          }
          dim {
            size: 5
          }
        }
      }
    }
  }
  attr {
    key: "use_locking"
    value {
      b: true
    }
  }
  attr {
    key: "validate_shape"
    value {
      b: true
    }
  }
}
node {
  name: "save/restore_all"
  op: "NoOp"
  input: "^save/Assign"
  input: "^save/Assign_1"
}
node {
  name: "zeros"
  op: "Const"
  attr {
    key: "_output_shapes"
    value {
      list {
        shape {
          dim {
            size: 5
          }
        }
      }
    }
  }
  attr {
    key: "dtype"
    value {
      type: DT_FLOAT
    }
  }
  attr {
    key: "value"
    value {
      tensor {
        dtype: DT_FLOAT
        tensor_shape {
          dim {
            size: 5
          }
        }
        float_val: 0.0
      }
    }
  }
}
node {
  name: "Cast"
  op: "Cast"
  input: "zeros"
  attr {
    key: "DstT"
    value {
      type: DT_INT32
    }
  }
  attr {
    key: "SrcT"
    value {
      type: DT_FLOAT
    }
  }
  attr {
    key: "_output_shapes"
    value {
      list {
        shape {
          dim {
            size: 5
          }
        }
      }
    }
  }
}
node {
  name: "one_hot/on_value"
  op: "Const"
  attr {
    key: "_output_shapes"
    value {
      list {
        shape {
        }
      }
    }
  }
  attr {
    key: "dtype"
    value {
      type: DT_COMPLEX64
    }
  }
  attr {
    key: "value"
    value {
      tensor {
        dtype: DT_COMPLEX64
        tensor_shape {
        }
        scomplex_val: 1.0
        scomplex_val: 0.0
      }
    }
  }
}
node {
  name: "one_hot/off_value"
  op: "Const"
  attr {
    key: "_output_shapes"
    value {
      list {
        shape {
        }
      }
    }
  }
  attr {
    key: "dtype"
    value {
      type: DT_COMPLEX64
    }
  }
  attr {
    key: "value"
    value {
      tensor {
        dtype: DT_COMPLEX64
        tensor_shape {
        }
        scomplex_val: 0.0
        scomplex_val: 0.0
      }
    }
  }
}
node {
  name: "one_hot/depth"
  op: "Const"
  attr {
    key: "_output_shapes"
    value {
      list {
        shape {
        }
      }
    }
  }
  attr {
    key: "dtype"
    value {
      type: DT_INT32
    }
  }
  attr {
    key: "value"
    value {
      tensor {
        dtype: DT_INT32
        tensor_shape {
        }
        int_val: 5
      }
    }
  }
}
node {
  name: "one_hot"
  op: "OneHot"
  input: "Cast"
  input: "one_hot/depth"
  input: "one_hot/on_value"
  input: "one_hot/off_value"
  attr {
    key: "T"
    value {
      type: DT_COMPLEX64
    }
  }
  attr {
    key: "TI"
    value {
      type: DT_INT32
    }
  }
  attr {
    key: "_output_shapes"
    value {
      list {
        shape {
          dim {
            size: 5
          }
          dim {
            size: 5
          }
        }
      }
    }
  }
  attr {
    key: "axis"
    value {
      i: -1
    }
  }
}
node {
  name: "random_normal/shape"
  op: "Const"
  attr {
    key: "_output_shapes"
    value {
      list {
        shape {
          dim {
            size: 2
          }
        }
      }
    }
  }
  attr {
    key: "dtype"
    value {
      type: DT_INT32
    }
  }
  attr {
    key: "value"
    value {
      tensor {
        dtype: DT_INT32
        tensor_shape {
          dim {
            size: 2
          }
        }
        tensor_content: "\350\003\000\000\005\000\000\000"
      }
    }
  }
}
node {
  name: "random_normal/mean"
  op: "Const"
  attr {
    key: "_output_shapes"
    value {
      list {
        shape {
        }
      }
    }
  }
  attr {
    key: "dtype"
    value {
      type: DT_FLOAT
    }
  }
  attr {
    key: "value"
    value {
      tensor {
        dtype: DT_FLOAT
        tensor_shape {
        }
        float_val: 0.0
      }
    }
  }
}
node {
  name: "random_normal/stddev"
  op: "Const"
  attr {
    key: "_output_shapes"
    value {
      list {
        shape {
        }
      }
    }
  }
  attr {
    key: "dtype"
    value {
      type: DT_FLOAT
    }
  }
  attr {
    key: "value"
    value {
      tensor {
        dtype: DT_FLOAT
        tensor_shape {
        }
        float_val: 0.03162277489900589
      }
    }
  }
}
node {
  name: "random_normal/RandomStandardNormal"
  op: "RandomStandardNormal"
  input: "random_normal/shape"
  attr {
    key: "T"
    value {
      type: DT_INT32
    }
  }
  attr {
    key: "_output_shapes"
    value {
      list {
        shape {
          dim {
            size: 1000
          }
          dim {
            size: 5
          }
        }
      }
    }
  }
  attr {
    key: "dtype"
    value {
      type: DT_FLOAT
    }
  }
  attr {
    key: "seed"
    value {
      i: 0
    }
  }
  attr {
    key: "seed2"
    value {
      i: 0
    }
  }
}
node {
  name: "random_normal/mul"
  op: "Mul"
  input: "random_normal/RandomStandardNormal"
  input: "random_normal/stddev"
  attr {
    key: "T"
    value {
      type: DT_FLOAT
    }
  }
  attr {
    key: "_output_shapes"
    value {
      list {
        shape {
          dim {
            size: 1000
          }
          dim {
            size: 5
          }
        }
      }
    }
  }
}
node {
  name: "random_normal"
  op: "Add"
  input: "random_normal/mul"
  input: "random_normal/mean"
  attr {
    key: "T"
    value {
      type: DT_FLOAT
    }
  }
  attr {
    key: "_output_shapes"
    value {
      list {
        shape {
          dim {
            size: 1000
          }
          dim {
            size: 5
          }
        }
      }
    }
  }
}
node {
  name: "sample_scan/TensorArray/size"
  op: "Const"
  attr {
    key: "_output_shapes"
    value {
      list {
        shape {
        }
      }
    }
  }
  attr {
    key: "dtype"
    value {
      type: DT_INT32
    }
  }
  attr {
    key: "value"
    value {
      tensor {
        dtype: DT_INT32
        tensor_shape {
        }
        int_val: 1000
      }
    }
  }
}
node {
  name: "sample_scan/TensorArray"
  op: "TensorArrayV3"
  input: "sample_scan/TensorArray/size"
  attr {
    key: "_output_shapes"
    value {
      list {
        shape {
          dim {
            size: 2
          }
        }
        shape {
        }
      }
    }
  }
  attr {
    key: "clear_after_read"
    value {
      b: true
    }
  }
  attr {
    key: "dtype"
    value {
      type: DT_FLOAT
    }
  }
  attr {
    key: "dynamic_size"
    value {
      b: false
    }
  }
  attr {
    key: "element_shape"
    value {
      shape {
        unknown_rank: true
      }
    }
  }
  attr {
    key: "identical_element_shapes"
    value {
      b: true
    }
  }
  attr {
    key: "tensor_array_name"
    value {
      s: ""
    }
  }
}
node {
  name: "sample_scan/TensorArrayUnstack/Shape"
  op: "Const"
  attr {
    key: "_output_shapes"
    value {
      list {
        shape {
          dim {
            size: 2
          }
        }
      }
    }
  }
  attr {
    key: "dtype"
    value {
      type: DT_INT32
    }
  }
  attr {
    key: "value"
    value {
      tensor {
        dtype: DT_INT32
        tensor_shape {
          dim {
            size: 2
          }
        }
        tensor_content: "\350\003\000\000\005\000\000\000"
      }
    }
  }
}
node {
  name: "sample_scan/TensorArrayUnstack/strided_slice/stack"
  op: "Const"
  attr {
    key: "_output_shapes"
    value {
      list {
        shape {
          dim {
            size: 1
          }
        }
      }
    }
  }
  attr {
    key: "dtype"
    value {
      type: DT_INT32
    }
  }
  attr {
    key: "value"
    value {
      tensor {
        dtype: DT_INT32
        tensor_shape {
          dim {
            size: 1
          }
        }
        int_val: 0
      }
    }
  }
}
node {
  name: "sample_scan/TensorArrayUnstack/strided_slice/stack_1"
  op: "Const"
  attr {
    key: "_output_shapes"
    value {
      list {
        shape {
          dim {
            size: 1
          }
        }
      }
    }
  }
  attr {
    key: "dtype"
    value {
      type: DT_INT32
    }
  }
  attr {
    key: "value"
    value {
      tensor {
        dtype: DT_INT32
        tensor_shape {
          dim {
            size: 1
          }
        }
        int_val: 1
      }
    }
  }
}
node {
  name: "sample_scan/TensorArrayUnstack/strided_slice/stack_2"
  op: "Const"
  attr {
    key: "_output_shapes"
    value {
      list {
        shape {
          dim {
            size: 1
          }
        }
      }
    }
  }
  attr {
    key: "dtype"
    value {
      type: DT_INT32
    }
  }
  attr {
    key: "value"
    value {
      tensor {
        dtype: DT_INT32
        tensor_shape {
          dim {
            size: 1
          }
        }
        int_val: 1
      }
    }
  }
}
node {
  name: "sample_scan/TensorArrayUnstack/strided_slice"
  op: "StridedSlice"
  input: "sample_scan/TensorArrayUnstack/Shape"
  input: "sample_scan/TensorArrayUnstack/strided_slice/stack"
  input: "sample_scan/TensorArrayUnstack/strided_slice/stack_1"
  input: "sample_scan/TensorArrayUnstack/strided_slice/stack_2"
  attr {
    key: "Index"
    value {
      type: DT_INT32
    }
  }
  attr {
    key: "T"
    value {
      type: DT_INT32
    }
  }
  attr {
    key: "_output_shapes"
    value {
      list {
        shape {
        }
      }
    }
  }
  attr {
    key: "begin_mask"
    value {
      i: 0
    }
  }
  attr {
    key: "ellipsis_mask"
    value {
      i: 0
    }
  }
  attr {
    key: "end_mask"
    value {
      i: 0
    }
  }
  attr {
    key: "new_axis_mask"
    value {
      i: 0
    }
  }
  attr {
    key: "shrink_axis_mask"
    value {
      i: 1
    }
  }
}
node {
  name: "sample_scan/TensorArrayUnstack/range/start"
  op: "Const"
  attr {
    key: "_output_shapes"
    value {
      list {
        shape {
        }
      }
    }
  }
  attr {
    key: "dtype"
    value {
      type: DT_INT32
    }
  }
  attr {
    key: "value"
    value {
      tensor {
        dtype: DT_INT32
        tensor_shape {
        }
        int_val: 0
      }
    }
  }
}
node {
  name: "sample_scan/TensorArrayUnstack/range/delta"
  op: "Const"
  attr {
    key: "_output_shapes"
    value {
      list {
        shape {
        }
      }
    }
  }
  attr {
    key: "dtype"
    value {
      type: DT_INT32
    }
  }
  attr {
    key: "value"
    value {
      tensor {
        dtype: DT_INT32
        tensor_shape {
        }
        int_val: 1
      }
    }
  }
}
node {
  name: "sample_scan/TensorArrayUnstack/range"
  op: "Range"
  input: "sample_scan/TensorArrayUnstack/range/start"
  input: "sample_scan/TensorArrayUnstack/strided_slice"
  input: "sample_scan/TensorArrayUnstack/range/delta"
  attr {
    key: "Tidx"
    value {
      type: DT_INT32
    }
  }
  attr {
    key: "_output_shapes"
    value {
      list {
        shape {
          dim {
            size: 1000
          }
        }
      }
    }
  }
}
node {
  name: "sample_scan/TensorArrayUnstack/TensorArrayScatter/TensorArrayScatterV3"
  op: "TensorArrayScatterV3"
  input: "sample_scan/TensorArray"
  input: "sample_scan/TensorArrayUnstack/range"
  input: "random_normal"
  input: "sample_scan/TensorArray:1"
  attr {
    key: "T"
    value {
      type: DT_FLOAT
    }
  }
  attr {
    key: "_class"
    value {
      list {
        s: "loc:@random_normal"
      }
    }
  }
  attr {
    key: "_output_shapes"
    value {
      list {
        shape {
        }
      }
    }
  }
}
node {
  name: "sample_scan/Const"
  op: "Const"
  attr {
    key: "_output_shapes"
    value {
      list {
        shape {
        }
      }
    }
  }
  attr {
    key: "dtype"
    value {
      type: DT_INT32
    }
  }
  attr {
    key: "value"
    value {
      tensor {
        dtype: DT_INT32
        tensor_shape {
        }
        int_val: 0
      }
    }
  }
}
node {
  name: "sample_scan/TensorArray_1/size"
  op: "Const"
  attr {
    key: "_output_shapes"
    value {
      list {
        shape {
        }
      }
    }
  }
  attr {
    key: "dtype"
    value {
      type: DT_INT32
    }
  }
  attr {
    key: "value"
    value {
      tensor {
        dtype: DT_INT32
        tensor_shape {
        }
        int_val: 1000
      }
    }
  }
}
node {
  name: "sample_scan/TensorArray_1"
  op: "TensorArrayV3"
  input: "sample_scan/TensorArray_1/size"
  attr {
    key: "_output_shapes"
    value {
      list {
        shape {
          dim {
            size: 2
          }
        }
        shape {
        }
      }
    }
  }
  attr {
    key: "clear_after_read"
    value {
      b: true
    }
  }
  attr {
    key: "dtype"
    value {
      type: DT_COMPLEX64
    }
  }
  attr {
    key: "dynamic_size"
    value {
      b: false
    }
  }
  attr {
    key: "element_shape"
    value {
      shape {
        dim {
          size: 5
        }
        dim {
          size: 5
        }
      }
    }
  }
  attr {
    key: "identical_element_shapes"
    value {
      b: true
    }
  }
  attr {
    key: "tensor_array_name"
    value {
      s: ""
    }
  }
}
node {
  name: "sample_scan/TensorArray_2/size"
  op: "Const"
  attr {
    key: "_output_shapes"
    value {
      list {
        shape {
        }
      }
    }
  }
  attr {
    key: "dtype"
    value {
      type: DT_INT32
    }
  }
  attr {
    key: "value"
    value {
      tensor {
        dtype: DT_INT32
        tensor_shape {
        }
        int_val: 1000
      }
    }
  }
}
node {
  name: "sample_scan/TensorArray_2"
  op: "TensorArrayV3"
  input: "sample_scan/TensorArray_2/size"
  attr {
    key: "_output_shapes"
    value {
      list {
        shape {
          dim {
            size: 2
          }
        }
        shape {
        }
      }
    }
  }
  attr {
    key: "clear_after_read"
    value {
      b: true
    }
  }
  attr {
    key: "dtype"
    value {
      type: DT_FLOAT
    }
  }
  attr {
    key: "dynamic_size"
    value {
      b: false
    }
  }
  attr {
    key: "element_shape"
    value {
      shape {
        dim {
          size: 5
        }
      }
    }
  }
  attr {
    key: "identical_element_shapes"
    value {
      b: true
    }
  }
  attr {
    key: "tensor_array_name"
    value {
      s: ""
    }
  }
}
node {
  name: "sample_scan/while/maximum_iterations"
  op: "Const"
  attr {
    key: "_output_shapes"
    value {
      list {
        shape {
        }
      }
    }
  }
  attr {
    key: "dtype"
    value {
      type: DT_INT32
    }
  }
  attr {
    key: "value"
    value {
      tensor {
        dtype: DT_INT32
        tensor_shape {
        }
        int_val: 1000
      }
    }
  }
}
node {
  name: "sample_scan/while/iteration_counter"
  op: "Const"
  attr {
    key: "_output_shapes"
    value {
      list {
        shape {
        }
      }
    }
  }
  attr {
    key: "dtype"
    value {
      type: DT_INT32
    }
  }
  attr {
    key: "value"
    value {
      tensor {
        dtype: DT_INT32
        tensor_shape {
        }
        int_val: 0
      }
    }
  }
}
node {
  name: "sample_scan/while/Enter"
  op: "Enter"
  input: "sample_scan/while/iteration_counter"
  attr {
    key: "T"
    value {
      type: DT_INT32
    }
  }
  attr {
    key: "_output_shapes"
    value {
      list {
        shape {
        }
      }
    }
  }
  attr {
    key: "frame_name"
    value {
      s: "sample_scan/while/while_context"
    }
  }
  attr {
    key: "is_constant"
    value {
      b: false
    }
  }
  attr {
    key: "parallel_iterations"
    value {
      i: 10
    }
  }
}
node {
  name: "sample_scan/while/Enter_1"
  op: "Enter"
  input: "sample_scan/Const"
  attr {
    key: "T"
    value {
      type: DT_INT32
    }
  }
  attr {
    key: "_output_shapes"
    value {
      list {
        shape {
        }
      }
    }
  }
  attr {
    key: "frame_name"
    value {
      s: "sample_scan/while/while_context"
    }
  }
  attr {
    key: "is_constant"
    value {
      b: false
    }
  }
  attr {
    key: "parallel_iterations"
    value {
      i: 10
    }
  }
}
node {
  name: "sample_scan/while/Enter_2"
  op: "Enter"
  input: "one_hot"
  attr {
    key: "T"
    value {
      type: DT_COMPLEX64
    }
  }
  attr {
    key: "_output_shapes"
    value {
      list {
        shape {
          dim {
            size: 5
          }
          dim {
            size: 5
          }
        }
      }
    }
  }
  attr {
    key: "frame_name"
    value {
      s: "sample_scan/while/while_context"
    }
  }
  attr {
    key: "is_constant"
    value {
      b: false
    }
  }
  attr {
    key: "parallel_iterations"
    value {
      i: 10
    }
  }
}
node {
  name: "sample_scan/while/Enter_3"
  op: "Enter"
  input: "zeros"
  attr {
    key: "T"
    value {
      type: DT_FLOAT
    }
  }
  attr {
    key: "_output_shapes"
    value {
      list {
        shape {
          dim {
            size: 5
          }
        }
      }
    }
  }
  attr {
    key: "frame_name"
    value {
      s: "sample_scan/while/while_context"
    }
  }
  attr {
    key: "is_constant"
    value {
      b: false
    }
  }
  attr {
    key: "parallel_iterations"
    value {
      i: 10
    }
  }
}
node {
  name: "sample_scan/while/Enter_4"
  op: "Enter"
  input: "sample_scan/TensorArray_1:1"
  attr {
    key: "T"
    value {
      type: DT_FLOAT
    }
  }
  attr {
    key: "_output_shapes"
    value {
      list {
        shape {
        }
      }
    }
  }
  attr {
    key: "frame_name"
    value {
      s: "sample_scan/while/while_context"
    }
  }
  attr {
    key: "is_constant"
    value {
      b: false
    }
  }
  attr {
    key: "parallel_iterations"
    value {
      i: 10
    }
  }
}
node {
  name: "sample_scan/while/Enter_5"
  op: "Enter"
  input: "sample_scan/TensorArray_2:1"
  attr {
    key: "T"
    value {
      type: DT_FLOAT
    }
  }
  attr {
    key: "_output_shapes"
    value {
      list {
        shape {
        }
      }
    }
  }
  attr {
    key: "frame_name"
    value {
      s: "sample_scan/while/while_context"
    }
  }
  attr {
    key: "is_constant"
    value {
      b: false
    }
  }
  attr {
    key: "parallel_iterations"
    value {
      i: 10
    }
  }
}
node {
  name: "sample_scan/while/Merge"
  op: "Merge"
  input: "sample_scan/while/Enter"
  input: "sample_scan/while/NextIteration"
  attr {
    key: "N"
    value {
      i: 2
    }
  }
  attr {
    key: "T"
    value {
      type: DT_INT32
    }
  }
  attr {
    key: "_output_shapes"
    value {
      list {
        shape {
        }
        shape {
        }
      }
    }
  }
}
node {
  name: "sample_scan/while/Merge_1"
  op: "Merge"
  input: "sample_scan/while/Enter_1"
  input: "sample_scan/while/NextIteration_1"
  attr {
    key: "N"
    value {
      i: 2
    }
  }
  attr {
    key: "T"
    value {
      type: DT_INT32
    }
  }
  attr {
    key: "_output_shapes"
    value {
      list {
        shape {
        }
        shape {
        }
      }
    }
  }
}
node {
  name: "sample_scan/while/Merge_2"
  op: "Merge"
  input: "sample_scan/while/Enter_2"
  input: "sample_scan/while/NextIteration_2"
  attr {
    key: "N"
    value {
      i: 2
    }
  }
  attr {
    key: "T"
    value {
      type: DT_COMPLEX64
    }
  }
  attr {
    key: "_output_shapes"
    value {
      list {
        shape {
          dim {
            size: 5
          }
          dim {
            size: 5
          }
        }
        shape {
        }
      }
    }
  }
}
node {
  name: "sample_scan/while/Merge_3"
  op: "Merge"
  input: "sample_scan/while/Enter_3"
  input: "sample_scan/while/NextIteration_3"
  attr {
    key: "N"
    value {
      i: 2
    }
  }
  attr {
    key: "T"
    value {
      type: DT_FLOAT
    }
  }
  attr {
    key: "_output_shapes"
    value {
      list {
        shape {
          dim {
            size: 5
          }
        }
        shape {
        }
      }
    }
  }
}
node {
  name: "sample_scan/while/Merge_4"
  op: "Merge"
  input: "sample_scan/while/Enter_4"
  input: "sample_scan/while/NextIteration_4"
  attr {
    key: "N"
    value {
      i: 2
    }
  }
  attr {
    key: "T"
    value {
      type: DT_FLOAT
    }
  }
  attr {
    key: "_output_shapes"
    value {
      list {
        shape {
        }
        shape {
        }
      }
    }
  }
}
node {
  name: "sample_scan/while/Merge_5"
  op: "Merge"
  input: "sample_scan/while/Enter_5"
  input: "sample_scan/while/NextIteration_5"
  attr {
    key: "N"
    value {
      i: 2
    }
  }
  attr {
    key: "T"
    value {
      type: DT_FLOAT
    }
  }
  attr {
    key: "_output_shapes"
    value {
      list {
        shape {
        }
        shape {
        }
      }
    }
  }
}
node {
  name: "sample_scan/while/Less"
  op: "Less"
  input: "sample_scan/while/Merge"
  input: "sample_scan/while/Less/Enter"
  attr {
    key: "T"
    value {
      type: DT_INT32
    }
  }
  attr {
    key: "_output_shapes"
    value {
      list {
        shape {
        }
      }
    }
  }
}
node {
  name: "sample_scan/while/Less/Enter"
  op: "Enter"
  input: "sample_scan/while/maximum_iterations"
  attr {
    key: "T"
    value {
      type: DT_INT32
    }
  }
  attr {
    key: "_output_shapes"
    value {
      list {
        shape {
        }
      }
    }
  }
  attr {
    key: "frame_name"
    value {
      s: "sample_scan/while/while_context"
    }
  }
  attr {
    key: "is_constant"
    value {
      b: true
    }
  }
  attr {
    key: "parallel_iterations"
    value {
      i: 10
    }
  }
}
node {
  name: "sample_scan/while/Less_1/y"
  op: "Const"
  input: "^sample_scan/while/Merge"
  attr {
    key: "_output_shapes"
    value {
      list {
        shape {
        }
      }
    }
  }
  attr {
    key: "dtype"
    value {
      type: DT_INT32
    }
  }
  attr {
    key: "value"
    value {
      tensor {
        dtype: DT_INT32
        tensor_shape {
        }
        int_val: 1000
      }
    }
  }
}
node {
  name: "sample_scan/while/Less_1"
  op: "Less"
  input: "sample_scan/while/Merge_1"
  input: "sample_scan/while/Less_1/y"
  attr {
    key: "T"
    value {
      type: DT_INT32
    }
  }
  attr {
    key: "_output_shapes"
    value {
      list {
        shape {
        }
      }
    }
  }
}
node {
  name: "sample_scan/while/LogicalAnd"
  op: "LogicalAnd"
  input: "sample_scan/while/Less"
  input: "sample_scan/while/Less_1"
  attr {
    key: "_output_shapes"
    value {
      list {
        shape {
        }
      }
    }
  }
}
node {
  name: "sample_scan/while/LoopCond"
  op: "LoopCond"
  input: "sample_scan/while/LogicalAnd"
  attr {
    key: "_output_shapes"
    value {
      list {
        shape {
        }
      }
    }
  }
}
node {
  name: "sample_scan/while/Switch"
  op: "Switch"
  input: "sample_scan/while/Merge"
  input: "sample_scan/while/LoopCond"
  attr {
    key: "T"
    value {
      type: DT_INT32
    }
  }
  attr {
    key: "_class"
    value {
      list {
        s: "loc:@sample_scan/while/Merge"
      }
    }
  }
  attr {
    key: "_output_shapes"
    value {
      list {
        shape {
        }
        shape {
        }
      }
    }
  }
}
node {
  name: "sample_scan/while/Switch_1"
  op: "Switch"
  input: "sample_scan/while/Merge_1"
  input: "sample_scan/while/LoopCond"
  attr {
    key: "T"
    value {
      type: DT_INT32
    }
  }
  attr {
    key: "_class"
    value {
      list {
        s: "loc:@sample_scan/while/Merge_1"
      }
    }
  }
  attr {
    key: "_output_shapes"
    value {
      list {
        shape {
        }
        shape {
        }
      }
    }
  }
}
node {
  name: "sample_scan/while/Switch_2"
  op: "Switch"
  input: "sample_scan/while/Merge_2"
  input: "sample_scan/while/LoopCond"
  attr {
    key: "T"
    value {
      type: DT_COMPLEX64
    }
  }
  attr {
    key: "_class"
    value {
      list {
        s: "loc:@sample_scan/while/Merge_2"
      }
    }
  }
  attr {
    key: "_output_shapes"
    value {
      list {
        shape {
          dim {
            size: 5
          }
          dim {
            size: 5
          }
        }
        shape {
          dim {
            size: 5
          }
          dim {
            size: 5
          }
        }
      }
    }
  }
}
node {
  name: "sample_scan/while/Switch_3"
  op: "Switch"
  input: "sample_scan/while/Merge_3"
  input: "sample_scan/while/LoopCond"
  attr {
    key: "T"
    value {
      type: DT_FLOAT
    }
  }
  attr {
    key: "_class"
    value {
      list {
        s: "loc:@sample_scan/while/Merge_3"
      }
    }
  }
  attr {
    key: "_output_shapes"
    value {
      list {
        shape {
          dim {
            size: 5
          }
        }
        shape {
          dim {
            size: 5
          }
        }
      }
    }
  }
}
node {
  name: "sample_scan/while/Switch_4"
  op: "Switch"
  input: "sample_scan/while/Merge_4"
  input: "sample_scan/while/LoopCond"
  attr {
    key: "T"
    value {
      type: DT_FLOAT
    }
  }
  attr {
    key: "_class"
    value {
      list {
        s: "loc:@sample_scan/while/Merge_4"
      }
    }
  }
  attr {
    key: "_output_shapes"
    value {
      list {
        shape {
        }
        shape {
        }
      }
    }
  }
}
node {
  name: "sample_scan/while/Switch_5"
  op: "Switch"
  input: "sample_scan/while/Merge_5"
  input: "sample_scan/while/LoopCond"
  attr {
    key: "T"
    value {
      type: DT_FLOAT
    }
  }
  attr {
    key: "_class"
    value {
      list {
        s: "loc:@sample_scan/while/Merge_5"
      }
    }
  }
  attr {
    key: "_output_shapes"
    value {
      list {
        shape {
        }
        shape {
        }
      }
    }
  }
}
node {
  name: "sample_scan/while/Identity"
  op: "Identity"
  input: "sample_scan/while/Switch:1"
  attr {
    key: "T"
    value {
      type: DT_INT32
    }
  }
  attr {
    key: "_output_shapes"
    value {
      list {
        shape {
        }
      }
    }
  }
}
node {
  name: "sample_scan/while/Identity_1"
  op: "Identity"
  input: "sample_scan/while/Switch_1:1"
  attr {
    key: "T"
    value {
      type: DT_INT32
    }
  }
  attr {
    key: "_output_shapes"
    value {
      list {
        shape {
        }
      }
    }
  }
}
node {
  name: "sample_scan/while/Identity_2"
  op: "Identity"
  input: "sample_scan/while/Switch_2:1"
  attr {
    key: "T"
    value {
      type: DT_COMPLEX64
    }
  }
  attr {
    key: "_output_shapes"
    value {
      list {
        shape {
          dim {
            size: 5
          }
          dim {
            size: 5
          }
        }
      }
    }
  }
}
node {
  name: "sample_scan/while/Identity_3"
  op: "Identity"
  input: "sample_scan/while/Switch_3:1"
  attr {
    key: "T"
    value {
      type: DT_FLOAT
    }
  }
  attr {
    key: "_output_shapes"
    value {
      list {
        shape {
          dim {
            size: 5
          }
        }
      }
    }
  }
}
node {
  name: "sample_scan/while/Identity_4"
  op: "Identity"
  input: "sample_scan/while/Switch_4:1"
  attr {
    key: "T"
    value {
      type: DT_FLOAT
    }
  }
  attr {
    key: "_output_shapes"
    value {
      list {
        shape {
        }
      }
    }
  }
}
node {
  name: "sample_scan/while/Identity_5"
  op: "Identity"
  input: "sample_scan/while/Switch_5:1"
  attr {
    key: "T"
    value {
      type: DT_FLOAT
    }
  }
  attr {
    key: "_output_shapes"
    value {
      list {
        shape {
        }
      }
    }
  }
}
node {
  name: "sample_scan/while/add/y"
  op: "Const"
  input: "^sample_scan/while/Identity"
  attr {
    key: "_output_shapes"
    value {
      list {
        shape {
        }
      }
    }
  }
  attr {
    key: "dtype"
    value {
      type: DT_INT32
    }
  }
  attr {
    key: "value"
    value {
      tensor {
        dtype: DT_INT32
        tensor_shape {
        }
        int_val: 1
      }
    }
  }
}
node {
  name: "sample_scan/while/add"
  op: "Add"
  input: "sample_scan/while/Identity"
  input: "sample_scan/while/add/y"
  attr {
    key: "T"
    value {
      type: DT_INT32
    }
  }
  attr {
    key: "_output_shapes"
    value {
      list {
        shape {
        }
      }
    }
  }
}
node {
  name: "sample_scan/while/TensorArrayReadV3"
  op: "TensorArrayReadV3"
  input: "sample_scan/while/TensorArrayReadV3/Enter"
  input: "sample_scan/while/Identity_1"
  input: "sample_scan/while/TensorArrayReadV3/Enter_1"
  attr {
    key: "_output_shapes"
    value {
      list {
        shape {
          dim {
            size: 5
          }
        }
      }
    }
  }
  attr {
    key: "dtype"
    value {
      type: DT_FLOAT
    }
  }
}
node {
  name: "sample_scan/while/TensorArrayReadV3/Enter"
  op: "Enter"
  input: "sample_scan/TensorArray"
  attr {
    key: "T"
    value {
      type: DT_RESOURCE
    }
  }
  attr {
    key: "_output_shapes"
    value {
      list {
        shape {
          dim {
            size: 2
          }
        }
      }
    }
  }
  attr {
    key: "frame_name"
    value {
      s: "sample_scan/while/while_context"
    }
  }
  attr {
    key: "is_constant"
    value {
      b: true
    }
  }
  attr {
    key: "parallel_iterations"
    value {
      i: 10
    }
  }
}
node {
  name: "sample_scan/while/TensorArrayReadV3/Enter_1"
  op: "Enter"
  input: "sample_scan/TensorArrayUnstack/TensorArrayScatter/TensorArrayScatterV3"
  attr {
    key: "T"
    value {
      type: DT_FLOAT
    }
  }
  attr {
    key: "_output_shapes"
    value {
      list {
        shape {
        }
      }
    }
  }
  attr {
    key: "frame_name"
    value {
      s: "sample_scan/while/while_context"
    }
  }
  attr {
    key: "is_constant"
    value {
      b: true
    }
  }
  attr {
    key: "parallel_iterations"
    value {
      i: 10
    }
  }
}
node {
  name: "sample_scan/while/update_ancilla/Cast"
  op: "Cast"
  input: "sample_scan/while/TensorArrayReadV3"
  attr {
    key: "DstT"
    value {
      type: DT_COMPLEX64
    }
  }
  attr {
    key: "SrcT"
    value {
      type: DT_FLOAT
    }
  }
  attr {
    key: "_output_shapes"
    value {
      list {
        shape {
          dim {
            size: 5
          }
        }
      }
    }
  }
}
node {
  name: "sample_scan/while/update_ancilla/Cast_1"
  op: "Cast"
  input: "sample_scan/while/update_ancilla/Cast_1/Enter"
  input: "^sample_scan/while/Identity"
  attr {
    key: "DstT"
    value {
      type: DT_COMPLEX64
    }
  }
  attr {
    key: "SrcT"
    value {
      type: DT_FLOAT
    }
  }
  attr {
    key: "_output_shapes"
    value {
      list {
        shape {
          dim {
            size: 5
          }
          dim {
            size: 5
          }
        }
      }
    }
  }
}
node {
  name: "sample_scan/while/update_ancilla/Cast_1/Enter"
  op: "Enter"
  input: "sine_model/symmetrize/add"
  attr {
    key: "T"
    value {
      type: DT_FLOAT
    }
  }
  attr {
    key: "_output_shapes"
    value {
      list {
        shape {
          dim {
            size: 5
          }
          dim {
            size: 5
          }
        }
      }
    }
  }
  attr {
    key: "frame_name"
    value {
      s: "sample_scan/while/while_context"
    }
  }
  attr {
    key: "is_constant"
    value {
      b: true
    }
  }
  attr {
    key: "parallel_iterations"
    value {
      i: 10
    }
  }
}
node {
  name: "sample_scan/while/update_ancilla/Cast_2"
  op: "Cast"
  input: "sample_scan/while/update_ancilla/Cast_2/Enter"
  input: "^sample_scan/while/Identity"
  attr {
    key: "DstT"
    value {
      type: DT_COMPLEX64
    }
  }
  attr {
    key: "SrcT"
    value {
      type: DT_FLOAT
    }
  }
  attr {
    key: "_output_shapes"
    value {
      list {
        shape {
          dim {
            size: 5
          }
          dim {
            size: 5
          }
        }
      }
    }
  }
}
node {
  name: "sample_scan/while/update_ancilla/Cast_2/Enter"
  op: "Enter"
  input: "sine_model/R/read"
  attr {
    key: "T"
    value {
      type: DT_FLOAT
    }
  }
  attr {
    key: "_output_shapes"
    value {
      list {
        shape {
          dim {
            size: 5
          }
          dim {
            size: 5
          }
        }
      }
    }
  }
  attr {
    key: "frame_name"
    value {
      s: "sample_scan/while/while_context"
    }
  }
  attr {
    key: "is_constant"
    value {
      b: true
    }
  }
  attr {
    key: "parallel_iterations"
    value {
      i: 10
    }
  }
}
node {
  name: "sample_scan/while/update_ancilla/mul/x"
  op: "Const"
  input: "^sample_scan/while/Identity"
  attr {
    key: "_output_shapes"
    value {
      list {
        shape {
        }
      }
    }
  }
  attr {
    key: "dtype"
    value {
      type: DT_COMPLEX64
    }
  }
  attr {
    key: "value"
    value {
      tensor {
        dtype: DT_COMPLEX64
        tensor_shape {
        }
        scomplex_val: -0.0
        scomplex_val: -1.0
      }
    }
  }
}
node {
  name: "sample_scan/while/update_ancilla/mul"
  op: "Mul"
  input: "sample_scan/while/update_ancilla/mul/x"
  input: "sample_scan/while/update_ancilla/Cast_1"
  attr {
    key: "T"
    value {
      type: DT_COMPLEX64
    }
  }
  attr {
    key: "_output_shapes"
    value {
      list {
        shape {
          dim {
            size: 5
          }
          dim {
            size: 5
          }
        }
      }
    }
  }
}
node {
  name: "sample_scan/while/update_ancilla/MatMul"
  op: "MatMul"
  input: "sample_scan/while/update_ancilla/Cast_2"
  input: "sample_scan/while/update_ancilla/Cast_2"
  attr {
    key: "T"
    value {
      type: DT_COMPLEX64
    }
  }
  attr {
    key: "_output_shapes"
    value {
      list {
        shape {
          dim {
            size: 5
          }
          dim {
            size: 5
          }
        }
      }
    }
  }
  attr {
    key: "transpose_a"
    value {
      b: true
    }
  }
  attr {
    key: "transpose_b"
    value {
      b: false
    }
  }
}
node {
  name: "sample_scan/while/update_ancilla/truediv/y"
  op: "Const"
  input: "^sample_scan/while/Identity"
  attr {
    key: "_output_shapes"
    value {
      list {
        shape {
        }
      }
    }
  }
  attr {
    key: "dtype"
    value {
      type: DT_COMPLEX64
    }
  }
  attr {
    key: "value"
    value {
      tensor {
        dtype: DT_COMPLEX64
        tensor_shape {
        }
        scomplex_val: 2.0
        scomplex_val: 0.0
      }
    }
  }
}
node {
  name: "sample_scan/while/update_ancilla/truediv"
  op: "RealDiv"
  input: "sample_scan/while/update_ancilla/MatMul"
  input: "sample_scan/while/update_ancilla/truediv/y"
  attr {
    key: "T"
    value {
      type: DT_COMPLEX64
    }
  }
  attr {
    key: "_output_shapes"
    value {
      list {
        shape {
          dim {
            size: 5
          }
          dim {
            size: 5
          }
        }
      }
    }
  }
}
node {
  name: "sample_scan/while/update_ancilla/sub"
  op: "Sub"
  input: "sample_scan/while/update_ancilla/mul"
  input: "sample_scan/while/update_ancilla/truediv"
  attr {
    key: "T"
    value {
      type: DT_COMPLEX64
    }
  }
  attr {
    key: "_output_shapes"
    value {
      list {
        shape {
          dim {
            size: 5
          }
          dim {
            size: 5
          }
        }
      }
    }
  }
}
node {
  name: "sample_scan/while/update_ancilla/mul_1/x"
  op: "Const"
  input: "^sample_scan/while/Identity"
  attr {
    key: "_output_shapes"
    value {
      list {
        shape {
        }
      }
    }
  }
  attr {
    key: "dtype"
    value {
      type: DT_COMPLEX64
    }
  }
  attr {
    key: "value"
    value {
      tensor {
        dtype: DT_COMPLEX64
        tensor_shape {
        }
        scomplex_val: 0.009999999776482582
        scomplex_val: 0.0
      }
    }
  }
}
node {
  name: "sample_scan/while/update_ancilla/mul_1"
  op: "Mul"
  input: "sample_scan/while/update_ancilla/mul_1/x"
  input: "sample_scan/while/update_ancilla/sub"
  attr {
    key: "T"
    value {
      type: DT_COMPLEX64
    }
  }
  attr {
    key: "_output_shapes"
    value {
      list {
        shape {
          dim {
            size: 5
          }
          dim {
            size: 5
          }
        }
      }
    }
  }
}
node {
  name: "sample_scan/while/update_ancilla/einsum/transpose/perm"
  op: "Const"
  input: "^sample_scan/while/Identity"
  attr {
    key: "_output_shapes"
    value {
      list {
        shape {
          dim {
            size: 2
          }
        }
      }
    }
  }
  attr {
    key: "dtype"
    value {
      type: DT_INT32
    }
  }
  attr {
    key: "value"
    value {
      tensor {
        dtype: DT_INT32
        tensor_shape {
          dim {
            size: 2
          }
        }
        tensor_content: "\000\000\000\000\001\000\000\000"
      }
    }
  }
}
node {
  name: "sample_scan/while/update_ancilla/einsum/transpose"
  op: "Transpose"
  input: "sample_scan/while/update_ancilla/mul_1"
  input: "sample_scan/while/update_ancilla/einsum/transpose/perm"
  attr {
    key: "T"
    value {
      type: DT_COMPLEX64
    }
  }
  attr {
    key: "Tperm"
    value {
      type: DT_INT32
    }
  }
  attr {
    key: "_output_shapes"
    value {
      list {
        shape {
          dim {
            size: 5
          }
          dim {
            size: 5
          }
        }
      }
    }
  }
}
node {
  name: "sample_scan/while/update_ancilla/einsum/transpose_1/perm"
  op: "Const"
  input: "^sample_scan/while/Identity"
  attr {
    key: "_output_shapes"
    value {
      list {
        shape {
          dim {
            size: 2
          }
        }
      }
    }
  }
  attr {
    key: "dtype"
    value {
      type: DT_INT32
    }
  }
  attr {
    key: "value"
    value {
      tensor {
        dtype: DT_INT32
        tensor_shape {
          dim {
            size: 2
          }
        }
        tensor_content: "\001\000\000\000\000\000\000\000"
      }
    }
  }
}
node {
  name: "sample_scan/while/update_ancilla/einsum/transpose_1"
  op: "Transpose"
  input: "sample_scan/while/Identity_2"
  input: "sample_scan/while/update_ancilla/einsum/transpose_1/perm"
  attr {
    key: "T"
    value {
      type: DT_COMPLEX64
    }
  }
  attr {
    key: "Tperm"
    value {
      type: DT_INT32
    }
  }
  attr {
    key: "_output_shapes"
    value {
      list {
        shape {
          dim {
            size: 5
          }
          dim {
            size: 5
          }
        }
      }
    }
  }
}
node {
  name: "sample_scan/while/update_ancilla/einsum/MatMul"
  op: "MatMul"
  input: "sample_scan/while/update_ancilla/einsum/transpose"
  input: "sample_scan/while/update_ancilla/einsum/transpose_1"
  attr {
    key: "T"
    value {
      type: DT_COMPLEX64
    }
  }
  attr {
    key: "_output_shapes"
    value {
      list {
        shape {
          dim {
            size: 5
          }
          dim {
            size: 5
          }
        }
      }
    }
  }
  attr {
    key: "transpose_a"
    value {
      b: false
    }
  }
  attr {
    key: "transpose_b"
    value {
      b: false
    }
  }
}
node {
  name: "sample_scan/while/update_ancilla/einsum/transpose_2/perm"
  op: "Const"
  input: "^sample_scan/while/Identity"
  attr {
    key: "_output_shapes"
    value {
      list {
        shape {
          dim {
            size: 2
          }
        }
      }
    }
  }
  attr {
    key: "dtype"
    value {
      type: DT_INT32
    }
  }
  attr {
    key: "value"
    value {
      tensor {
        dtype: DT_INT32
        tensor_shape {
          dim {
            size: 2
          }
        }
        tensor_content: "\001\000\000\000\000\000\000\000"
      }
    }
  }
}
node {
  name: "sample_scan/while/update_ancilla/einsum/transpose_2"
  op: "Transpose"
  input: "sample_scan/while/update_ancilla/einsum/MatMul"
  input: "sample_scan/while/update_ancilla/einsum/transpose_2/perm"
  attr {
    key: "T"
    value {
      type: DT_COMPLEX64
    }
  }
  attr {
    key: "Tperm"
    value {
      type: DT_INT32
    }
  }
  attr {
    key: "_output_shapes"
    value {
      list {
        shape {
          dim {
            size: 5
          }
          dim {
            size: 5
          }
        }
      }
    }
  }
}
node {
  name: "sample_scan/while/update_ancilla/add"
  op: "Add"
  input: "sample_scan/while/Identity_2"
  input: "sample_scan/while/update_ancilla/einsum/transpose_2"
  attr {
    key: "T"
    value {
      type: DT_COMPLEX64
    }
  }
  attr {
    key: "_output_shapes"
    value {
      list {
        shape {
          dim {
            size: 5
          }
          dim {
            size: 5
          }
        }
      }
    }
  }
}
node {
  name: "sample_scan/while/update_ancilla/einsum_1/transpose/perm"
  op: "Const"
  input: "^sample_scan/while/Identity"
  attr {
    key: "_output_shapes"
    value {
      list {
        shape {
          dim {
            size: 1
          }
        }
      }
    }
  }
  attr {
    key: "dtype"
    value {
      type: DT_INT32
    }
  }
  attr {
    key: "value"
    value {
      tensor {
        dtype: DT_INT32
        tensor_shape {
          dim {
            size: 1
          }
        }
        int_val: 0
      }
    }
  }
}
node {
  name: "sample_scan/while/update_ancilla/einsum_1/transpose"
  op: "Transpose"
  input: "sample_scan/while/update_ancilla/Cast"
  input: "sample_scan/while/update_ancilla/einsum_1/transpose/perm"
  attr {
    key: "T"
    value {
      type: DT_COMPLEX64
    }
  }
  attr {
    key: "Tperm"
    value {
      type: DT_INT32
    }
  }
  attr {
    key: "_output_shapes"
    value {
      list {
        shape {
          dim {
            size: 5
          }
        }
      }
    }
  }
}
node {
  name: "sample_scan/while/update_ancilla/einsum_1/transpose_1/perm"
  op: "Const"
  input: "^sample_scan/while/Identity"
  attr {
    key: "_output_shapes"
    value {
      list {
        shape {
          dim {
            size: 2
          }
        }
      }
    }
  }
  attr {
    key: "dtype"
    value {
      type: DT_INT32
    }
  }
  attr {
    key: "value"
    value {
      tensor {
        dtype: DT_INT32
        tensor_shape {
          dim {
            size: 2
          }
        }
        tensor_content: "\000\000\000\000\001\000\000\000"
      }
    }
  }
}
node {
  name: "sample_scan/while/update_ancilla/einsum_1/transpose_1"
  op: "Transpose"
  input: "sample_scan/while/update_ancilla/Cast_2"
  input: "sample_scan/while/update_ancilla/einsum_1/transpose_1/perm"
  attr {
    key: "T"
    value {
      type: DT_COMPLEX64
    }
  }
  attr {
    key: "Tperm"
    value {
      type: DT_INT32
    }
  }
  attr {
    key: "_output_shapes"
    value {
      list {
        shape {
          dim {
            size: 5
          }
          dim {
            size: 5
          }
        }
      }
    }
  }
}
node {
  name: "sample_scan/while/update_ancilla/einsum_1/ExpandDims/dim"
  op: "Const"
  input: "^sample_scan/while/Identity"
  attr {
    key: "_output_shapes"
    value {
      list {
        shape {
        }
      }
    }
  }
  attr {
    key: "dtype"
    value {
      type: DT_INT32
    }
  }
  attr {
    key: "value"
    value {
      tensor {
        dtype: DT_INT32
        tensor_shape {
        }
        int_val: -1
      }
    }
  }
}
node {
  name: "sample_scan/while/update_ancilla/einsum_1/ExpandDims"
  op: "ExpandDims"
  input: "sample_scan/while/update_ancilla/einsum_1/transpose"
  input: "sample_scan/while/update_ancilla/einsum_1/ExpandDims/dim"
  attr {
    key: "T"
    value {
      type: DT_COMPLEX64
    }
  }
  attr {
    key: "Tdim"
    value {
      type: DT_INT32
    }
  }
  attr {
    key: "_output_shapes"
    value {
      list {
        shape {
          dim {
            size: 5
          }
          dim {
            size: 1
          }
        }
      }
    }
  }
}
node {
  name: "sample_scan/while/update_ancilla/einsum_1/ExpandDims_1/dim"
  op: "Const"
  input: "^sample_scan/while/Identity"
  attr {
    key: "_output_shapes"
    value {
      list {
        shape {
        }
      }
    }
  }
  attr {
    key: "dtype"
    value {
      type: DT_INT32
    }
  }
  attr {
    key: "value"
    value {
      tensor {
        dtype: DT_INT32
        tensor_shape {
        }
        int_val: -1
      }
    }
  }
}
node {
  name: "sample_scan/while/update_ancilla/einsum_1/ExpandDims_1"
  op: "ExpandDims"
  input: "sample_scan/while/update_ancilla/einsum_1/ExpandDims"
  input: "sample_scan/while/update_ancilla/einsum_1/ExpandDims_1/dim"
  attr {
    key: "T"
    value {
      type: DT_COMPLEX64
    }
  }
  attr {
    key: "Tdim"
    value {
      type: DT_INT32
    }
  }
  attr {
    key: "_output_shapes"
    value {
      list {
        shape {
          dim {
            size: 5
          }
          dim {
            size: 1
          }
          dim {
            size: 1
          }
        }
      }
    }
  }
}
node {
  name: "sample_scan/while/update_ancilla/einsum_1/ExpandDims_2/dim"
  op: "Const"
  input: "^sample_scan/while/Identity"
  attr {
    key: "_output_shapes"
    value {
      list {
        shape {
        }
      }
    }
  }
  attr {
    key: "dtype"
    value {
      type: DT_INT32
    }
  }
  attr {
    key: "value"
    value {
      tensor {
        dtype: DT_INT32
        tensor_shape {
        }
        int_val: 0
      }
    }
  }
}
node {
  name: "sample_scan/while/update_ancilla/einsum_1/ExpandDims_2"
  op: "ExpandDims"
  input: "sample_scan/while/update_ancilla/einsum_1/transpose_1"
  input: "sample_scan/while/update_ancilla/einsum_1/ExpandDims_2/dim"
  attr {
    key: "T"
    value {
      type: DT_COMPLEX64
    }
  }
  attr {
    key: "Tdim"
    value {
      type: DT_INT32
    }
  }
  attr {
    key: "_output_shapes"
    value {
      list {
        shape {
          dim {
            size: 1
          }
          dim {
            size: 5
          }
          dim {
            size: 5
          }
        }
      }
    }
  }
}
node {
  name: "sample_scan/while/update_ancilla/einsum_1/Mul"
  op: "Mul"
  input: "sample_scan/while/update_ancilla/einsum_1/ExpandDims_1"
  input: "sample_scan/while/update_ancilla/einsum_1/ExpandDims_2"
  attr {
    key: "T"
    value {
      type: DT_COMPLEX64
    }
  }
  attr {
    key: "_output_shapes"
    value {
      list {
        shape {
          dim {
            size: 5
          }
          dim {
            size: 5
          }
          dim {
            size: 5
          }
        }
      }
    }
  }
}
node {
  name: "sample_scan/while/update_ancilla/einsum_1/transpose_2/perm"
  op: "Const"
  input: "^sample_scan/while/Identity"
  attr {
    key: "_output_shapes"
    value {
      list {
        shape {
          dim {
            size: 3
          }
        }
      }
    }
  }
  attr {
    key: "dtype"
    value {
      type: DT_INT32
    }
  }
  attr {
    key: "value"
    value {
      tensor {
        dtype: DT_INT32
        tensor_shape {
          dim {
            size: 3
          }
        }
        tensor_content: "\000\000\000\000\001\000\000\000\002\000\000\000"
      }
    }
  }
}
node {
  name: "sample_scan/while/update_ancilla/einsum_1/transpose_2"
  op: "Transpose"
  input: "sample_scan/while/update_ancilla/einsum_1/Mul"
  input: "sample_scan/while/update_ancilla/einsum_1/transpose_2/perm"
  attr {
    key: "T"
    value {
      type: DT_COMPLEX64
    }
  }
  attr {
    key: "Tperm"
    value {
      type: DT_INT32
    }
  }
  attr {
    key: "_output_shapes"
    value {
      list {
        shape {
          dim {
            size: 5
          }
          dim {
            size: 5
          }
          dim {
            size: 5
          }
        }
      }
    }
  }
}
node {
  name: "sample_scan/while/update_ancilla/einsum_1/transpose_3/perm"
  op: "Const"
  input: "^sample_scan/while/Identity"
  attr {
    key: "_output_shapes"
    value {
      list {
        shape {
          dim {
            size: 2
          }
        }
      }
    }
  }
  attr {
    key: "dtype"
    value {
      type: DT_INT32
    }
  }
  attr {
    key: "value"
    value {
      tensor {
        dtype: DT_INT32
        tensor_shape {
          dim {
            size: 2
          }
        }
        tensor_content: "\000\000\000\000\001\000\000\000"
      }
    }
  }
}
node {
  name: "sample_scan/while/update_ancilla/einsum_1/transpose_3"
  op: "Transpose"
  input: "sample_scan/while/Identity_2"
  input: "sample_scan/while/update_ancilla/einsum_1/transpose_3/perm"
  attr {
    key: "T"
    value {
      type: DT_COMPLEX64
    }
  }
  attr {
    key: "Tperm"
    value {
      type: DT_INT32
    }
  }
  attr {
    key: "_output_shapes"
    value {
      list {
        shape {
          dim {
            size: 5
          }
          dim {
            size: 5
          }
        }
      }
    }
  }
}
node {
  name: "sample_scan/while/update_ancilla/einsum_1/Reshape/shape"
  op: "Const"
  input: "^sample_scan/while/Identity"
  attr {
    key: "_output_shapes"
    value {
      list {
        shape {
          dim {
            size: 3
          }
        }
      }
    }
  }
  attr {
    key: "dtype"
    value {
      type: DT_INT32
    }
  }
  attr {
    key: "value"
    value {
      tensor {
        dtype: DT_INT32
        tensor_shape {
          dim {
            size: 3
          }
        }
        tensor_content: "\005\000\000\000\005\000\000\000\001\000\000\000"
      }
    }
  }
}
node {
  name: "sample_scan/while/update_ancilla/einsum_1/Reshape"
  op: "Reshape"
  input: "sample_scan/while/update_ancilla/einsum_1/transpose_3"
  input: "sample_scan/while/update_ancilla/einsum_1/Reshape/shape"
  attr {
    key: "T"
    value {
      type: DT_COMPLEX64
    }
  }
  attr {
    key: "Tshape"
    value {
      type: DT_INT32
    }
  }
  attr {
    key: "_output_shapes"
    value {
      list {
        shape {
          dim {
            size: 5
          }
          dim {
            size: 5
          }
          dim {
            size: 1
          }
        }
      }
    }
  }
}
node {
  name: "sample_scan/while/update_ancilla/einsum_1/MatMul"
  op: "BatchMatMul"
  input: "sample_scan/while/update_ancilla/einsum_1/transpose_2"
  input: "sample_scan/while/update_ancilla/einsum_1/Reshape"
  attr {
    key: "T"
    value {
      type: DT_COMPLEX64
    }
  }
  attr {
    key: "_output_shapes"
    value {
      list {
        shape {
          dim {
            size: 5
          }
          dim {
            size: 5
          }
          dim {
            size: 1
          }
        }
      }
    }
  }
  attr {
    key: "adj_x"
    value {
      b: false
    }
  }
  attr {
    key: "adj_y"
    value {
      b: false
    }
  }
}
node {
  name: "sample_scan/while/update_ancilla/einsum_1/Reshape_1/shape"
  op: "Const"
  input: "^sample_scan/while/Identity"
  attr {
    key: "_output_shapes"
    value {
      list {
        shape {
          dim {
            size: 2
          }
        }
      }
    }
  }
  attr {
    key: "dtype"
    value {
      type: DT_INT32
    }
  }
  attr {
    key: "value"
    value {
      tensor {
        dtype: DT_INT32
        tensor_shape {
          dim {
            size: 2
          }
        }
        tensor_content: "\005\000\000\000\005\000\000\000"
      }
    }
  }
}
node {
  name: "sample_scan/while/update_ancilla/einsum_1/Reshape_1"
  op: "Reshape"
  input: "sample_scan/while/update_ancilla/einsum_1/MatMul"
  input: "sample_scan/while/update_ancilla/einsum_1/Reshape_1/shape"
  attr {
    key: "T"
    value {
      type: DT_COMPLEX64
    }
  }
  attr {
    key: "Tshape"
    value {
      type: DT_INT32
    }
  }
  attr {
    key: "_output_shapes"
    value {
      list {
        shape {
          dim {
            size: 5
          }
          dim {
            size: 5
          }
        }
      }
    }
  }
}
node {
  name: "sample_scan/while/update_ancilla/einsum_1/transpose_4/perm"
  op: "Const"
  input: "^sample_scan/while/Identity"
  attr {
    key: "_output_shapes"
    value {
      list {
        shape {
          dim {
            size: 2
          }
        }
      }
    }
  }
  attr {
    key: "dtype"
    value {
      type: DT_INT32
    }
  }
  attr {
    key: "value"
    value {
      tensor {
        dtype: DT_INT32
        tensor_shape {
          dim {
            size: 2
          }
        }
        tensor_content: "\000\000\000\000\001\000\000\000"
      }
    }
  }
}
node {
  name: "sample_scan/while/update_ancilla/einsum_1/transpose_4"
  op: "Transpose"
  input: "sample_scan/while/update_ancilla/einsum_1/Reshape_1"
  input: "sample_scan/while/update_ancilla/einsum_1/transpose_4/perm"
  attr {
    key: "T"
    value {
      type: DT_COMPLEX64
    }
  }
  attr {
    key: "Tperm"
    value {
      type: DT_INT32
    }
  }
  attr {
    key: "_output_shapes"
    value {
      list {
        shape {
          dim {
            size: 5
          }
          dim {
            size: 5
          }
        }
      }
    }
  }
}
node {
  name: "sample_scan/while/update_ancilla/mul_2/x"
  op: "Const"
  input: "^sample_scan/while/Identity"
  attr {
    key: "_output_shapes"
    value {
      list {
        shape {
        }
      }
    }
  }
  attr {
    key: "dtype"
    value {
      type: DT_COMPLEX64
    }
  }
  attr {
    key: "value"
    value {
      tensor {
        dtype: DT_COMPLEX64
        tensor_shape {
        }
        scomplex_val: 0.009999999776482582
        scomplex_val: 0.0
      }
    }
  }
}
node {
  name: "sample_scan/while/update_ancilla/mul_2"
  op: "Mul"
  input: "sample_scan/while/update_ancilla/mul_2/x"
  input: "sample_scan/while/update_ancilla/einsum_1/transpose_4"
  attr {
    key: "T"
    value {
      type: DT_COMPLEX64
    }
  }
  attr {
    key: "_output_shapes"
    value {
      list {
        shape {
          dim {
            size: 5
          }
          dim {
            size: 5
          }
        }
      }
    }
  }
}
node {
  name: "sample_scan/while/update_ancilla/add_1"
  op: "Add"
  input: "sample_scan/while/update_ancilla/add"
  input: "sample_scan/while/update_ancilla/mul_2"
  attr {
    key: "T"
    value {
      type: DT_COMPLEX64
    }
  }
  attr {
    key: "_output_shapes"
    value {
      list {
        shape {
          dim {
            size: 5
          }
          dim {
            size: 5
          }
        }
      }
    }
  }
}
node {
  name: "sample_scan/while/update_ancilla/normalize/Abs"
  op: "ComplexAbs"
  input: "sample_scan/while/update_ancilla/add_1"
  attr {
    key: "T"
    value {
      type: DT_COMPLEX64
    }
  }
  attr {
    key: "Tout"
    value {
      type: DT_FLOAT
    }
  }
  attr {
    key: "_output_shapes"
    value {
      list {
        shape {
          dim {
            size: 5
          }
          dim {
            size: 5
          }
        }
      }
    }
  }
}
node {
  name: "sample_scan/while/update_ancilla/normalize/Square"
  op: "Square"
  input: "sample_scan/while/update_ancilla/normalize/Abs"
  attr {
    key: "T"
    value {
      type: DT_FLOAT
    }
  }
  attr {
    key: "_output_shapes"
    value {
      list {
        shape {
          dim {
            size: 5
          }
          dim {
            size: 5
          }
        }
      }
    }
  }
}
node {
  name: "sample_scan/while/update_ancilla/normalize/Sum/reduction_indices"
  op: "Const"
  input: "^sample_scan/while/Identity"
  attr {
    key: "_output_shapes"
    value {
      list {
        shape {
        }
      }
    }
  }
  attr {
    key: "dtype"
    value {
      type: DT_INT32
    }
  }
  attr {
    key: "value"
    value {
      tensor {
        dtype: DT_INT32
        tensor_shape {
        }
        int_val: 1
      }
    }
  }
}
node {
  name: "sample_scan/while/update_ancilla/normalize/Sum"
  op: "Sum"
  input: "sample_scan/while/update_ancilla/normalize/Square"
  input: "sample_scan/while/update_ancilla/normalize/Sum/reduction_indices"
  attr {
    key: "T"
    value {
      type: DT_FLOAT
    }
  }
  attr {
    key: "Tidx"
    value {
      type: DT_INT32
    }
  }
  attr {
    key: "_output_shapes"
    value {
      list {
        shape {
          dim {
            size: 5
          }
          dim {
            size: 1
          }
        }
      }
    }
  }
  attr {
    key: "keep_dims"
    value {
      b: true
    }
  }
}
node {
  name: "sample_scan/while/update_ancilla/normalize/Maximum/y"
  op: "Const"
  input: "^sample_scan/while/Identity"
  attr {
    key: "_output_shapes"
    value {
      list {
        shape {
        }
      }
    }
  }
  attr {
    key: "dtype"
    value {
      type: DT_FLOAT
    }
  }
  attr {
    key: "value"
    value {
      tensor {
        dtype: DT_FLOAT
        tensor_shape {
        }
        float_val: 9.999999960041972e-13
      }
    }
  }
}
node {
  name: "sample_scan/while/update_ancilla/normalize/Maximum"
  op: "Maximum"
  input: "sample_scan/while/update_ancilla/normalize/Sum"
  input: "sample_scan/while/update_ancilla/normalize/Maximum/y"
  attr {
    key: "T"
    value {
      type: DT_FLOAT
    }
  }
  attr {
    key: "_output_shapes"
    value {
      list {
        shape {
          dim {
            size: 5
          }
          dim {
            size: 1
          }
        }
      }
    }
  }
}
node {
  name: "sample_scan/while/update_ancilla/normalize/Rsqrt"
  op: "Rsqrt"
  input: "sample_scan/while/update_ancilla/normalize/Maximum"
  attr {
    key: "T"
    value {
      type: DT_FLOAT
    }
  }
  attr {
    key: "_output_shapes"
    value {
      list {
        shape {
          dim {
            size: 5
          }
          dim {
            size: 1
          }
        }
      }
    }
  }
}
node {
  name: "sample_scan/while/update_ancilla/normalize/Cast"
  op: "Cast"
  input: "sample_scan/while/update_ancilla/normalize/Rsqrt"
  attr {
    key: "DstT"
    value {
      type: DT_COMPLEX64
    }
  }
  attr {
    key: "SrcT"
    value {
      type: DT_FLOAT
    }
  }
  attr {
    key: "_output_shapes"
    value {
      list {
        shape {
          dim {
            size: 5
          }
          dim {
            size: 1
          }
        }
      }
    }
  }
}
node {
  name: "sample_scan/while/update_ancilla/normalize/Mul"
  op: "Mul"
  input: "sample_scan/while/update_ancilla/add_1"
  input: "sample_scan/while/update_ancilla/normalize/Cast"
  attr {
    key: "T"
    value {
      type: DT_COMPLEX64
    }
  }
  attr {
    key: "_output_shapes"
    value {
      list {
        shape {
          dim {
            size: 5
          }
          dim {
            size: 5
          }
        }
      }
    }
  }
}
node {
  name: "sample_scan/while/add_1"
  op: "Add"
  input: "sample_scan/while/Identity_3"
  input: "sample_scan/while/TensorArrayReadV3"
  attr {
    key: "T"
    value {
      type: DT_FLOAT
    }
  }
  attr {
    key: "_output_shapes"
    value {
      list {
        shape {
          dim {
            size: 5
          }
        }
      }
    }
  }
}
node {
  name: "sample_scan/while/expectation/Cast"
  op: "Cast"
  input: "sample_scan/while/update_ancilla/Cast_2/Enter"
  input: "^sample_scan/while/Identity"
  attr {
    key: "DstT"
    value {
      type: DT_COMPLEX64
    }
  }
  attr {
    key: "SrcT"
    value {
      type: DT_FLOAT
    }
  }
  attr {
    key: "_output_shapes"
    value {
      list {
        shape {
          dim {
            size: 5
          }
          dim {
            size: 5
          }
        }
      }
    }
  }
}
node {
  name: "sample_scan/while/expectation/Conj"
  op: "Conj"
  input: "sample_scan/while/update_ancilla/normalize/Mul"
  attr {
    key: "T"
    value {
      type: DT_COMPLEX64
    }
  }
  attr {
    key: "_output_shapes"
    value {
      list {
        shape {
          dim {
            size: 5
          }
          dim {
            size: 5
          }
        }
      }
    }
  }
}
node {
  name: "sample_scan/while/expectation/einsum/transpose/perm"
  op: "Const"
  input: "^sample_scan/while/Identity"
  attr {
    key: "_output_shapes"
    value {
      list {
        shape {
          dim {
            size: 2
          }
        }
      }
    }
  }
  attr {
    key: "dtype"
    value {
      type: DT_INT32
    }
  }
  attr {
    key: "value"
    value {
      tensor {
        dtype: DT_INT32
        tensor_shape {
          dim {
            size: 2
          }
        }
        tensor_content: "\000\000\000\000\001\000\000\000"
      }
    }
  }
}
node {
  name: "sample_scan/while/expectation/einsum/transpose"
  op: "Transpose"
  input: "sample_scan/while/expectation/Conj"
  input: "sample_scan/while/expectation/einsum/transpose/perm"
  attr {
    key: "T"
    value {
      type: DT_COMPLEX64
    }
  }
  attr {
    key: "Tperm"
    value {
      type: DT_INT32
    }
  }
  attr {
    key: "_output_shapes"
    value {
      list {
        shape {
          dim {
            size: 5
          }
          dim {
            size: 5
          }
        }
      }
    }
  }
}
node {
  name: "sample_scan/while/expectation/einsum/transpose_1/perm"
  op: "Const"
  input: "^sample_scan/while/Identity"
  attr {
    key: "_output_shapes"
    value {
      list {
        shape {
          dim {
            size: 2
          }
        }
      }
    }
  }
  attr {
    key: "dtype"
    value {
      type: DT_INT32
    }
  }
  attr {
    key: "value"
    value {
      tensor {
        dtype: DT_INT32
        tensor_shape {
          dim {
            size: 2
          }
        }
        tensor_content: "\000\000\000\000\001\000\000\000"
      }
    }
  }
}
node {
  name: "sample_scan/while/expectation/einsum/transpose_1"
  op: "Transpose"
  input: "sample_scan/while/expectation/Cast"
  input: "sample_scan/while/expectation/einsum/transpose_1/perm"
  attr {
    key: "T"
    value {
      type: DT_COMPLEX64
    }
  }
  attr {
    key: "Tperm"
    value {
      type: DT_INT32
    }
  }
  attr {
    key: "_output_shapes"
    value {
      list {
        shape {
          dim {
            size: 5
          }
          dim {
            size: 5
          }
        }
      }
    }
  }
}
node {
  name: "sample_scan/while/expectation/einsum/MatMul"
  op: "MatMul"
  input: "sample_scan/while/expectation/einsum/transpose"
  input: "sample_scan/while/expectation/einsum/transpose_1"
  attr {
    key: "T"
    value {
      type: DT_COMPLEX64
    }
  }
  attr {
    key: "_output_shapes"
    value {
      list {
        shape {
          dim {
            size: 5
          }
          dim {
            size: 5
          }
        }
      }
    }
  }
  attr {
    key: "transpose_a"
    value {
      b: false
    }
  }
  attr {
    key: "transpose_b"
    value {
      b: false
    }
  }
}
node {
  name: "sample_scan/while/expectation/einsum/transpose_2/perm"
  op: "Const"
  input: "^sample_scan/while/Identity"
  attr {
    key: "_output_shapes"
    value {
      list {
        shape {
          dim {
            size: 2
          }
        }
      }
    }
  }
  attr {
    key: "dtype"
    value {
      type: DT_INT32
    }
  }
  attr {
    key: "value"
    value {
      tensor {
        dtype: DT_INT32
        tensor_shape {
          dim {
            size: 2
          }
        }
        tensor_content: "\000\000\000\000\001\000\000\000"
      }
    }
  }
}
node {
  name: "sample_scan/while/expectation/einsum/transpose_2"
  op: "Transpose"
  input: "sample_scan/while/expectation/einsum/MatMul"
  input: "sample_scan/while/expectation/einsum/transpose_2/perm"
  attr {
    key: "T"
    value {
      type: DT_COMPLEX64
    }
  }
  attr {
    key: "Tperm"
    value {
      type: DT_INT32
    }
  }
  attr {
    key: "_output_shapes"
    value {
      list {
        shape {
          dim {
            size: 5
          }
          dim {
            size: 5
          }
        }
      }
    }
  }
}
node {
  name: "sample_scan/while/expectation/einsum/transpose_3/perm"
  op: "Const"
  input: "^sample_scan/while/Identity"
  attr {
    key: "_output_shapes"
    value {
      list {
        shape {
          dim {
            size: 2
          }
        }
      }
    }
  }
  attr {
    key: "dtype"
    value {
      type: DT_INT32
    }
  }
  attr {
    key: "value"
    value {
      tensor {
        dtype: DT_INT32
        tensor_shape {
          dim {
            size: 2
          }
        }
        tensor_content: "\000\000\000\000\001\000\000\000"
      }
    }
  }
}
node {
  name: "sample_scan/while/expectation/einsum/transpose_3"
  op: "Transpose"
  input: "sample_scan/while/update_ancilla/normalize/Mul"
  input: "sample_scan/while/expectation/einsum/transpose_3/perm"
  attr {
    key: "T"
    value {
      type: DT_COMPLEX64
    }
  }
  attr {
    key: "Tperm"
    value {
      type: DT_INT32
    }
  }
  attr {
    key: "_output_shapes"
    value {
      list {
        shape {
          dim {
            size: 5
          }
          dim {
            size: 5
          }
        }
      }
    }
  }
}
node {
  name: "sample_scan/while/expectation/einsum/Reshape/shape"
  op: "Const"
  input: "^sample_scan/while/Identity"
  attr {
    key: "_output_shapes"
    value {
      list {
        shape {
          dim {
            size: 3
          }
        }
      }
    }
  }
  attr {
    key: "dtype"
    value {
      type: DT_INT32
    }
  }
  attr {
    key: "value"
    value {
      tensor {
        dtype: DT_INT32
        tensor_shape {
          dim {
            size: 3
          }
        }
        tensor_content: "\005\000\000\000\001\000\000\000\005\000\000\000"
      }
    }
  }
}
node {
  name: "sample_scan/while/expectation/einsum/Reshape"
  op: "Reshape"
  input: "sample_scan/while/expectation/einsum/transpose_2"
  input: "sample_scan/while/expectation/einsum/Reshape/shape"
  attr {
    key: "T"
    value {
      type: DT_COMPLEX64
    }
  }
  attr {
    key: "Tshape"
    value {
      type: DT_INT32
    }
  }
  attr {
    key: "_output_shapes"
    value {
      list {
        shape {
          dim {
            size: 5
          }
          dim {
            size: 1
          }
          dim {
            size: 5
          }
        }
      }
    }
  }
}
node {
  name: "sample_scan/while/expectation/einsum/Reshape_1/shape"
  op: "Const"
  input: "^sample_scan/while/Identity"
  attr {
    key: "_output_shapes"
    value {
      list {
        shape {
          dim {
            size: 3
          }
        }
      }
    }
  }
  attr {
    key: "dtype"
    value {
      type: DT_INT32
    }
  }
  attr {
    key: "value"
    value {
      tensor {
        dtype: DT_INT32
        tensor_shape {
          dim {
            size: 3
          }
        }
        tensor_content: "\005\000\000\000\005\000\000\000\001\000\000\000"
      }
    }
  }
}
node {
  name: "sample_scan/while/expectation/einsum/Reshape_1"
  op: "Reshape"
  input: "sample_scan/while/expectation/einsum/transpose_3"
  input: "sample_scan/while/expectation/einsum/Reshape_1/shape"
  attr {
    key: "T"
    value {
      type: DT_COMPLEX64
    }
  }
  attr {
    key: "Tshape"
    value {
      type: DT_INT32
    }
  }
  attr {
    key: "_output_shapes"
    value {
      list {
        shape {
          dim {
            size: 5
          }
          dim {
            size: 5
          }
          dim {
            size: 1
          }
        }
      }
    }
  }
}
node {
  name: "sample_scan/while/expectation/einsum/MatMul_1"
  op: "BatchMatMul"
  input: "sample_scan/while/expectation/einsum/Reshape"
  input: "sample_scan/while/expectation/einsum/Reshape_1"
  attr {
    key: "T"
    value {
      type: DT_COMPLEX64
    }
  }
  attr {
    key: "_output_shapes"
    value {
      list {
        shape {
          dim {
            size: 5
          }
          dim {
            size: 1
          }
          dim {
            size: 1
          }
        }
      }
    }
  }
  attr {
    key: "adj_x"
    value {
      b: false
    }
  }
  attr {
    key: "adj_y"
    value {
      b: false
    }
  }
}
node {
  name: "sample_scan/while/expectation/einsum/Reshape_2/shape"
  op: "Const"
  input: "^sample_scan/while/Identity"
  attr {
    key: "_output_shapes"
    value {
      list {
        shape {
          dim {
            size: 1
          }
        }
      }
    }
  }
  attr {
    key: "dtype"
    value {
      type: DT_INT32
    }
  }
  attr {
    key: "value"
    value {
      tensor {
        dtype: DT_INT32
        tensor_shape {
          dim {
            size: 1
          }
        }
        int_val: 5
      }
    }
  }
}
node {
  name: "sample_scan/while/expectation/einsum/Reshape_2"
  op: "Reshape"
  input: "sample_scan/while/expectation/einsum/MatMul_1"
  input: "sample_scan/while/expectation/einsum/Reshape_2/shape"
  attr {
    key: "T"
    value {
      type: DT_COMPLEX64
    }
  }
  attr {
    key: "Tshape"
    value {
      type: DT_INT32
    }
  }
  attr {
    key: "_output_shapes"
    value {
      list {
        shape {
          dim {
            size: 5
          }
        }
      }
    }
  }
}
node {
  name: "sample_scan/while/expectation/einsum/transpose_4/perm"
  op: "Const"
  input: "^sample_scan/while/Identity"
  attr {
    key: "_output_shapes"
    value {
      list {
        shape {
          dim {
            size: 1
          }
        }
      }
    }
  }
  attr {
    key: "dtype"
    value {
      type: DT_INT32
    }
  }
  attr {
    key: "value"
    value {
      tensor {
        dtype: DT_INT32
        tensor_shape {
          dim {
            size: 1
          }
        }
        int_val: 0
      }
    }
  }
}
node {
  name: "sample_scan/while/expectation/einsum/transpose_4"
  op: "Transpose"
  input: "sample_scan/while/expectation/einsum/Reshape_2"
  input: "sample_scan/while/expectation/einsum/transpose_4/perm"
  attr {
    key: "T"
    value {
      type: DT_COMPLEX64
    }
  }
  attr {
    key: "Tperm"
    value {
      type: DT_INT32
    }
  }
  attr {
    key: "_output_shapes"
    value {
      list {
        shape {
          dim {
            size: 5
          }
        }
      }
    }
  }
}
node {
  name: "sample_scan/while/expectation/Real"
  op: "Real"
  input: "sample_scan/while/expectation/einsum/transpose_4"
  attr {
    key: "T"
    value {
      type: DT_COMPLEX64
    }
  }
  attr {
    key: "Tout"
    value {
      type: DT_FLOAT
    }
  }
  attr {
    key: "_output_shapes"
    value {
      list {
        shape {
          dim {
            size: 5
          }
        }
      }
    }
  }
}
node {
  name: "sample_scan/while/expectation/mul/x"
  op: "Const"
  input: "^sample_scan/while/Identity"
  attr {
    key: "_output_shapes"
    value {
      list {
        shape {
        }
      }
    }
  }
  attr {
    key: "dtype"
    value {
      type: DT_FLOAT
    }
  }
  attr {
    key: "value"
    value {
      tensor {
        dtype: DT_FLOAT
        tensor_shape {
        }
        float_val: 2.0
      }
    }
  }
}
node {
  name: "sample_scan/while/expectation/mul"
  op: "Mul"
  input: "sample_scan/while/expectation/mul/x"
  input: "sample_scan/while/expectation/Real"
  attr {
    key: "T"
    value {
      type: DT_FLOAT
    }
  }
  attr {
    key: "_output_shapes"
    value {
      list {
        shape {
          dim {
            size: 5
          }
        }
      }
    }
  }
}
node {
  name: "sample_scan/while/add_2"
  op: "Add"
  input: "sample_scan/while/add_1"
  input: "sample_scan/while/expectation/mul"
  attr {
    key: "T"
    value {
      type: DT_FLOAT
    }
  }
  attr {
    key: "_output_shapes"
    value {
      list {
        shape {
          dim {
            size: 5
          }
        }
      }
    }
  }
}
node {
  name: "sample_scan/while/TensorArrayWrite/TensorArrayWriteV3"
  op: "TensorArrayWriteV3"
  input: "sample_scan/while/TensorArrayWrite/TensorArrayWriteV3/Enter"
  input: "sample_scan/while/Identity_1"
  input: "sample_scan/while/update_ancilla/normalize/Mul"
  input: "sample_scan/while/Identity_4"
  attr {
    key: "T"
    value {
      type: DT_COMPLEX64
    }
  }
  attr {
    key: "_class"
    value {
      list {
        s: "loc:@sample_scan/while/update_ancilla/normalize/Mul"
      }
    }
  }
  attr {
    key: "_output_shapes"
    value {
      list {
        shape {
        }
      }
    }
  }
}
node {
  name: "sample_scan/while/TensorArrayWrite/TensorArrayWriteV3/Enter"
  op: "Enter"
  input: "sample_scan/TensorArray_1"
  attr {
    key: "T"
    value {
      type: DT_RESOURCE
    }
  }
  attr {
    key: "_class"
    value {
      list {
        s: "loc:@sample_scan/while/update_ancilla/normalize/Mul"
      }
    }
  }
  attr {
    key: "_output_shapes"
    value {
      list {
        shape {
          dim {
            size: 2
          }
        }
      }
    }
  }
  attr {
    key: "frame_name"
    value {
      s: "sample_scan/while/while_context"
    }
  }
  attr {
    key: "is_constant"
    value {
      b: true
    }
  }
  attr {
    key: "parallel_iterations"
    value {
      i: 10
    }
  }
}
node {
  name: "sample_scan/while/TensorArrayWrite_1/TensorArrayWriteV3"
  op: "TensorArrayWriteV3"
  input: "sample_scan/while/TensorArrayWrite_1/TensorArrayWriteV3/Enter"
  input: "sample_scan/while/Identity_1"
  input: "sample_scan/while/add_2"
  input: "sample_scan/while/Identity_5"
  attr {
    key: "T"
    value {
      type: DT_FLOAT
    }
  }
  attr {
    key: "_class"
    value {
      list {
        s: "loc:@sample_scan/while/add_2"
      }
    }
  }
  attr {
    key: "_output_shapes"
    value {
      list {
        shape {
        }
      }
    }
  }
}
node {
  name: "sample_scan/while/TensorArrayWrite_1/TensorArrayWriteV3/Enter"
  op: "Enter"
  input: "sample_scan/TensorArray_2"
  attr {
    key: "T"
    value {
      type: DT_RESOURCE
    }
  }
  attr {
    key: "_class"
    value {
      list {
        s: "loc:@sample_scan/while/add_2"
      }
    }
  }
  attr {
    key: "_output_shapes"
    value {
      list {
        shape {
          dim {
            size: 2
          }
        }
      }
    }
  }
  attr {
    key: "frame_name"
    value {
      s: "sample_scan/while/while_context"
    }
  }
  attr {
    key: "is_constant"
    value {
      b: true
    }
  }
  attr {
    key: "parallel_iterations"
    value {
      i: 10
    }
  }
}
node {
  name: "sample_scan/while/add_3/y"
  op: "Const"
  input: "^sample_scan/while/Identity"
  attr {
    key: "_output_shapes"
    value {
      list {
        shape {
        }
      }
    }
  }
  attr {
    key: "dtype"
    value {
      type: DT_INT32
    }
  }
  attr {
    key: "value"
    value {
      tensor {
        dtype: DT_INT32
        tensor_shape {
        }
        int_val: 1
      }
    }
  }
}
node {
  name: "sample_scan/while/add_3"
  op: "Add"
  input: "sample_scan/while/Identity_1"
  input: "sample_scan/while/add_3/y"
  attr {
    key: "T"
    value {
      type: DT_INT32
    }
  }
  attr {
    key: "_output_shapes"
    value {
      list {
        shape {
        }
      }
    }
  }
}
node {
  name: "sample_scan/while/NextIteration"
  op: "NextIteration"
  input: "sample_scan/while/add"
  attr {
    key: "T"
    value {
      type: DT_INT32
    }
  }
  attr {
    key: "_output_shapes"
    value {
      list {
        shape {
        }
      }
    }
  }
}
node {
  name: "sample_scan/while/NextIteration_1"
  op: "NextIteration"
  input: "sample_scan/while/add_3"
  attr {
    key: "T"
    value {
      type: DT_INT32
    }
  }
  attr {
    key: "_output_shapes"
    value {
      list {
        shape {
        }
      }
    }
  }
}
node {
  name: "sample_scan/while/NextIteration_2"
  op: "NextIteration"
  input: "sample_scan/while/update_ancilla/normalize/Mul"
  attr {
    key: "T"
    value {
      type: DT_COMPLEX64
    }
  }
  attr {
    key: "_output_shapes"
    value {
      list {
        shape {
          dim {
            size: 5
          }
          dim {
            size: 5
          }
        }
      }
    }
  }
}
node {
  name: "sample_scan/while/NextIteration_3"
  op: "NextIteration"
  input: "sample_scan/while/add_2"
  attr {
    key: "T"
    value {
      type: DT_FLOAT
    }
  }
  attr {
    key: "_output_shapes"
    value {
      list {
        shape {
          dim {
            size: 5
          }
        }
      }
    }
  }
}
node {
  name: "sample_scan/while/NextIteration_4"
  op: "NextIteration"
  input: "sample_scan/while/TensorArrayWrite/TensorArrayWriteV3"
  attr {
    key: "T"
    value {
      type: DT_FLOAT
    }
  }
  attr {
    key: "_output_shapes"
    value {
      list {
        shape {
        }
      }
    }
  }
}
node {
  name: "sample_scan/while/NextIteration_5"
  op: "NextIteration"
  input: "sample_scan/while/TensorArrayWrite_1/TensorArrayWriteV3"
  attr {
    key: "T"
    value {
      type: DT_FLOAT
    }
  }
  attr {
    key: "_output_shapes"
    value {
      list {
        shape {
        }
      }
    }
  }
}
node {
  name: "sample_scan/while/Exit"
  op: "Exit"
  input: "sample_scan/while/Switch"
  attr {
    key: "T"
    value {
      type: DT_INT32
    }
  }
  attr {
    key: "_output_shapes"
    value {
      list {
        shape {
        }
      }
    }
  }
}
node {
  name: "sample_scan/while/Exit_1"
  op: "Exit"
  input: "sample_scan/while/Switch_1"
  attr {
    key: "T"
    value {
      type: DT_INT32
    }
  }
  attr {
    key: "_output_shapes"
    value {
      list {
        shape {
        }
      }
    }
  }
}
node {
  name: "sample_scan/while/Exit_2"
  op: "Exit"
  input: "sample_scan/while/Switch_2"
  attr {
    key: "T"
    value {
      type: DT_COMPLEX64
    }
  }
  attr {
    key: "_output_shapes"
    value {
      list {
        shape {
          dim {
            size: 5
          }
          dim {
            size: 5
          }
        }
      }
    }
  }
}
node {
  name: "sample_scan/while/Exit_3"
  op: "Exit"
  input: "sample_scan/while/Switch_3"
  attr {
    key: "T"
    value {
      type: DT_FLOAT
    }
  }
  attr {
    key: "_output_shapes"
    value {
      list {
        shape {
          dim {
            size: 5
          }
        }
      }
    }
  }
}
node {
  name: "sample_scan/while/Exit_4"
  op: "Exit"
  input: "sample_scan/while/Switch_4"
  attr {
    key: "T"
    value {
      type: DT_FLOAT
    }
  }
  attr {
    key: "_output_shapes"
    value {
      list {
        shape {
        }
      }
    }
  }
}
node {
  name: "sample_scan/while/Exit_5"
  op: "Exit"
  input: "sample_scan/while/Switch_5"
  attr {
    key: "T"
    value {
      type: DT_FLOAT
    }
  }
  attr {
    key: "_output_shapes"
    value {
      list {
        shape {
        }
      }
    }
  }
}
node {
  name: "sample_scan/TensorArrayStack/TensorArraySizeV3"
  op: "TensorArraySizeV3"
  input: "sample_scan/TensorArray_1"
  input: "sample_scan/while/Exit_4"
  attr {
    key: "_class"
    value {
      list {
        s: "loc:@sample_scan/TensorArray_1"
      }
    }
  }
  attr {
    key: "_output_shapes"
    value {
      list {
        shape {
        }
      }
    }
  }
}
node {
  name: "sample_scan/TensorArrayStack/range/start"
  op: "Const"
  attr {
    key: "_class"
    value {
      list {
        s: "loc:@sample_scan/TensorArray_1"
      }
    }
  }
  attr {
    key: "_output_shapes"
    value {
      list {
        shape {
        }
      }
    }
  }
  attr {
    key: "dtype"
    value {
      type: DT_INT32
    }
  }
  attr {
    key: "value"
    value {
      tensor {
        dtype: DT_INT32
        tensor_shape {
        }
        int_val: 0
      }
    }
  }
}
node {
  name: "sample_scan/TensorArrayStack/range/delta"
  op: "Const"
  attr {
    key: "_class"
    value {
      list {
        s: "loc:@sample_scan/TensorArray_1"
      }
    }
  }
  attr {
    key: "_output_shapes"
    value {
      list {
        shape {
        }
      }
    }
  }
  attr {
    key: "dtype"
    value {
      type: DT_INT32
    }
  }
  attr {
    key: "value"
    value {
      tensor {
        dtype: DT_INT32
        tensor_shape {
        }
        int_val: 1
      }
    }
  }
}
node {
  name: "sample_scan/TensorArrayStack/range"
  op: "Range"
  input: "sample_scan/TensorArrayStack/range/start"
  input: "sample_scan/TensorArrayStack/TensorArraySizeV3"
  input: "sample_scan/TensorArrayStack/range/delta"
  attr {
    key: "Tidx"
    value {
      type: DT_INT32
    }
  }
  attr {
    key: "_class"
    value {
      list {
        s: "loc:@sample_scan/TensorArray_1"
      }
    }
  }
  attr {
    key: "_output_shapes"
    value {
      list {
        shape {
          dim {
            size: -1
          }
        }
      }
    }
  }
}
node {
  name: "sample_scan/TensorArrayStack/TensorArrayGatherV3"
  op: "TensorArrayGatherV3"
  input: "sample_scan/TensorArray_1"
  input: "sample_scan/TensorArrayStack/range"
  input: "sample_scan/while/Exit_4"
  attr {
    key: "_class"
    value {
      list {
        s: "loc:@sample_scan/TensorArray_1"
      }
    }
  }
  attr {
    key: "_output_shapes"
    value {
      list {
        shape {
          dim {
            size: 1000
          }
          dim {
            size: 5
          }
          dim {
            size: 5
          }
        }
      }
    }
  }
  attr {
    key: "dtype"
    value {
      type: DT_COMPLEX64
    }
  }
  attr {
    key: "element_shape"
    value {
      shape {
        dim {
          size: 5
        }
        dim {
          size: 5
        }
      }
    }
  }
}
node {
  name: "sample_scan/TensorArrayStack_1/TensorArraySizeV3"
  op: "TensorArraySizeV3"
  input: "sample_scan/TensorArray_2"
  input: "sample_scan/while/Exit_5"
  attr {
    key: "_class"
    value {
      list {
        s: "loc:@sample_scan/TensorArray_2"
      }
    }
  }
  attr {
    key: "_output_shapes"
    value {
      list {
        shape {
        }
      }
    }
  }
}
node {
  name: "sample_scan/TensorArrayStack_1/range/start"
  op: "Const"
  attr {
    key: "_class"
    value {
      list {
        s: "loc:@sample_scan/TensorArray_2"
      }
    }
  }
  attr {
    key: "_output_shapes"
    value {
      list {
        shape {
        }
      }
    }
  }
  attr {
    key: "dtype"
    value {
      type: DT_INT32
    }
  }
  attr {
    key: "value"
    value {
      tensor {
        dtype: DT_INT32
        tensor_shape {
        }
        int_val: 0
      }
    }
  }
}
node {
  name: "sample_scan/TensorArrayStack_1/range/delta"
  op: "Const"
  attr {
    key: "_class"
    value {
      list {
        s: "loc:@sample_scan/TensorArray_2"
      }
    }
  }
  attr {
    key: "_output_shapes"
    value {
      list {
        shape {
        }
      }
    }
  }
  attr {
    key: "dtype"
    value {
      type: DT_INT32
    }
  }
  attr {
    key: "value"
    value {
      tensor {
        dtype: DT_INT32
        tensor_shape {
        }
        int_val: 1
      }
    }
  }
}
node {
  name: "sample_scan/TensorArrayStack_1/range"
  op: "Range"
  input: "sample_scan/TensorArrayStack_1/range/start"
  input: "sample_scan/TensorArrayStack_1/TensorArraySizeV3"
  input: "sample_scan/TensorArrayStack_1/range/delta"
  attr {
    key: "Tidx"
    value {
      type: DT_INT32
    }
  }
  attr {
    key: "_class"
    value {
      list {
        s: "loc:@sample_scan/TensorArray_2"
      }
    }
  }
  attr {
    key: "_output_shapes"
    value {
      list {
        shape {
          dim {
            size: -1
          }
        }
      }
    }
  }
}
node {
  name: "sample_scan/TensorArrayStack_1/TensorArrayGatherV3"
  op: "TensorArrayGatherV3"
  input: "sample_scan/TensorArray_2"
  input: "sample_scan/TensorArrayStack_1/range"
  input: "sample_scan/while/Exit_5"
  attr {
    key: "_class"
    value {
      list {
        s: "loc:@sample_scan/TensorArray_2"
      }
    }
  }
  attr {
    key: "_output_shapes"
    value {
      list {
        shape {
          dim {
            size: 1000
          }
          dim {
            size: 5
          }
        }
      }
    }
  }
  attr {
    key: "dtype"
    value {
      type: DT_FLOAT
    }
  }
  attr {
    key: "element_shape"
    value {
      shape {
        dim {
          size: 5
        }
      }
    }
  }
}
node {
  name: "transpose/perm"
  op: "Const"
  attr {
    key: "_output_shapes"
    value {
      list {
        shape {
          dim {
            size: 2
          }
        }
      }
    }
  }
  attr {
    key: "dtype"
    value {
      type: DT_INT32
    }
  }
  attr {
    key: "value"
    value {
      tensor {
        dtype: DT_INT32
        tensor_shape {
          dim {
            size: 2
          }
        }
        tensor_content: "\001\000\000\000\000\000\000\000"
      }
    }
  }
}
node {
  name: "transpose"
  op: "Transpose"
  input: "sample_scan/TensorArrayStack_1/TensorArrayGatherV3"
  input: "transpose/perm"
  attr {
    key: "T"
    value {
      type: DT_FLOAT
    }
  }
  attr {
    key: "Tperm"
    value {
      type: DT_INT32
    }
  }
  attr {
    key: "_output_shapes"
    value {
      list {
        shape {
          dim {
            size: 5
          }
          dim {
            size: 1000
          }
        }
      }
    }
  }
}
node {
  name: "zeros_1"
  op: "Const"
  attr {
    key: "_output_shapes"
    value {
      list {
        shape {
          dim {
            size: 5
          }
        }
      }
    }
  }
  attr {
    key: "dtype"
    value {
      type: DT_FLOAT
    }
  }
  attr {
    key: "value"
    value {
      tensor {
        dtype: DT_FLOAT
        tensor_shape {
          dim {
            size: 5
          }
        }
        float_val: 0.0
      }
    }
  }
}
node {
  name: "Cast_1"
  op: "Cast"
  input: "zeros_1"
  attr {
    key: "DstT"
    value {
      type: DT_INT32
    }
  }
  attr {
    key: "SrcT"
    value {
      type: DT_FLOAT
    }
  }
  attr {
    key: "_output_shapes"
    value {
      list {
        shape {
          dim {
            size: 5
          }
        }
      }
    }
  }
}
node {
  name: "one_hot_1/on_value"
  op: "Const"
  attr {
    key: "_output_shapes"
    value {
      list {
        shape {
        }
      }
    }
  }
  attr {
    key: "dtype"
    value {
      type: DT_COMPLEX64
    }
  }
  attr {
    key: "value"
    value {
      tensor {
        dtype: DT_COMPLEX64
        tensor_shape {
        }
        scomplex_val: 1.0
        scomplex_val: 0.0
      }
    }
  }
}
node {
  name: "one_hot_1/off_value"
  op: "Const"
  attr {
    key: "_output_shapes"
    value {
      list {
        shape {
        }
      }
    }
  }
  attr {
    key: "dtype"
    value {
      type: DT_COMPLEX64
    }
  }
  attr {
    key: "value"
    value {
      tensor {
        dtype: DT_COMPLEX64
        tensor_shape {
        }
        scomplex_val: 0.0
        scomplex_val: 0.0
      }
    }
  }
}
node {
  name: "one_hot_1/depth"
  op: "Const"
  attr {
    key: "_output_shapes"
    value {
      list {
        shape {
        }
      }
    }
  }
  attr {
    key: "dtype"
    value {
      type: DT_INT32
    }
  }
  attr {
    key: "value"
    value {
      tensor {
        dtype: DT_INT32
        tensor_shape {
        }
        int_val: 5
      }
    }
  }
}
node {
  name: "one_hot_1"
  op: "OneHot"
  input: "Cast_1"
  input: "one_hot_1/depth"
  input: "one_hot_1/on_value"
  input: "one_hot_1/off_value"
  attr {
    key: "T"
    value {
      type: DT_COMPLEX64
    }
  }
  attr {
    key: "TI"
    value {
      type: DT_INT32
    }
  }
  attr {
    key: "_output_shapes"
    value {
      list {
        shape {
          dim {
            size: 5
          }
          dim {
            size: 5
          }
        }
      }
    }
  }
  attr {
    key: "axis"
    value {
      i: -1
    }
  }
}
node {
  name: "random_normal_1/shape"
  op: "Const"
  attr {
    key: "_output_shapes"
    value {
      list {
        shape {
          dim {
            size: 2
          }
        }
      }
    }
  }
  attr {
    key: "dtype"
    value {
      type: DT_INT32
    }
  }
  attr {
    key: "value"
    value {
      tensor {
        dtype: DT_INT32
        tensor_shape {
          dim {
            size: 2
          }
        }
        tensor_content: "\350\003\000\000\005\000\000\000"
      }
    }
  }
}
node {
  name: "random_normal_1/mean"
  op: "Const"
  attr {
    key: "_output_shapes"
    value {
      list {
        shape {
        }
      }
    }
  }
  attr {
    key: "dtype"
    value {
      type: DT_FLOAT
    }
  }
  attr {
    key: "value"
    value {
      tensor {
        dtype: DT_FLOAT
        tensor_shape {
        }
        float_val: 0.0
      }
    }
  }
}
node {
  name: "random_normal_1/stddev"
  op: "Const"
  attr {
    key: "_output_shapes"
    value {
      list {
        shape {
        }
      }
    }
  }
  attr {
    key: "dtype"
    value {
      type: DT_FLOAT
    }
  }
  attr {
    key: "value"
    value {
      tensor {
        dtype: DT_FLOAT
        tensor_shape {
        }
        float_val: 0.3162277638912201
      }
    }
  }
}
node {
  name: "random_normal_1/RandomStandardNormal"
  op: "RandomStandardNormal"
  input: "random_normal_1/shape"
  attr {
    key: "T"
    value {
      type: DT_INT32
    }
  }
  attr {
    key: "_output_shapes"
    value {
      list {
        shape {
          dim {
            size: 1000
          }
          dim {
            size: 5
          }
        }
      }
    }
  }
  attr {
    key: "dtype"
    value {
      type: DT_FLOAT
    }
  }
  attr {
    key: "seed"
    value {
      i: 0
    }
  }
  attr {
    key: "seed2"
    value {
      i: 0
    }
  }
}
node {
  name: "random_normal_1/mul"
  op: "Mul"
  input: "random_normal_1/RandomStandardNormal"
  input: "random_normal_1/stddev"
  attr {
    key: "T"
    value {
      type: DT_FLOAT
    }
  }
  attr {
    key: "_output_shapes"
    value {
      list {
        shape {
          dim {
            size: 1000
          }
          dim {
            size: 5
          }
        }
      }
    }
  }
}
node {
  name: "random_normal_1"
  op: "Add"
  input: "random_normal_1/mul"
  input: "random_normal_1/mean"
  attr {
    key: "T"
    value {
      type: DT_FLOAT
    }
  }
  attr {
    key: "_output_shapes"
    value {
      list {
        shape {
          dim {
            size: 1000
          }
          dim {
            size: 5
          }
        }
      }
    }
  }
}
node {
  name: "sample_scan_1/TensorArray/size"
  op: "Const"
  attr {
    key: "_output_shapes"
    value {
      list {
        shape {
        }
      }
    }
  }
  attr {
    key: "dtype"
    value {
      type: DT_INT32
    }
  }
  attr {
    key: "value"
    value {
      tensor {
        dtype: DT_INT32
        tensor_shape {
        }
        int_val: 1000
      }
    }
  }
}
node {
  name: "sample_scan_1/TensorArray"
  op: "TensorArrayV3"
  input: "sample_scan_1/TensorArray/size"
  attr {
    key: "_output_shapes"
    value {
      list {
        shape {
          dim {
            size: 2
          }
        }
        shape {
        }
      }
    }
  }
  attr {
    key: "clear_after_read"
    value {
      b: true
    }
  }
  attr {
    key: "dtype"
    value {
      type: DT_FLOAT
    }
  }
  attr {
    key: "dynamic_size"
    value {
      b: false
    }
  }
  attr {
    key: "element_shape"
    value {
      shape {
        unknown_rank: true
      }
    }
  }
  attr {
    key: "identical_element_shapes"
    value {
      b: true
    }
  }
  attr {
    key: "tensor_array_name"
    value {
      s: ""
    }
  }
}
node {
  name: "sample_scan_1/TensorArrayUnstack/Shape"
  op: "Const"
  attr {
    key: "_output_shapes"
    value {
      list {
        shape {
          dim {
            size: 2
          }
        }
      }
    }
  }
  attr {
    key: "dtype"
    value {
      type: DT_INT32
    }
  }
  attr {
    key: "value"
    value {
      tensor {
        dtype: DT_INT32
        tensor_shape {
          dim {
            size: 2
          }
        }
        tensor_content: "\350\003\000\000\005\000\000\000"
      }
    }
  }
}
node {
  name: "sample_scan_1/TensorArrayUnstack/strided_slice/stack"
  op: "Const"
  attr {
    key: "_output_shapes"
    value {
      list {
        shape {
          dim {
            size: 1
          }
        }
      }
    }
  }
  attr {
    key: "dtype"
    value {
      type: DT_INT32
    }
  }
  attr {
    key: "value"
    value {
      tensor {
        dtype: DT_INT32
        tensor_shape {
          dim {
            size: 1
          }
        }
        int_val: 0
      }
    }
  }
}
node {
  name: "sample_scan_1/TensorArrayUnstack/strided_slice/stack_1"
  op: "Const"
  attr {
    key: "_output_shapes"
    value {
      list {
        shape {
          dim {
            size: 1
          }
        }
      }
    }
  }
  attr {
    key: "dtype"
    value {
      type: DT_INT32
    }
  }
  attr {
    key: "value"
    value {
      tensor {
        dtype: DT_INT32
        tensor_shape {
          dim {
            size: 1
          }
        }
        int_val: 1
      }
    }
  }
}
node {
  name: "sample_scan_1/TensorArrayUnstack/strided_slice/stack_2"
  op: "Const"
  attr {
    key: "_output_shapes"
    value {
      list {
        shape {
          dim {
            size: 1
          }
        }
      }
    }
  }
  attr {
    key: "dtype"
    value {
      type: DT_INT32
    }
  }
  attr {
    key: "value"
    value {
      tensor {
        dtype: DT_INT32
        tensor_shape {
          dim {
            size: 1
          }
        }
        int_val: 1
      }
    }
  }
}
node {
  name: "sample_scan_1/TensorArrayUnstack/strided_slice"
  op: "StridedSlice"
  input: "sample_scan_1/TensorArrayUnstack/Shape"
  input: "sample_scan_1/TensorArrayUnstack/strided_slice/stack"
  input: "sample_scan_1/TensorArrayUnstack/strided_slice/stack_1"
  input: "sample_scan_1/TensorArrayUnstack/strided_slice/stack_2"
  attr {
    key: "Index"
    value {
      type: DT_INT32
    }
  }
  attr {
    key: "T"
    value {
      type: DT_INT32
    }
  }
  attr {
    key: "_output_shapes"
    value {
      list {
        shape {
        }
      }
    }
  }
  attr {
    key: "begin_mask"
    value {
      i: 0
    }
  }
  attr {
    key: "ellipsis_mask"
    value {
      i: 0
    }
  }
  attr {
    key: "end_mask"
    value {
      i: 0
    }
  }
  attr {
    key: "new_axis_mask"
    value {
      i: 0
    }
  }
  attr {
    key: "shrink_axis_mask"
    value {
      i: 1
    }
  }
}
node {
  name: "sample_scan_1/TensorArrayUnstack/range/start"
  op: "Const"
  attr {
    key: "_output_shapes"
    value {
      list {
        shape {
        }
      }
    }
  }
  attr {
    key: "dtype"
    value {
      type: DT_INT32
    }
  }
  attr {
    key: "value"
    value {
      tensor {
        dtype: DT_INT32
        tensor_shape {
        }
        int_val: 0
      }
    }
  }
}
node {
  name: "sample_scan_1/TensorArrayUnstack/range/delta"
  op: "Const"
  attr {
    key: "_output_shapes"
    value {
      list {
        shape {
        }
      }
    }
  }
  attr {
    key: "dtype"
    value {
      type: DT_INT32
    }
  }
  attr {
    key: "value"
    value {
      tensor {
        dtype: DT_INT32
        tensor_shape {
        }
        int_val: 1
      }
    }
  }
}
node {
  name: "sample_scan_1/TensorArrayUnstack/range"
  op: "Range"
  input: "sample_scan_1/TensorArrayUnstack/range/start"
  input: "sample_scan_1/TensorArrayUnstack/strided_slice"
  input: "sample_scan_1/TensorArrayUnstack/range/delta"
  attr {
    key: "Tidx"
    value {
      type: DT_INT32
    }
  }
  attr {
    key: "_output_shapes"
    value {
      list {
        shape {
          dim {
            size: 1000
          }
        }
      }
    }
  }
}
node {
  name: "sample_scan_1/TensorArrayUnstack/TensorArrayScatter/TensorArrayScatterV3"
  op: "TensorArrayScatterV3"
  input: "sample_scan_1/TensorArray"
  input: "sample_scan_1/TensorArrayUnstack/range"
  input: "random_normal_1"
  input: "sample_scan_1/TensorArray:1"
  attr {
    key: "T"
    value {
      type: DT_FLOAT
    }
  }
  attr {
    key: "_class"
    value {
      list {
        s: "loc:@random_normal_1"
      }
    }
  }
  attr {
    key: "_output_shapes"
    value {
      list {
        shape {
        }
      }
    }
  }
}
node {
  name: "sample_scan_1/Const"
  op: "Const"
  attr {
    key: "_output_shapes"
    value {
      list {
        shape {
        }
      }
    }
  }
  attr {
    key: "dtype"
    value {
      type: DT_INT32
    }
  }
  attr {
    key: "value"
    value {
      tensor {
        dtype: DT_INT32
        tensor_shape {
        }
        int_val: 0
      }
    }
  }
}
node {
  name: "sample_scan_1/TensorArray_1/size"
  op: "Const"
  attr {
    key: "_output_shapes"
    value {
      list {
        shape {
        }
      }
    }
  }
  attr {
    key: "dtype"
    value {
      type: DT_INT32
    }
  }
  attr {
    key: "value"
    value {
      tensor {
        dtype: DT_INT32
        tensor_shape {
        }
        int_val: 1000
      }
    }
  }
}
node {
  name: "sample_scan_1/TensorArray_1"
  op: "TensorArrayV3"
  input: "sample_scan_1/TensorArray_1/size"
  attr {
    key: "_output_shapes"
    value {
      list {
        shape {
          dim {
            size: 2
          }
        }
        shape {
        }
      }
    }
  }
  attr {
    key: "clear_after_read"
    value {
      b: true
    }
  }
  attr {
    key: "dtype"
    value {
      type: DT_COMPLEX64
    }
  }
  attr {
    key: "dynamic_size"
    value {
      b: false
    }
  }
  attr {
    key: "element_shape"
    value {
      shape {
        dim {
          size: 5
        }
        dim {
          size: 5
        }
      }
    }
  }
  attr {
    key: "identical_element_shapes"
    value {
      b: true
    }
  }
  attr {
    key: "tensor_array_name"
    value {
      s: ""
    }
  }
}
node {
  name: "sample_scan_1/TensorArray_2/size"
  op: "Const"
  attr {
    key: "_output_shapes"
    value {
      list {
        shape {
        }
      }
    }
  }
  attr {
    key: "dtype"
    value {
      type: DT_INT32
    }
  }
  attr {
    key: "value"
    value {
      tensor {
        dtype: DT_INT32
        tensor_shape {
        }
        int_val: 1000
      }
    }
  }
}
node {
  name: "sample_scan_1/TensorArray_2"
  op: "TensorArrayV3"
  input: "sample_scan_1/TensorArray_2/size"
  attr {
    key: "_output_shapes"
    value {
      list {
        shape {
          dim {
            size: 2
          }
        }
        shape {
        }
      }
    }
  }
  attr {
    key: "clear_after_read"
    value {
      b: true
    }
  }
  attr {
    key: "dtype"
    value {
      type: DT_FLOAT
    }
  }
  attr {
    key: "dynamic_size"
    value {
      b: false
    }
  }
  attr {
    key: "element_shape"
    value {
      shape {
        dim {
          size: 5
        }
      }
    }
  }
  attr {
    key: "identical_element_shapes"
    value {
      b: true
    }
  }
  attr {
    key: "tensor_array_name"
    value {
      s: ""
    }
  }
}
node {
  name: "sample_scan_1/while/maximum_iterations"
  op: "Const"
  attr {
    key: "_output_shapes"
    value {
      list {
        shape {
        }
      }
    }
  }
  attr {
    key: "dtype"
    value {
      type: DT_INT32
    }
  }
  attr {
    key: "value"
    value {
      tensor {
        dtype: DT_INT32
        tensor_shape {
        }
        int_val: 1000
      }
    }
  }
}
node {
  name: "sample_scan_1/while/iteration_counter"
  op: "Const"
  attr {
    key: "_output_shapes"
    value {
      list {
        shape {
        }
      }
    }
  }
  attr {
    key: "dtype"
    value {
      type: DT_INT32
    }
  }
  attr {
    key: "value"
    value {
      tensor {
        dtype: DT_INT32
        tensor_shape {
        }
        int_val: 0
      }
    }
  }
}
node {
  name: "sample_scan_1/while/Enter"
  op: "Enter"
  input: "sample_scan_1/while/iteration_counter"
  attr {
    key: "T"
    value {
      type: DT_INT32
    }
  }
  attr {
    key: "_output_shapes"
    value {
      list {
        shape {
        }
      }
    }
  }
  attr {
    key: "frame_name"
    value {
      s: "sample_scan_1/while/while_context"
    }
  }
  attr {
    key: "is_constant"
    value {
      b: false
    }
  }
  attr {
    key: "parallel_iterations"
    value {
      i: 10
    }
  }
}
node {
  name: "sample_scan_1/while/Enter_1"
  op: "Enter"
  input: "sample_scan_1/Const"
  attr {
    key: "T"
    value {
      type: DT_INT32
    }
  }
  attr {
    key: "_output_shapes"
    value {
      list {
        shape {
        }
      }
    }
  }
  attr {
    key: "frame_name"
    value {
      s: "sample_scan_1/while/while_context"
    }
  }
  attr {
    key: "is_constant"
    value {
      b: false
    }
  }
  attr {
    key: "parallel_iterations"
    value {
      i: 10
    }
  }
}
node {
  name: "sample_scan_1/while/Enter_2"
  op: "Enter"
  input: "one_hot_1"
  attr {
    key: "T"
    value {
      type: DT_COMPLEX64
    }
  }
  attr {
    key: "_output_shapes"
    value {
      list {
        shape {
          dim {
            size: 5
          }
          dim {
            size: 5
          }
        }
      }
    }
  }
  attr {
    key: "frame_name"
    value {
      s: "sample_scan_1/while/while_context"
    }
  }
  attr {
    key: "is_constant"
    value {
      b: false
    }
  }
  attr {
    key: "parallel_iterations"
    value {
      i: 10
    }
  }
}
node {
  name: "sample_scan_1/while/Enter_3"
  op: "Enter"
  input: "zeros_1"
  attr {
    key: "T"
    value {
      type: DT_FLOAT
    }
  }
  attr {
    key: "_output_shapes"
    value {
      list {
        shape {
          dim {
            size: 5
          }
        }
      }
    }
  }
  attr {
    key: "frame_name"
    value {
      s: "sample_scan_1/while/while_context"
    }
  }
  attr {
    key: "is_constant"
    value {
      b: false
    }
  }
  attr {
    key: "parallel_iterations"
    value {
      i: 10
    }
  }
}
node {
  name: "sample_scan_1/while/Enter_4"
  op: "Enter"
  input: "sample_scan_1/TensorArray_1:1"
  attr {
    key: "T"
    value {
      type: DT_FLOAT
    }
  }
  attr {
    key: "_output_shapes"
    value {
      list {
        shape {
        }
      }
    }
  }
  attr {
    key: "frame_name"
    value {
      s: "sample_scan_1/while/while_context"
    }
  }
  attr {
    key: "is_constant"
    value {
      b: false
    }
  }
  attr {
    key: "parallel_iterations"
    value {
      i: 10
    }
  }
}
node {
  name: "sample_scan_1/while/Enter_5"
  op: "Enter"
  input: "sample_scan_1/TensorArray_2:1"
  attr {
    key: "T"
    value {
      type: DT_FLOAT
    }
  }
  attr {
    key: "_output_shapes"
    value {
      list {
        shape {
        }
      }
    }
  }
  attr {
    key: "frame_name"
    value {
      s: "sample_scan_1/while/while_context"
    }
  }
  attr {
    key: "is_constant"
    value {
      b: false
    }
  }
  attr {
    key: "parallel_iterations"
    value {
      i: 10
    }
  }
}
node {
  name: "sample_scan_1/while/Merge"
  op: "Merge"
  input: "sample_scan_1/while/Enter"
  input: "sample_scan_1/while/NextIteration"
  attr {
    key: "N"
    value {
      i: 2
    }
  }
  attr {
    key: "T"
    value {
      type: DT_INT32
    }
  }
  attr {
    key: "_output_shapes"
    value {
      list {
        shape {
        }
        shape {
        }
      }
    }
  }
}
node {
  name: "sample_scan_1/while/Merge_1"
  op: "Merge"
  input: "sample_scan_1/while/Enter_1"
  input: "sample_scan_1/while/NextIteration_1"
  attr {
    key: "N"
    value {
      i: 2
    }
  }
  attr {
    key: "T"
    value {
      type: DT_INT32
    }
  }
  attr {
    key: "_output_shapes"
    value {
      list {
        shape {
        }
        shape {
        }
      }
    }
  }
}
node {
  name: "sample_scan_1/while/Merge_2"
  op: "Merge"
  input: "sample_scan_1/while/Enter_2"
  input: "sample_scan_1/while/NextIteration_2"
  attr {
    key: "N"
    value {
      i: 2
    }
  }
  attr {
    key: "T"
    value {
      type: DT_COMPLEX64
    }
  }
  attr {
    key: "_output_shapes"
    value {
      list {
        shape {
          dim {
            size: 5
          }
          dim {
            size: 5
          }
        }
        shape {
        }
      }
    }
  }
}
node {
  name: "sample_scan_1/while/Merge_3"
  op: "Merge"
  input: "sample_scan_1/while/Enter_3"
  input: "sample_scan_1/while/NextIteration_3"
  attr {
    key: "N"
    value {
      i: 2
    }
  }
  attr {
    key: "T"
    value {
      type: DT_FLOAT
    }
  }
  attr {
    key: "_output_shapes"
    value {
      list {
        shape {
          dim {
            size: 5
          }
        }
        shape {
        }
      }
    }
  }
}
node {
  name: "sample_scan_1/while/Merge_4"
  op: "Merge"
  input: "sample_scan_1/while/Enter_4"
  input: "sample_scan_1/while/NextIteration_4"
  attr {
    key: "N"
    value {
      i: 2
    }
  }
  attr {
    key: "T"
    value {
      type: DT_FLOAT
    }
  }
  attr {
    key: "_output_shapes"
    value {
      list {
        shape {
        }
        shape {
        }
      }
    }
  }
}
node {
  name: "sample_scan_1/while/Merge_5"
  op: "Merge"
  input: "sample_scan_1/while/Enter_5"
  input: "sample_scan_1/while/NextIteration_5"
  attr {
    key: "N"
    value {
      i: 2
    }
  }
  attr {
    key: "T"
    value {
      type: DT_FLOAT
    }
  }
  attr {
    key: "_output_shapes"
    value {
      list {
        shape {
        }
        shape {
        }
      }
    }
  }
}
node {
  name: "sample_scan_1/while/Less"
  op: "Less"
  input: "sample_scan_1/while/Merge"
  input: "sample_scan_1/while/Less/Enter"
  attr {
    key: "T"
    value {
      type: DT_INT32
    }
  }
  attr {
    key: "_output_shapes"
    value {
      list {
        shape {
        }
      }
    }
  }
}
node {
  name: "sample_scan_1/while/Less/Enter"
  op: "Enter"
  input: "sample_scan_1/while/maximum_iterations"
  attr {
    key: "T"
    value {
      type: DT_INT32
    }
  }
  attr {
    key: "_output_shapes"
    value {
      list {
        shape {
        }
      }
    }
  }
  attr {
    key: "frame_name"
    value {
      s: "sample_scan_1/while/while_context"
    }
  }
  attr {
    key: "is_constant"
    value {
      b: true
    }
  }
  attr {
    key: "parallel_iterations"
    value {
      i: 10
    }
  }
}
node {
  name: "sample_scan_1/while/Less_1/y"
  op: "Const"
  input: "^sample_scan_1/while/Merge"
  attr {
    key: "_output_shapes"
    value {
      list {
        shape {
        }
      }
    }
  }
  attr {
    key: "dtype"
    value {
      type: DT_INT32
    }
  }
  attr {
    key: "value"
    value {
      tensor {
        dtype: DT_INT32
        tensor_shape {
        }
        int_val: 1000
      }
    }
  }
}
node {
  name: "sample_scan_1/while/Less_1"
  op: "Less"
  input: "sample_scan_1/while/Merge_1"
  input: "sample_scan_1/while/Less_1/y"
  attr {
    key: "T"
    value {
      type: DT_INT32
    }
  }
  attr {
    key: "_output_shapes"
    value {
      list {
        shape {
        }
      }
    }
  }
}
node {
  name: "sample_scan_1/while/LogicalAnd"
  op: "LogicalAnd"
  input: "sample_scan_1/while/Less"
  input: "sample_scan_1/while/Less_1"
  attr {
    key: "_output_shapes"
    value {
      list {
        shape {
        }
      }
    }
  }
}
node {
  name: "sample_scan_1/while/LoopCond"
  op: "LoopCond"
  input: "sample_scan_1/while/LogicalAnd"
  attr {
    key: "_output_shapes"
    value {
      list {
        shape {
        }
      }
    }
  }
}
node {
  name: "sample_scan_1/while/Switch"
  op: "Switch"
  input: "sample_scan_1/while/Merge"
  input: "sample_scan_1/while/LoopCond"
  attr {
    key: "T"
    value {
      type: DT_INT32
    }
  }
  attr {
    key: "_class"
    value {
      list {
        s: "loc:@sample_scan_1/while/Merge"
      }
    }
  }
  attr {
    key: "_output_shapes"
    value {
      list {
        shape {
        }
        shape {
        }
      }
    }
  }
}
node {
  name: "sample_scan_1/while/Switch_1"
  op: "Switch"
  input: "sample_scan_1/while/Merge_1"
  input: "sample_scan_1/while/LoopCond"
  attr {
    key: "T"
    value {
      type: DT_INT32
    }
  }
  attr {
    key: "_class"
    value {
      list {
        s: "loc:@sample_scan_1/while/Merge_1"
      }
    }
  }
  attr {
    key: "_output_shapes"
    value {
      list {
        shape {
        }
        shape {
        }
      }
    }
  }
}
node {
  name: "sample_scan_1/while/Switch_2"
  op: "Switch"
  input: "sample_scan_1/while/Merge_2"
  input: "sample_scan_1/while/LoopCond"
  attr {
    key: "T"
    value {
      type: DT_COMPLEX64
    }
  }
  attr {
    key: "_class"
    value {
      list {
        s: "loc:@sample_scan_1/while/Merge_2"
      }
    }
  }
  attr {
    key: "_output_shapes"
    value {
      list {
        shape {
          dim {
            size: 5
          }
          dim {
            size: 5
          }
        }
        shape {
          dim {
            size: 5
          }
          dim {
            size: 5
          }
        }
      }
    }
  }
}
node {
  name: "sample_scan_1/while/Switch_3"
  op: "Switch"
  input: "sample_scan_1/while/Merge_3"
  input: "sample_scan_1/while/LoopCond"
  attr {
    key: "T"
    value {
      type: DT_FLOAT
    }
  }
  attr {
    key: "_class"
    value {
      list {
        s: "loc:@sample_scan_1/while/Merge_3"
      }
    }
  }
  attr {
    key: "_output_shapes"
    value {
      list {
        shape {
          dim {
            size: 5
          }
        }
        shape {
          dim {
            size: 5
          }
        }
      }
    }
  }
}
node {
  name: "sample_scan_1/while/Switch_4"
  op: "Switch"
  input: "sample_scan_1/while/Merge_4"
  input: "sample_scan_1/while/LoopCond"
  attr {
    key: "T"
    value {
      type: DT_FLOAT
    }
  }
  attr {
    key: "_class"
    value {
      list {
        s: "loc:@sample_scan_1/while/Merge_4"
      }
    }
  }
  attr {
    key: "_output_shapes"
    value {
      list {
        shape {
        }
        shape {
        }
      }
    }
  }
}
node {
  name: "sample_scan_1/while/Switch_5"
  op: "Switch"
  input: "sample_scan_1/while/Merge_5"
  input: "sample_scan_1/while/LoopCond"
  attr {
    key: "T"
    value {
      type: DT_FLOAT
    }
  }
  attr {
    key: "_class"
    value {
      list {
        s: "loc:@sample_scan_1/while/Merge_5"
      }
    }
  }
  attr {
    key: "_output_shapes"
    value {
      list {
        shape {
        }
        shape {
        }
      }
    }
  }
}
node {
  name: "sample_scan_1/while/Identity"
  op: "Identity"
  input: "sample_scan_1/while/Switch:1"
  attr {
    key: "T"
    value {
      type: DT_INT32
    }
  }
  attr {
    key: "_output_shapes"
    value {
      list {
        shape {
        }
      }
    }
  }
}
node {
  name: "sample_scan_1/while/Identity_1"
  op: "Identity"
  input: "sample_scan_1/while/Switch_1:1"
  attr {
    key: "T"
    value {
      type: DT_INT32
    }
  }
  attr {
    key: "_output_shapes"
    value {
      list {
        shape {
        }
      }
    }
  }
}
node {
  name: "sample_scan_1/while/Identity_2"
  op: "Identity"
  input: "sample_scan_1/while/Switch_2:1"
  attr {
    key: "T"
    value {
      type: DT_COMPLEX64
    }
  }
  attr {
    key: "_output_shapes"
    value {
      list {
        shape {
          dim {
            size: 5
          }
          dim {
            size: 5
          }
        }
      }
    }
  }
}
node {
  name: "sample_scan_1/while/Identity_3"
  op: "Identity"
  input: "sample_scan_1/while/Switch_3:1"
  attr {
    key: "T"
    value {
      type: DT_FLOAT
    }
  }
  attr {
    key: "_output_shapes"
    value {
      list {
        shape {
          dim {
            size: 5
          }
        }
      }
    }
  }
}
node {
  name: "sample_scan_1/while/Identity_4"
  op: "Identity"
  input: "sample_scan_1/while/Switch_4:1"
  attr {
    key: "T"
    value {
      type: DT_FLOAT
    }
  }
  attr {
    key: "_output_shapes"
    value {
      list {
        shape {
        }
      }
    }
  }
}
node {
  name: "sample_scan_1/while/Identity_5"
  op: "Identity"
  input: "sample_scan_1/while/Switch_5:1"
  attr {
    key: "T"
    value {
      type: DT_FLOAT
    }
  }
  attr {
    key: "_output_shapes"
    value {
      list {
        shape {
        }
      }
    }
  }
}
node {
  name: "sample_scan_1/while/add/y"
  op: "Const"
  input: "^sample_scan_1/while/Identity"
  attr {
    key: "_output_shapes"
    value {
      list {
        shape {
        }
      }
    }
  }
  attr {
    key: "dtype"
    value {
      type: DT_INT32
    }
  }
  attr {
    key: "value"
    value {
      tensor {
        dtype: DT_INT32
        tensor_shape {
        }
        int_val: 1
      }
    }
  }
}
node {
  name: "sample_scan_1/while/add"
  op: "Add"
  input: "sample_scan_1/while/Identity"
  input: "sample_scan_1/while/add/y"
  attr {
    key: "T"
    value {
      type: DT_INT32
    }
  }
  attr {
    key: "_output_shapes"
    value {
      list {
        shape {
        }
      }
    }
  }
}
node {
  name: "sample_scan_1/while/TensorArrayReadV3"
  op: "TensorArrayReadV3"
  input: "sample_scan_1/while/TensorArrayReadV3/Enter"
  input: "sample_scan_1/while/Identity_1"
  input: "sample_scan_1/while/TensorArrayReadV3/Enter_1"
  attr {
    key: "_output_shapes"
    value {
      list {
        shape {
          dim {
            size: 5
          }
        }
      }
    }
  }
  attr {
    key: "dtype"
    value {
      type: DT_FLOAT
    }
  }
}
node {
  name: "sample_scan_1/while/TensorArrayReadV3/Enter"
  op: "Enter"
  input: "sample_scan_1/TensorArray"
  attr {
    key: "T"
    value {
      type: DT_RESOURCE
    }
  }
  attr {
    key: "_output_shapes"
    value {
      list {
        shape {
          dim {
            size: 2
          }
        }
      }
    }
  }
  attr {
    key: "frame_name"
    value {
      s: "sample_scan_1/while/while_context"
    }
  }
  attr {
    key: "is_constant"
    value {
      b: true
    }
  }
  attr {
    key: "parallel_iterations"
    value {
      i: 10
    }
  }
}
node {
  name: "sample_scan_1/while/TensorArrayReadV3/Enter_1"
  op: "Enter"
  input: "sample_scan_1/TensorArrayUnstack/TensorArrayScatter/TensorArrayScatterV3"
  attr {
    key: "T"
    value {
      type: DT_FLOAT
    }
  }
  attr {
    key: "_output_shapes"
    value {
      list {
        shape {
        }
      }
    }
  }
  attr {
    key: "frame_name"
    value {
      s: "sample_scan_1/while/while_context"
    }
  }
  attr {
    key: "is_constant"
    value {
      b: true
    }
  }
  attr {
    key: "parallel_iterations"
    value {
      i: 10
    }
  }
}
node {
  name: "sample_scan_1/while/update_ancilla/Cast"
  op: "Cast"
  input: "sample_scan_1/while/TensorArrayReadV3"
  attr {
    key: "DstT"
    value {
      type: DT_COMPLEX64
    }
  }
  attr {
    key: "SrcT"
    value {
      type: DT_FLOAT
    }
  }
  attr {
    key: "_output_shapes"
    value {
      list {
        shape {
          dim {
            size: 5
          }
        }
      }
    }
  }
}
node {
  name: "sample_scan_1/while/update_ancilla/Cast_1"
  op: "Cast"
  input: "sample_scan_1/while/update_ancilla/Cast_1/Enter"
  input: "^sample_scan_1/while/Identity"
  attr {
    key: "DstT"
    value {
      type: DT_COMPLEX64
    }
  }
  attr {
    key: "SrcT"
    value {
      type: DT_FLOAT
    }
  }
  attr {
    key: "_output_shapes"
    value {
      list {
        shape {
          dim {
            size: 5
          }
          dim {
            size: 5
          }
        }
      }
    }
  }
}
node {
  name: "sample_scan_1/while/update_ancilla/Cast_1/Enter"
  op: "Enter"
  input: "sine_model/symmetrize/add"
  attr {
    key: "T"
    value {
      type: DT_FLOAT
    }
  }
  attr {
    key: "_output_shapes"
    value {
      list {
        shape {
          dim {
            size: 5
          }
          dim {
            size: 5
          }
        }
      }
    }
  }
  attr {
    key: "frame_name"
    value {
      s: "sample_scan_1/while/while_context"
    }
  }
  attr {
    key: "is_constant"
    value {
      b: true
    }
  }
  attr {
    key: "parallel_iterations"
    value {
      i: 10
    }
  }
}
node {
  name: "sample_scan_1/while/update_ancilla/Cast_2"
  op: "Cast"
  input: "sample_scan_1/while/update_ancilla/Cast_2/Enter"
  input: "^sample_scan_1/while/Identity"
  attr {
    key: "DstT"
    value {
      type: DT_COMPLEX64
    }
  }
  attr {
    key: "SrcT"
    value {
      type: DT_FLOAT
    }
  }
  attr {
    key: "_output_shapes"
    value {
      list {
        shape {
          dim {
            size: 5
          }
          dim {
            size: 5
          }
        }
      }
    }
  }
}
node {
  name: "sample_scan_1/while/update_ancilla/Cast_2/Enter"
  op: "Enter"
  input: "sine_model/R/read"
  attr {
    key: "T"
    value {
      type: DT_FLOAT
    }
  }
  attr {
    key: "_output_shapes"
    value {
      list {
        shape {
          dim {
            size: 5
          }
          dim {
            size: 5
          }
        }
      }
    }
  }
  attr {
    key: "frame_name"
    value {
      s: "sample_scan_1/while/while_context"
    }
  }
  attr {
    key: "is_constant"
    value {
      b: true
    }
  }
  attr {
    key: "parallel_iterations"
    value {
      i: 10
    }
  }
}
node {
  name: "sample_scan_1/while/update_ancilla/mul/x"
  op: "Const"
  input: "^sample_scan_1/while/Identity"
  attr {
    key: "_output_shapes"
    value {
      list {
        shape {
        }
      }
    }
  }
  attr {
    key: "dtype"
    value {
      type: DT_COMPLEX64
    }
  }
  attr {
    key: "value"
    value {
      tensor {
        dtype: DT_COMPLEX64
        tensor_shape {
        }
        scomplex_val: -0.0
        scomplex_val: -1.0
      }
    }
  }
}
node {
  name: "sample_scan_1/while/update_ancilla/mul"
  op: "Mul"
  input: "sample_scan_1/while/update_ancilla/mul/x"
  input: "sample_scan_1/while/update_ancilla/Cast_1"
  attr {
    key: "T"
    value {
      type: DT_COMPLEX64
    }
  }
  attr {
    key: "_output_shapes"
    value {
      list {
        shape {
          dim {
            size: 5
          }
          dim {
            size: 5
          }
        }
      }
    }
  }
}
node {
  name: "sample_scan_1/while/update_ancilla/MatMul"
  op: "MatMul"
  input: "sample_scan_1/while/update_ancilla/Cast_2"
  input: "sample_scan_1/while/update_ancilla/Cast_2"
  attr {
    key: "T"
    value {
      type: DT_COMPLEX64
    }
  }
  attr {
    key: "_output_shapes"
    value {
      list {
        shape {
          dim {
            size: 5
          }
          dim {
            size: 5
          }
        }
      }
    }
  }
  attr {
    key: "transpose_a"
    value {
      b: true
    }
  }
  attr {
    key: "transpose_b"
    value {
      b: false
    }
  }
}
node {
  name: "sample_scan_1/while/update_ancilla/truediv/y"
  op: "Const"
  input: "^sample_scan_1/while/Identity"
  attr {
    key: "_output_shapes"
    value {
      list {
        shape {
        }
      }
    }
  }
  attr {
    key: "dtype"
    value {
      type: DT_COMPLEX64
    }
  }
  attr {
    key: "value"
    value {
      tensor {
        dtype: DT_COMPLEX64
        tensor_shape {
        }
        scomplex_val: 2.0
        scomplex_val: 0.0
      }
    }
  }
}
node {
  name: "sample_scan_1/while/update_ancilla/truediv"
  op: "RealDiv"
  input: "sample_scan_1/while/update_ancilla/MatMul"
  input: "sample_scan_1/while/update_ancilla/truediv/y"
  attr {
    key: "T"
    value {
      type: DT_COMPLEX64
    }
  }
  attr {
    key: "_output_shapes"
    value {
      list {
        shape {
          dim {
            size: 5
          }
          dim {
            size: 5
          }
        }
      }
    }
  }
}
node {
  name: "sample_scan_1/while/update_ancilla/sub"
  op: "Sub"
  input: "sample_scan_1/while/update_ancilla/mul"
  input: "sample_scan_1/while/update_ancilla/truediv"
  attr {
    key: "T"
    value {
      type: DT_COMPLEX64
    }
  }
  attr {
    key: "_output_shapes"
    value {
      list {
        shape {
          dim {
            size: 5
          }
          dim {
            size: 5
          }
        }
      }
    }
  }
}
node {
  name: "sample_scan_1/while/update_ancilla/mul_1/x"
  op: "Const"
  input: "^sample_scan_1/while/Identity"
  attr {
    key: "_output_shapes"
    value {
      list {
        shape {
        }
      }
    }
  }
  attr {
    key: "dtype"
    value {
      type: DT_COMPLEX64
    }
  }
  attr {
    key: "value"
    value {
      tensor {
        dtype: DT_COMPLEX64
        tensor_shape {
        }
        scomplex_val: 0.009999999776482582
        scomplex_val: 0.0
      }
    }
  }
}
node {
  name: "sample_scan_1/while/update_ancilla/mul_1"
  op: "Mul"
  input: "sample_scan_1/while/update_ancilla/mul_1/x"
  input: "sample_scan_1/while/update_ancilla/sub"
  attr {
    key: "T"
    value {
      type: DT_COMPLEX64
    }
  }
  attr {
    key: "_output_shapes"
    value {
      list {
        shape {
          dim {
            size: 5
          }
          dim {
            size: 5
          }
        }
      }
    }
  }
}
node {
  name: "sample_scan_1/while/update_ancilla/einsum/transpose/perm"
  op: "Const"
  input: "^sample_scan_1/while/Identity"
  attr {
    key: "_output_shapes"
    value {
      list {
        shape {
          dim {
            size: 2
          }
        }
      }
    }
  }
  attr {
    key: "dtype"
    value {
      type: DT_INT32
    }
  }
  attr {
    key: "value"
    value {
      tensor {
        dtype: DT_INT32
        tensor_shape {
          dim {
            size: 2
          }
        }
        tensor_content: "\000\000\000\000\001\000\000\000"
      }
    }
  }
}
node {
  name: "sample_scan_1/while/update_ancilla/einsum/transpose"
  op: "Transpose"
  input: "sample_scan_1/while/update_ancilla/mul_1"
  input: "sample_scan_1/while/update_ancilla/einsum/transpose/perm"
  attr {
    key: "T"
    value {
      type: DT_COMPLEX64
    }
  }
  attr {
    key: "Tperm"
    value {
      type: DT_INT32
    }
  }
  attr {
    key: "_output_shapes"
    value {
      list {
        shape {
          dim {
            size: 5
          }
          dim {
            size: 5
          }
        }
      }
    }
  }
}
node {
  name: "sample_scan_1/while/update_ancilla/einsum/transpose_1/perm"
  op: "Const"
  input: "^sample_scan_1/while/Identity"
  attr {
    key: "_output_shapes"
    value {
      list {
        shape {
          dim {
            size: 2
          }
        }
      }
    }
  }
  attr {
    key: "dtype"
    value {
      type: DT_INT32
    }
  }
  attr {
    key: "value"
    value {
      tensor {
        dtype: DT_INT32
        tensor_shape {
          dim {
            size: 2
          }
        }
        tensor_content: "\001\000\000\000\000\000\000\000"
      }
    }
  }
}
node {
  name: "sample_scan_1/while/update_ancilla/einsum/transpose_1"
  op: "Transpose"
  input: "sample_scan_1/while/Identity_2"
  input: "sample_scan_1/while/update_ancilla/einsum/transpose_1/perm"
  attr {
    key: "T"
    value {
      type: DT_COMPLEX64
    }
  }
  attr {
    key: "Tperm"
    value {
      type: DT_INT32
    }
  }
  attr {
    key: "_output_shapes"
    value {
      list {
        shape {
          dim {
            size: 5
          }
          dim {
            size: 5
          }
        }
      }
    }
  }
}
node {
  name: "sample_scan_1/while/update_ancilla/einsum/MatMul"
  op: "MatMul"
  input: "sample_scan_1/while/update_ancilla/einsum/transpose"
  input: "sample_scan_1/while/update_ancilla/einsum/transpose_1"
  attr {
    key: "T"
    value {
      type: DT_COMPLEX64
    }
  }
  attr {
    key: "_output_shapes"
    value {
      list {
        shape {
          dim {
            size: 5
          }
          dim {
            size: 5
          }
        }
      }
    }
  }
  attr {
    key: "transpose_a"
    value {
      b: false
    }
  }
  attr {
    key: "transpose_b"
    value {
      b: false
    }
  }
}
node {
  name: "sample_scan_1/while/update_ancilla/einsum/transpose_2/perm"
  op: "Const"
  input: "^sample_scan_1/while/Identity"
  attr {
    key: "_output_shapes"
    value {
      list {
        shape {
          dim {
            size: 2
          }
        }
      }
    }
  }
  attr {
    key: "dtype"
    value {
      type: DT_INT32
    }
  }
  attr {
    key: "value"
    value {
      tensor {
        dtype: DT_INT32
        tensor_shape {
          dim {
            size: 2
          }
        }
        tensor_content: "\001\000\000\000\000\000\000\000"
      }
    }
  }
}
node {
  name: "sample_scan_1/while/update_ancilla/einsum/transpose_2"
  op: "Transpose"
  input: "sample_scan_1/while/update_ancilla/einsum/MatMul"
  input: "sample_scan_1/while/update_ancilla/einsum/transpose_2/perm"
  attr {
    key: "T"
    value {
      type: DT_COMPLEX64
    }
  }
  attr {
    key: "Tperm"
    value {
      type: DT_INT32
    }
  }
  attr {
    key: "_output_shapes"
    value {
      list {
        shape {
          dim {
            size: 5
          }
          dim {
            size: 5
          }
        }
      }
    }
  }
}
node {
  name: "sample_scan_1/while/update_ancilla/add"
  op: "Add"
  input: "sample_scan_1/while/Identity_2"
  input: "sample_scan_1/while/update_ancilla/einsum/transpose_2"
  attr {
    key: "T"
    value {
      type: DT_COMPLEX64
    }
  }
  attr {
    key: "_output_shapes"
    value {
      list {
        shape {
          dim {
            size: 5
          }
          dim {
            size: 5
          }
        }
      }
    }
  }
}
node {
  name: "sample_scan_1/while/update_ancilla/einsum_1/transpose/perm"
  op: "Const"
  input: "^sample_scan_1/while/Identity"
  attr {
    key: "_output_shapes"
    value {
      list {
        shape {
          dim {
            size: 1
          }
        }
      }
    }
  }
  attr {
    key: "dtype"
    value {
      type: DT_INT32
    }
  }
  attr {
    key: "value"
    value {
      tensor {
        dtype: DT_INT32
        tensor_shape {
          dim {
            size: 1
          }
        }
        int_val: 0
      }
    }
  }
}
node {
  name: "sample_scan_1/while/update_ancilla/einsum_1/transpose"
  op: "Transpose"
  input: "sample_scan_1/while/update_ancilla/Cast"
  input: "sample_scan_1/while/update_ancilla/einsum_1/transpose/perm"
  attr {
    key: "T"
    value {
      type: DT_COMPLEX64
    }
  }
  attr {
    key: "Tperm"
    value {
      type: DT_INT32
    }
  }
  attr {
    key: "_output_shapes"
    value {
      list {
        shape {
          dim {
            size: 5
          }
        }
      }
    }
  }
}
node {
  name: "sample_scan_1/while/update_ancilla/einsum_1/transpose_1/perm"
  op: "Const"
  input: "^sample_scan_1/while/Identity"
  attr {
    key: "_output_shapes"
    value {
      list {
        shape {
          dim {
            size: 2
          }
        }
      }
    }
  }
  attr {
    key: "dtype"
    value {
      type: DT_INT32
    }
  }
  attr {
    key: "value"
    value {
      tensor {
        dtype: DT_INT32
        tensor_shape {
          dim {
            size: 2
          }
        }
        tensor_content: "\000\000\000\000\001\000\000\000"
      }
    }
  }
}
node {
  name: "sample_scan_1/while/update_ancilla/einsum_1/transpose_1"
  op: "Transpose"
  input: "sample_scan_1/while/update_ancilla/Cast_2"
  input: "sample_scan_1/while/update_ancilla/einsum_1/transpose_1/perm"
  attr {
    key: "T"
    value {
      type: DT_COMPLEX64
    }
  }
  attr {
    key: "Tperm"
    value {
      type: DT_INT32
    }
  }
  attr {
    key: "_output_shapes"
    value {
      list {
        shape {
          dim {
            size: 5
          }
          dim {
            size: 5
          }
        }
      }
    }
  }
}
node {
  name: "sample_scan_1/while/update_ancilla/einsum_1/ExpandDims/dim"
  op: "Const"
  input: "^sample_scan_1/while/Identity"
  attr {
    key: "_output_shapes"
    value {
      list {
        shape {
        }
      }
    }
  }
  attr {
    key: "dtype"
    value {
      type: DT_INT32
    }
  }
  attr {
    key: "value"
    value {
      tensor {
        dtype: DT_INT32
        tensor_shape {
        }
        int_val: -1
      }
    }
  }
}
node {
  name: "sample_scan_1/while/update_ancilla/einsum_1/ExpandDims"
  op: "ExpandDims"
  input: "sample_scan_1/while/update_ancilla/einsum_1/transpose"
  input: "sample_scan_1/while/update_ancilla/einsum_1/ExpandDims/dim"
  attr {
    key: "T"
    value {
      type: DT_COMPLEX64
    }
  }
  attr {
    key: "Tdim"
    value {
      type: DT_INT32
    }
  }
  attr {
    key: "_output_shapes"
    value {
      list {
        shape {
          dim {
            size: 5
          }
          dim {
            size: 1
          }
        }
      }
    }
  }
}
node {
  name: "sample_scan_1/while/update_ancilla/einsum_1/ExpandDims_1/dim"
  op: "Const"
  input: "^sample_scan_1/while/Identity"
  attr {
    key: "_output_shapes"
    value {
      list {
        shape {
        }
      }
    }
  }
  attr {
    key: "dtype"
    value {
      type: DT_INT32
    }
  }
  attr {
    key: "value"
    value {
      tensor {
        dtype: DT_INT32
        tensor_shape {
        }
        int_val: -1
      }
    }
  }
}
node {
  name: "sample_scan_1/while/update_ancilla/einsum_1/ExpandDims_1"
  op: "ExpandDims"
  input: "sample_scan_1/while/update_ancilla/einsum_1/ExpandDims"
  input: "sample_scan_1/while/update_ancilla/einsum_1/ExpandDims_1/dim"
  attr {
    key: "T"
    value {
      type: DT_COMPLEX64
    }
  }
  attr {
    key: "Tdim"
    value {
      type: DT_INT32
    }
  }
  attr {
    key: "_output_shapes"
    value {
      list {
        shape {
          dim {
            size: 5
          }
          dim {
            size: 1
          }
          dim {
            size: 1
          }
        }
      }
    }
  }
}
node {
  name: "sample_scan_1/while/update_ancilla/einsum_1/ExpandDims_2/dim"
  op: "Const"
  input: "^sample_scan_1/while/Identity"
  attr {
    key: "_output_shapes"
    value {
      list {
        shape {
        }
      }
    }
  }
  attr {
    key: "dtype"
    value {
      type: DT_INT32
    }
  }
  attr {
    key: "value"
    value {
      tensor {
        dtype: DT_INT32
        tensor_shape {
        }
        int_val: 0
      }
    }
  }
}
node {
  name: "sample_scan_1/while/update_ancilla/einsum_1/ExpandDims_2"
  op: "ExpandDims"
  input: "sample_scan_1/while/update_ancilla/einsum_1/transpose_1"
  input: "sample_scan_1/while/update_ancilla/einsum_1/ExpandDims_2/dim"
  attr {
    key: "T"
    value {
      type: DT_COMPLEX64
    }
  }
  attr {
    key: "Tdim"
    value {
      type: DT_INT32
    }
  }
  attr {
    key: "_output_shapes"
    value {
      list {
        shape {
          dim {
            size: 1
          }
          dim {
            size: 5
          }
          dim {
            size: 5
          }
        }
      }
    }
  }
}
node {
  name: "sample_scan_1/while/update_ancilla/einsum_1/Mul"
  op: "Mul"
  input: "sample_scan_1/while/update_ancilla/einsum_1/ExpandDims_1"
  input: "sample_scan_1/while/update_ancilla/einsum_1/ExpandDims_2"
  attr {
    key: "T"
    value {
      type: DT_COMPLEX64
    }
  }
  attr {
    key: "_output_shapes"
    value {
      list {
        shape {
          dim {
            size: 5
          }
          dim {
            size: 5
          }
          dim {
            size: 5
          }
…
  attr {
    key: "value"
    value {
      tensor {
        dtype: DT_COMPLEX64
        tensor_shape {
        }
        scomplex_val: 0.009999999776482582
        scomplex_val: 0.0
      }
    }
  }
}
node {
  name: "sample_scan_7/while/update_ancilla/mul_1"
  op: "Mul"
  input: "sample_scan_7/while/update_ancilla/mul_1/x"
  input: "sample_scan_7/while/update_ancilla/sub"
  attr {
    key: "T"
    value {
      type: DT_COMPLEX64
    }
  }
  attr {
    key: "_output_shapes"
    value {
      list {
        shape {
          dim {
            size: 5
          }
          dim {
            size: 5
          }
        }
      }
    }
  }
}
node {
  name: "sample_scan_7/while/update_ancilla/einsum/transpose/perm"
  op: "Const"
  input: "^sample_scan_7/while/Identity"
  attr {
    key: "_output_shapes"
    value {
      list {
        shape {
          dim {
            size: 2
          }
        }
      }
    }
  }
  attr {
    key: "dtype"
    value {
      type: DT_INT32
    }
  }
  attr {
    key: "value"
    value {
      tensor {
        dtype: DT_INT32
        tensor_shape {
          dim {
            size: 2
          }
        }
        tensor_content: "\000\000\000\000\001\000\000\000"
      }
    }
  }
}
node {
  name: "sample_scan_7/while/update_ancilla/einsum/transpose"
  op: "Transpose"
  input: "sample_scan_7/while/update_ancilla/mul_1"
  input: "sample_scan_7/while/update_ancilla/einsum/transpose/perm"
  attr {
    key: "T"
    value {
      type: DT_COMPLEX64
    }
  }
  attr {
    key: "Tperm"
    value {
      type: DT_INT32
    }
  }
  attr {
    key: "_output_shapes"
    value {
      list {
        shape {
          dim {
            size: 5
          }
          dim {
            size: 5
          }
        }
      }
    }
  }
}
node {
  name: "sample_scan_7/while/update_ancilla/einsum/transpose_1/perm"
  op: "Const"
  input: "^sample_scan_7/while/Identity"
  attr {
    key: "_output_shapes"
    value {
      list {
        shape {
          dim {
            size: 2
          }
        }
      }
    }
  }
  attr {
    key: "dtype"
    value {
      type: DT_INT32
    }
  }
  attr {
    key: "value"
    value {
      tensor {
        dtype: DT_INT32
        tensor_shape {
          dim {
            size: 2
          }
        }
        tensor_content: "\001\000\000\000\000\000\000\000"
      }
    }
  }
}
node {
  name: "sample_scan_7/while/update_ancilla/einsum/transpose_1"
  op: "Transpose"
  input: "sample_scan_7/while/Identity_2"
  input: "sample_scan_7/while/update_ancilla/einsum/transpose_1/perm"
  attr {
    key: "T"
    value {
      type: DT_COMPLEX64
    }
  }
  attr {
    key: "Tperm"
    value {
      type: DT_INT32
    }
  }
  attr {
    key: "_output_shapes"
    value {
      list {
        shape {
          dim {
            size: 5
          }
          dim {
            size: 5
          }
        }
      }
    }
  }
}
node {
  name: "sample_scan_7/while/update_ancilla/einsum/MatMul"
  op: "MatMul"
  input: "sample_scan_7/while/update_ancilla/einsum/transpose"
  input: "sample_scan_7/while/update_ancilla/einsum/transpose_1"
  attr {
    key: "T"
    value {
      type: DT_COMPLEX64
    }
  }
  attr {
    key: "_output_shapes"
    value {
      list {
        shape {
          dim {
            size: 5
          }
          dim {
            size: 5
          }
        }
      }
    }
  }
  attr {
    key: "transpose_a"
    value {
      b: false
    }
  }
  attr {
    key: "transpose_b"
    value {
      b: false
    }
  }
}
node {
  name: "sample_scan_7/while/update_ancilla/einsum/transpose_2/perm"
  op: "Const"
  input: "^sample_scan_7/while/Identity"
  attr {
    key: "_output_shapes"
    value {
      list {
        shape {
          dim {
            size: 2
          }
        }
      }
    }
  }
  attr {
    key: "dtype"
    value {
      type: DT_INT32
    }
  }
  attr {
    key: "value"
    value {
      tensor {
        dtype: DT_INT32
        tensor_shape {
          dim {
            size: 2
          }
        }
        tensor_content: "\001\000\000\000\000\000\000\000"
      }
    }
  }
}
node {
  name: "sample_scan_7/while/update_ancilla/einsum/transpose_2"
  op: "Transpose"
  input: "sample_scan_7/while/update_ancilla/einsum/MatMul"
  input: "sample_scan_7/while/update_ancilla/einsum/transpose_2/perm"
  attr {
    key: "T"
    value {
      type: DT_COMPLEX64
    }
  }
  attr {
    key: "Tperm"
    value {
      type: DT_INT32
    }
  }
  attr {
    key: "_output_shapes"
    value {
      list {
        shape {
          dim {
            size: 5
          }
          dim {
            size: 5
          }
        }
      }
    }
  }
}
node {
  name: "sample_scan_7/while/update_ancilla/add"
  op: "Add"
  input: "sample_scan_7/while/Identity_2"
  input: "sample_scan_7/while/update_ancilla/einsum/transpose_2"
  attr {
    key: "T"
    value {
      type: DT_COMPLEX64
    }
  }
  attr {
    key: "_output_shapes"
    value {
      list {
        shape {
          dim {
            size: 5
          }
          dim {
            size: 5
          }
        }
      }
    }
  }
}
node {
  name: "sample_scan_7/while/update_ancilla/einsum_1/transpose/perm"
  op: "Const"
  input: "^sample_scan_7/while/Identity"
  attr {
    key: "_output_shapes"
    value {
      list {
        shape {
          dim {
            size: 1
          }
        }
      }
    }
  }
  attr {
    key: "dtype"
    value {
      type: DT_INT32
    }
  }
  attr {
    key: "value"
    value {
      tensor {
        dtype: DT_INT32
        tensor_shape {
          dim {
            size: 1
          }
        }
        int_val: 0
      }
    }
  }
}
node {
  name: "sample_scan_7/while/update_ancilla/einsum_1/transpose"
  op: "Transpose"
  input: "sample_scan_7/while/update_ancilla/Cast"
  input: "sample_scan_7/while/update_ancilla/einsum_1/transpose/perm"
  attr {
    key: "T"
    value {
      type: DT_COMPLEX64
    }
  }
  attr {
    key: "Tperm"
    value {
      type: DT_INT32
    }
  }
  attr {
    key: "_output_shapes"
    value {
      list {
        shape {
          dim {
            size: 5
          }
        }
      }
    }
  }
}
node {
  name: "sample_scan_7/while/update_ancilla/einsum_1/transpose_1/perm"
  op: "Const"
  input: "^sample_scan_7/while/Identity"
  attr {
    key: "_output_shapes"
    value {
      list {
        shape {
          dim {
            size: 2
          }
        }
      }
    }
  }
  attr {
    key: "dtype"
    value {
      type: DT_INT32
    }
  }
  attr {
    key: "value"
    value {
      tensor {
        dtype: DT_INT32
        tensor_shape {
          dim {
            size: 2
          }
        }
        tensor_content: "\000\000\000\000\001\000\000\000"
      }
    }
  }
}
node {
  name: "sample_scan_7/while/update_ancilla/einsum_1/transpose_1"
  op: "Transpose"
  input: "sample_scan_7/while/update_ancilla/Cast_2"
  input: "sample_scan_7/while/update_ancilla/einsum_1/transpose_1/perm"
  attr {
    key: "T"
    value {
      type: DT_COMPLEX64
    }
  }
  attr {
    key: "Tperm"
    value {
      type: DT_INT32
    }
  }
  attr {
    key: "_output_shapes"
    value {
      list {
        shape {
          dim {
            size: 5
          }
          dim {
            size: 5
          }
        }
      }
    }
  }
}
node {
  name: "sample_scan_7/while/update_ancilla/einsum_1/ExpandDims/dim"
  op: "Const"
  input: "^sample_scan_7/while/Identity"
  attr {
    key: "_output_shapes"
    value {
      list {
        shape {
        }
      }
    }
  }
  attr {
    key: "dtype"
    value {
      type: DT_INT32
    }
  }
  attr {
    key: "value"
    value {
      tensor {
        dtype: DT_INT32
        tensor_shape {
        }
        int_val: -1
      }
    }
  }
}
node {
  name: "sample_scan_7/while/update_ancilla/einsum_1/ExpandDims"
  op: "ExpandDims"
  input: "sample_scan_7/while/update_ancilla/einsum_1/transpose"
  input: "sample_scan_7/while/update_ancilla/einsum_1/ExpandDims/dim"
  attr {
    key: "T"
    value {
      type: DT_COMPLEX64
    }
  }
  attr {
    key: "Tdim"
    value {
      type: DT_INT32
    }
  }
  attr {
    key: "_output_shapes"
    value {
      list {
        shape {
          dim {
            size: 5
          }
          dim {
            size: 1
          }
        }
      }
    }
  }
}
node {
  name: "sample_scan_7/while/update_ancilla/einsum_1/ExpandDims_1/dim"
  op: "Const"
  input: "^sample_scan_7/while/Identity"
  attr {
    key: "_output_shapes"
    value {
      list {
        shape {
        }
      }
    }
  }
  attr {
    key: "dtype"
    value {
      type: DT_INT32
    }
  }
  attr {
    key: "value"
    value {
      tensor {
        dtype: DT_INT32
        tensor_shape {
        }
        int_val: -1
      }
    }
  }
}
node {
  name: "sample_scan_7/while/update_ancilla/einsum_1/ExpandDims_1"
  op: "ExpandDims"
  input: "sample_scan_7/while/update_ancilla/einsum_1/ExpandDims"
  input: "sample_scan_7/while/update_ancilla/einsum_1/ExpandDims_1/dim"
  attr {
    key: "T"
    value {
      type: DT_COMPLEX64
    }
  }
  attr {
    key: "Tdim"
    value {
      type: DT_INT32
    }
  }
  attr {
    key: "_output_shapes"
    value {
      list {
        shape {
          dim {
            size: 5
          }
          dim {
            size: 1
          }
          dim {
            size: 1
          }
        }
      }
    }
  }
}
node {
  name: "sample_scan_7/while/update_ancilla/einsum_1/ExpandDims_2/dim"
  op: "Const"
  input: "^sample_scan_7/while/Identity"
  attr {
    key: "_output_shapes"
    value {
      list {
        shape {
        }
      }
    }
  }
  attr {
    key: "dtype"
    value {
      type: DT_INT32
    }
  }
  attr {
    key: "value"
    value {
      tensor {
        dtype: DT_INT32
        tensor_shape {
        }
        int_val: 0
      }
    }
  }
}
node {
  name: "sample_scan_7/while/update_ancilla/einsum_1/ExpandDims_2"
  op: "ExpandDims"
  input: "sample_scan_7/while/update_ancilla/einsum_1/transpose_1"
  input: "sample_scan_7/while/update_ancilla/einsum_1/ExpandDims_2/dim"
  attr {
    key: "T"
    value {
      type: DT_COMPLEX64
    }
  }
  attr {
    key: "Tdim"
    value {
      type: DT_INT32
    }
  }
  attr {
    key: "_output_shapes"
    value {
      list {
        shape {
          dim {
            size: 1
          }
          dim {
            size: 5
          }
          dim {
            size: 5
          }
        }
      }
    }
  }
}
node {
  name: "sample_scan_7/while/update_ancilla/einsum_1/Mul"
  op: "Mul"
  input: "sample_scan_7/while/update_ancilla/einsum_1/ExpandDims_1"
  input: "sample_scan_7/while/update_ancilla/einsum_1/ExpandDims_2"
  attr {
    key: "T"
    value {
      type: DT_COMPLEX64
    }
  }
  attr {
    key: "_output_shapes"
    value {
      list {
        shape {
          dim {
            size: 5
          }
          dim {
            size: 5
          }
          dim {
            size: 5
          }
        }
      }
    }
  }
}
node {
  name: "sample_scan_7/while/update_ancilla/einsum_1/transpose_2/perm"
  op: "Const"
  input: "^sample_scan_7/while/Identity"
  attr {
    key: "_output_shapes"
    value {
      list {
        shape {
          dim {
            size: 3
          }
        }
      }
    }
  }
  attr {
    key: "dtype"
    value {
      type: DT_INT32
    }
  }
  attr {
    key: "value"
    value {
      tensor {
        dtype: DT_INT32
        tensor_shape {
          dim {
            size: 3
          }
        }
        tensor_content: "\000\000\000\000\001\000\000\000\002\000\000\000"
      }
    }
  }
}
node {
  name: "sample_scan_7/while/update_ancilla/einsum_1/transpose_2"
  op: "Transpose"
  input: "sample_scan_7/while/update_ancilla/einsum_1/Mul"
  input: "sample_scan_7/while/update_ancilla/einsum_1/transpose_2/perm"
  attr {
    key: "T"
    value {
      type: DT_COMPLEX64
    }
  }
  attr {
    key: "Tperm"
    value {
      type: DT_INT32
    }
  }
  attr {
    key: "_output_shapes"
    value {
      list {
        shape {
          dim {
            size: 5
          }
          dim {
            size: 5
          }
          dim {
            size: 5
          }
        }
      }
    }
  }
}
node {
  name: "sample_scan_7/while/update_ancilla/einsum_1/transpose_3/perm"
  op: "Const"
  input: "^sample_scan_7/while/Identity"
  attr {
    key: "_output_shapes"
    value {
      list {
        shape {
          dim {
            size: 2
          }
        }
      }
    }
  }
  attr {
    key: "dtype"
    value {
      type: DT_INT32
    }
  }
  attr {
    key: "value"
    value {
      tensor {
        dtype: DT_INT32
        tensor_shape {
          dim {
            size: 2
          }
        }
        tensor_content: "\000\000\000\000\001\000\000\000"
      }
    }
  }
}
node {
  name: "sample_scan_7/while/update_ancilla/einsum_1/transpose_3"
  op: "Transpose"
  input: "sample_scan_7/while/Identity_2"
  input: "sample_scan_7/while/update_ancilla/einsum_1/transpose_3/perm"
  attr {
    key: "T"
    value {
      type: DT_COMPLEX64
    }
  }
  attr {
    key: "Tperm"
    value {
      type: DT_INT32
    }
  }
  attr {
    key: "_output_shapes"
    value {
      list {
        shape {
          dim {
            size: 5
          }
          dim {
            size: 5
          }
        }
      }
    }
  }
}
node {
  name: "sample_scan_7/while/update_ancilla/einsum_1/Reshape/shape"
  op: "Const"
  input: "^sample_scan_7/while/Identity"
  attr {
    key: "_output_shapes"
    value {
      list {
        shape {
          dim {
            size: 3
          }
        }
      }
    }
  }
  attr {
    key: "dtype"
    value {
      type: DT_INT32
    }
  }
  attr {
    key: "value"
    value {
      tensor {
        dtype: DT_INT32
        tensor_shape {
          dim {
            size: 3
          }
        }
        tensor_content: "\005\000\000\000\005\000\000\000\001\000\000\000"
      }
    }
  }
}
node {
  name: "sample_scan_7/while/update_ancilla/einsum_1/Reshape"
  op: "Reshape"
  input: "sample_scan_7/while/update_ancilla/einsum_1/transpose_3"
  input: "sample_scan_7/while/update_ancilla/einsum_1/Reshape/shape"
  attr {
    key: "T"
    value {
      type: DT_COMPLEX64
    }
  }
  attr {
    key: "Tshape"
    value {
      type: DT_INT32
    }
  }
  attr {
    key: "_output_shapes"
    value {
      list {
        shape {
          dim {
            size: 5
          }
          dim {
            size: 5
          }
          dim {
            size: 1
          }
        }
      }
    }
  }
}
node {
  name: "sample_scan_7/while/update_ancilla/einsum_1/MatMul"
  op: "BatchMatMul"
  input: "sample_scan_7/while/update_ancilla/einsum_1/transpose_2"
  input: "sample_scan_7/while/update_ancilla/einsum_1/Reshape"
  attr {
    key: "T"
    value {
      type: DT_COMPLEX64
    }
  }
  attr {
    key: "_output_shapes"
    value {
      list {
        shape {
          dim {
            size: 5
          }
          dim {
            size: 5
          }
          dim {
            size: 1
          }
        }
      }
    }
  }
  attr {
    key: "adj_x"
    value {
      b: false
    }
  }
  attr {
    key: "adj_y"
    value {
      b: false
    }
  }
}
node {
  name: "sample_scan_7/while/update_ancilla/einsum_1/Reshape_1/shape"
  op: "Const"
  input: "^sample_scan_7/while/Identity"
  attr {
    key: "_output_shapes"
    value {
      list {
        shape {
          dim {
            size: 2
          }
        }
      }
    }
  }
  attr {
    key: "dtype"
    value {
      type: DT_INT32
    }
  }
  attr {
    key: "value"
    value {
      tensor {
        dtype: DT_INT32
        tensor_shape {
          dim {
            size: 2
          }
        }
        tensor_content: "\005\000\000\000\005\000\000\000"
      }
    }
  }
}
node {
  name: "sample_scan_7/while/update_ancilla/einsum_1/Reshape_1"
  op: "Reshape"
  input: "sample_scan_7/while/update_ancilla/einsum_1/MatMul"
  input: "sample_scan_7/while/update_ancilla/einsum_1/Reshape_1/shape"
  attr {
    key: "T"
    value {
      type: DT_COMPLEX64
    }
  }
  attr {
    key: "Tshape"
    value {
      type: DT_INT32
    }
  }
  attr {
    key: "_output_shapes"
    value {
      list {
        shape {
          dim {
            size: 5
          }
          dim {
            size: 5
          }
        }
      }
    }
  }
}
node {
  name: "sample_scan_7/while/update_ancilla/einsum_1/transpose_4/perm"
  op: "Const"
  input: "^sample_scan_7/while/Identity"
  attr {
    key: "_output_shapes"
    value {
      list {
        shape {
          dim {
            size: 2
          }
        }
      }
    }
  }
  attr {
    key: "dtype"
    value {
      type: DT_INT32
    }
  }
  attr {
    key: "value"
    value {
      tensor {
        dtype: DT_INT32
        tensor_shape {
          dim {
            size: 2
          }
        }
        tensor_content: "\000\000\000\000\001\000\000\000"
      }
    }
  }
}
node {
  name: "sample_scan_7/while/update_ancilla/einsum_1/transpose_4"
  op: "Transpose"
  input: "sample_scan_7/while/update_ancilla/einsum_1/Reshape_1"
  input: "sample_scan_7/while/update_ancilla/einsum_1/transpose_4/perm"
  attr {
    key: "T"
    value {
      type: DT_COMPLEX64
    }
  }
  attr {
    key: "Tperm"
    value {
      type: DT_INT32
    }
  }
  attr {
    key: "_output_shapes"
    value {
      list {
        shape {
          dim {
            size: 5
          }
          dim {
            size: 5
          }
        }
      }
    }
  }
}
node {
  name: "sample_scan_7/while/update_ancilla/mul_2/x"
  op: "Const"
  input: "^sample_scan_7/while/Identity"
  attr {
    key: "_output_shapes"
    value {
      list {
        shape {
        }
      }
    }
  }
  attr {
    key: "dtype"
    value {
      type: DT_COMPLEX64
    }
  }
  attr {
    key: "value"
    value {
      tensor {
        dtype: DT_COMPLEX64
        tensor_shape {
        }
        scomplex_val: 0.009999999776482582
        scomplex_val: 0.0
      }
    }
  }
}
node {
  name: "sample_scan_7/while/update_ancilla/mul_2"
  op: "Mul"
  input: "sample_scan_7/while/update_ancilla/mul_2/x"
  input: "sample_scan_7/while/update_ancilla/einsum_1/transpose_4"
  attr {
    key: "T"
    value {
      type: DT_COMPLEX64
    }
  }
  attr {
    key: "_output_shapes"
    value {
      list {
        shape {
          dim {
            size: 5
          }
          dim {
            size: 5
          }
        }
      }
    }
  }
}
node {
  name: "sample_scan_7/while/update_ancilla/add_1"
  op: "Add"
  input: "sample_scan_7/while/update_ancilla/add"
  input: "sample_scan_7/while/update_ancilla/mul_2"
  attr {
    key: "T"
    value {
      type: DT_COMPLEX64
    }
  }
  attr {
    key: "_output_shapes"
    value {
      list {
        shape {
          dim {
            size: 5
          }
          dim {
            size: 5
          }
        }
      }
    }
  }
}
node {
  name: "sample_scan_7/while/update_ancilla/normalize/Abs"
  op: "ComplexAbs"
  input: "sample_scan_7/while/update_ancilla/add_1"
  attr {
    key: "T"
    value {
      type: DT_COMPLEX64
    }
  }
  attr {
    key: "Tout"
    value {
      type: DT_FLOAT
    }
  }
  attr {
    key: "_output_shapes"
    value {
      list {
        shape {
          dim {
            size: 5
          }
          dim {
            size: 5
          }
        }
      }
    }
  }
}
node {
  name: "sample_scan_7/while/update_ancilla/normalize/Square"
  op: "Square"
  input: "sample_scan_7/while/update_ancilla/normalize/Abs"
  attr {
    key: "T"
    value {
      type: DT_FLOAT
    }
  }
  attr {
    key: "_output_shapes"
    value {
      list {
        shape {
          dim {
            size: 5
          }
          dim {
            size: 5
          }
        }
      }
    }
  }
}
node {
  name: "sample_scan_7/while/update_ancilla/normalize/Sum/reduction_indices"
  op: "Const"
  input: "^sample_scan_7/while/Identity"
  attr {
    key: "_output_shapes"
    value {
      list {
        shape {
        }
      }
    }
  }
  attr {
    key: "dtype"
    value {
      type: DT_INT32
    }
  }
  attr {
    key: "value"
    value {
      tensor {
        dtype: DT_INT32
        tensor_shape {
        }
        int_val: 1
      }
    }
  }
}
node {
  name: "sample_scan_7/while/update_ancilla/normalize/Sum"
  op: "Sum"
  input: "sample_scan_7/while/update_ancilla/normalize/Square"
  input: "sample_scan_7/while/update_ancilla/normalize/Sum/reduction_indices"
  attr {
    key: "T"
    value {
      type: DT_FLOAT
    }
  }
  attr {
    key: "Tidx"
    value {
      type: DT_INT32
    }
  }
  attr {
    key: "_output_shapes"
    value {
      list {
        shape {
          dim {
            size: 5
          }
          dim {
            size: 1
          }
        }
      }
    }
  }
  attr {
    key: "keep_dims"
    value {
      b: true
    }
  }
}
node {
  name: "sample_scan_7/while/update_ancilla/normalize/Maximum/y"
  op: "Const"
  input: "^sample_scan_7/while/Identity"
  attr {
    key: "_output_shapes"
    value {
      list {
        shape {
        }
      }
    }
  }
  attr {
    key: "dtype"
    value {
      type: DT_FLOAT
    }
  }
  attr {
    key: "value"
    value {
      tensor {
        dtype: DT_FLOAT
        tensor_shape {
        }
        float_val: 9.999999960041972e-13
      }
    }
  }
}
node {
  name: "sample_scan_7/while/update_ancilla/normalize/Maximum"
  op: "Maximum"
  input: "sample_scan_7/while/update_ancilla/normalize/Sum"
  input: "sample_scan_7/while/update_ancilla/normalize/Maximum/y"
  attr {
    key: "T"
    value {
      type: DT_FLOAT
    }
  }
  attr {
    key: "_output_shapes"
    value {
      list {
        shape {
          dim {
            size: 5
          }
          dim {
            size: 1
          }
        }
      }
    }
  }
}
node {
  name: "sample_scan_7/while/update_ancilla/normalize/Rsqrt"
  op: "Rsqrt"
  input: "sample_scan_7/while/update_ancilla/normalize/Maximum"
  attr {
    key: "T"
    value {
      type: DT_FLOAT
    }
  }
  attr {
    key: "_output_shapes"
    value {
      list {
        shape {
          dim {
            size: 5
          }
          dim {
            size: 1
          }
        }
      }
    }
  }
}
node {
  name: "sample_scan_7/while/update_ancilla/normalize/Cast"
  op: "Cast"
  input: "sample_scan_7/while/update_ancilla/normalize/Rsqrt"
  attr {
    key: "DstT"
    value {
      type: DT_COMPLEX64
    }
  }
  attr {
    key: "SrcT"
    value {
      type: DT_FLOAT
    }
  }
  attr {
    key: "_output_shapes"
    value {
      list {
        shape {
          dim {
            size: 5
          }
          dim {
            size: 1
          }
        }
      }
    }
  }
}
node {
  name: "sample_scan_7/while/update_ancilla/normalize/Mul"
  op: "Mul"
  input: "sample_scan_7/while/update_ancilla/add_1"
  input: "sample_scan_7/while/update_ancilla/normalize/Cast"
  attr {
    key: "T"
    value {
      type: DT_COMPLEX64
    }
  }
  attr {
    key: "_output_shapes"
    value {
      list {
        shape {
          dim {
            size: 5
          }
          dim {
            size: 5
          }
        }
      }
    }
  }
}
node {
  name: "sample_scan_7/while/add_1"
  op: "Add"
  input: "sample_scan_7/while/Identity_3"
  input: "sample_scan_7/while/TensorArrayReadV3"
  attr {
    key: "T"
    value {
      type: DT_FLOAT
    }
  }
  attr {
    key: "_output_shapes"
    value {
      list {
        shape {
          dim {
            size: 5
          }
        }
      }
    }
  }
}
node {
  name: "sample_scan_7/while/expectation/Cast"
  op: "Cast"
  input: "sample_scan_7/while/update_ancilla/Cast_2/Enter"
  input: "^sample_scan_7/while/Identity"
  attr {
    key: "DstT"
    value {
      type: DT_COMPLEX64
    }
  }
  attr {
    key: "SrcT"
    value {
      type: DT_FLOAT
    }
  }
  attr {
    key: "_output_shapes"
    value {
      list {
        shape {
          dim {
            size: 5
          }
          dim {
            size: 5
          }
        }
      }
    }
  }
}
node {
  name: "sample_scan_7/while/expectation/Conj"
  op: "Conj"
  input: "sample_scan_7/while/update_ancilla/normalize/Mul"
  attr {
    key: "T"
    value {
      type: DT_COMPLEX64
    }
  }
  attr {
    key: "_output_shapes"
    value {
      list {
        shape {
          dim {
            size: 5
          }
          dim {
            size: 5
          }
        }
      }
    }
  }
}
node {
  name: "sample_scan_7/while/expectation/einsum/transpose/perm"
  op: "Const"
  input: "^sample_scan_7/while/Identity"
  attr {
    key: "_output_shapes"
    value {
      list {
        shape {
          dim {
            size: 2
          }
        }
      }
    }
  }
  attr {
    key: "dtype"
    value {
      type: DT_INT32
    }
  }
  attr {
    key: "value"
    value {
      tensor {
        dtype: DT_INT32
        tensor_shape {
          dim {
            size: 2
          }
        }
        tensor_content: "\000\000\000\000\001\000\000\000"
      }
    }
  }
}
node {
  name: "sample_scan_7/while/expectation/einsum/transpose"
  op: "Transpose"
  input: "sample_scan_7/while/expectation/Conj"
  input: "sample_scan_7/while/expectation/einsum/transpose/perm"
  attr {
    key: "T"
    value {
      type: DT_COMPLEX64
    }
  }
  attr {
    key: "Tperm"
    value {
      type: DT_INT32
    }
  }
  attr {
    key: "_output_shapes"
    value {
      list {
        shape {
          dim {
            size: 5
          }
          dim {
            size: 5
          }
        }
      }
    }
  }
}
node {
  name: "sample_scan_7/while/expectation/einsum/transpose_1/perm"
  op: "Const"
  input: "^sample_scan_7/while/Identity"
  attr {
    key: "_output_shapes"
    value {
      list {
        shape {
          dim {
            size: 2
          }
        }
      }
    }
  }
  attr {
    key: "dtype"
    value {
      type: DT_INT32
    }
  }
  attr {
    key: "value"
    value {
      tensor {
        dtype: DT_INT32
        tensor_shape {
          dim {
            size: 2
          }
        }
        tensor_content: "\000\000\000\000\001\000\000\000"
      }
    }
  }
}
node {
  name: "sample_scan_7/while/expectation/einsum/transpose_1"
  op: "Transpose"
  input: "sample_scan_7/while/expectation/Cast"
  input: "sample_scan_7/while/expectation/einsum/transpose_1/perm"
  attr {
    key: "T"
    value {
      type: DT_COMPLEX64
    }
  }
  attr {
    key: "Tperm"
    value {
      type: DT_INT32
    }
  }
  attr {
    key: "_output_shapes"
    value {
      list {
        shape {
          dim {
            size: 5
          }
          dim {
            size: 5
          }
        }
      }
    }
  }
}
node {
  name: "sample_scan_7/while/expectation/einsum/MatMul"
  op: "MatMul"
  input: "sample_scan_7/while/expectation/einsum/transpose"
  input: "sample_scan_7/while/expectation/einsum/transpose_1"
  attr {
    key: "T"
    value {
      type: DT_COMPLEX64
    }
  }
  attr {
    key: "_output_shapes"
    value {
      list {
        shape {
          dim {
            size: 5
          }
          dim {
            size: 5
          }
        }
      }
    }
  }
  attr {
    key: "transpose_a"
    value {
      b: false
    }
  }
  attr {
    key: "transpose_b"
    value {
      b: false
    }
  }
}
node {
  name: "sample_scan_7/while/expectation/einsum/transpose_2/perm"
  op: "Const"
  input: "^sample_scan_7/while/Identity"
  attr {
    key: "_output_shapes"
    value {
      list {
        shape {
          dim {
            size: 2
          }
        }
      }
    }
  }
  attr {
    key: "dtype"
    value {
      type: DT_INT32
    }
  }
  attr {
    key: "value"
    value {
      tensor {
        dtype: DT_INT32
        tensor_shape {
          dim {
            size: 2
          }
        }
        tensor_content: "\000\000\000\000\001\000\000\000"
      }
    }
  }
}
node {
  name: "sample_scan_7/while/expectation/einsum/transpose_2"
  op: "Transpose"
  input: "sample_scan_7/while/expectation/einsum/MatMul"
  input: "sample_scan_7/while/expectation/einsum/transpose_2/perm"
  attr {
    key: "T"
    value {
      type: DT_COMPLEX64
    }
  }
  attr {
    key: "Tperm"
    value {
      type: DT_INT32
    }
  }
  attr {
    key: "_output_shapes"
    value {
      list {
        shape {
          dim {
            size: 5
          }
          dim {
            size: 5
          }
        }
      }
    }
  }
}
node {
  name: "sample_scan_7/while/expectation/einsum/transpose_3/perm"
  op: "Const"
  input: "^sample_scan_7/while/Identity"
  attr {
    key: "_output_shapes"
    value {
      list {
        shape {
          dim {
            size: 2
          }
        }
      }
    }
  }
  attr {
    key: "dtype"
    value {
      type: DT_INT32
    }
  }
  attr {
    key: "value"
    value {
      tensor {
        dtype: DT_INT32
        tensor_shape {
          dim {
            size: 2
          }
        }
        tensor_content: "\000\000\000\000\001\000\000\000"
      }
    }
  }
}
node {
  name: "sample_scan_7/while/expectation/einsum/transpose_3"
  op: "Transpose"
  input: "sample_scan_7/while/update_ancilla/normalize/Mul"
  input: "sample_scan_7/while/expectation/einsum/transpose_3/perm"
  attr {
    key: "T"
    value {
      type: DT_COMPLEX64
    }
  }
  attr {
    key: "Tperm"
    value {
      type: DT_INT32
    }
  }
  attr {
    key: "_output_shapes"
    value {
      list {
        shape {
          dim {
            size: 5
          }
          dim {
            size: 5
          }
        }
      }
    }
  }
}
node {
  name: "sample_scan_7/while/expectation/einsum/Reshape/shape"
  op: "Const"
  input: "^sample_scan_7/while/Identity"
  attr {
    key: "_output_shapes"
    value {
      list {
        shape {
          dim {
            size: 3
          }
        }
      }
    }
  }
  attr {
    key: "dtype"
    value {
      type: DT_INT32
    }
  }
  attr {
    key: "value"
    value {
      tensor {
        dtype: DT_INT32
        tensor_shape {
          dim {
            size: 3
          }
        }
        tensor_content: "\005\000\000\000\001\000\000\000\005\000\000\000"
      }
    }
  }
}
node {
  name: "sample_scan_7/while/expectation/einsum/Reshape"
  op: "Reshape"
  input: "sample_scan_7/while/expectation/einsum/transpose_2"
  input: "sample_scan_7/while/expectation/einsum/Reshape/shape"
  attr {
    key: "T"
    value {
      type: DT_COMPLEX64
    }
  }
  attr {
    key: "Tshape"
    value {
      type: DT_INT32
    }
  }
  attr {
    key: "_output_shapes"
    value {
      list {
        shape {
          dim {
            size: 5
          }
          dim {
            size: 1
          }
          dim {
            size: 5
          }
        }
      }
    }
  }
}
node {
  name: "sample_scan_7/while/expectation/einsum/Reshape_1/shape"
  op: "Const"
  input: "^sample_scan_7/while/Identity"
  attr {
    key: "_output_shapes"
    value {
      list {
        shape {
          dim {
            size: 3
          }
        }
      }
    }
  }
  attr {
    key: "dtype"
    value {
      type: DT_INT32
    }
  }
  attr {
    key: "value"
    value {
      tensor {
        dtype: DT_INT32
        tensor_shape {
          dim {
            size: 3
          }
        }
        tensor_content: "\005\000\000\000\005\000\000\000\001\000\000\000"
      }
    }
  }
}
node {
  name: "sample_scan_7/while/expectation/einsum/Reshape_1"
  op: "Reshape"
  input: "sample_scan_7/while/expectation/einsum/transpose_3"
  input: "sample_scan_7/while/expectation/einsum/Reshape_1/shape"
  attr {
    key: "T"
    value {
      type: DT_COMPLEX64
    }
  }
  attr {
    key: "Tshape"
    value {
      type: DT_INT32
    }
  }
  attr {
    key: "_output_shapes"
    value {
      list {
        shape {
          dim {
            size: 5
          }
          dim {
            size: 5
          }
          dim {
            size: 1
          }
        }
      }
    }
  }
}
node {
  name: "sample_scan_7/while/expectation/einsum/MatMul_1"
  op: "BatchMatMul"
  input: "sample_scan_7/while/expectation/einsum/Reshape"
  input: "sample_scan_7/while/expectation/einsum/Reshape_1"
  attr {
    key: "T"
    value {
      type: DT_COMPLEX64
    }
  }
  attr {
    key: "_output_shapes"
    value {
      list {
        shape {
          dim {
            size: 5
          }
          dim {
            size: 1
          }
          dim {
            size: 1
          }
        }
      }
    }
  }
  attr {
    key: "adj_x"
    value {
      b: false
    }
  }
  attr {
    key: "adj_y"
    value {
      b: false
    }
  }
}
node {
  name: "sample_scan_7/while/expectation/einsum/Reshape_2/shape"
  op: "Const"
  input: "^sample_scan_7/while/Identity"
  attr {
    key: "_output_shapes"
    value {
      list {
        shape {
          dim {
            size: 1
          }
        }
      }
    }
  }
  attr {
    key: "dtype"
    value {
      type: DT_INT32
    }
  }
  attr {
    key: "value"
    value {
      tensor {
        dtype: DT_INT32
        tensor_shape {
          dim {
            size: 1
          }
        }
        int_val: 5
      }
    }
  }
}
node {
  name: "sample_scan_7/while/expectation/einsum/Reshape_2"
  op: "Reshape"
  input: "sample_scan_7/while/expectation/einsum/MatMul_1"
  input: "sample_scan_7/while/expectation/einsum/Reshape_2/shape"
  attr {
    key: "T"
    value {
      type: DT_COMPLEX64
    }
  }
  attr {
    key: "Tshape"
    value {
      type: DT_INT32
    }
  }
  attr {
    key: "_output_shapes"
    value {
      list {
        shape {
          dim {
            size: 5
          }
        }
      }
    }
  }
}
node {
  name: "sample_scan_7/while/expectation/einsum/transpose_4/perm"
  op: "Const"
  input: "^sample_scan_7/while/Identity"
  attr {
    key: "_output_shapes"
    value {
      list {
        shape {
          dim {
            size: 1
          }
        }
      }
    }
  }
  attr {
    key: "dtype"
    value {
      type: DT_INT32
    }
  }
  attr {
    key: "value"
    value {
      tensor {
        dtype: DT_INT32
        tensor_shape {
          dim {
            size: 1
          }
        }
        int_val: 0
      }
    }
  }
}
node {
  name: "sample_scan_7/while/expectation/einsum/transpose_4"
  op: "Transpose"
  input: "sample_scan_7/while/expectation/einsum/Reshape_2"
  input: "sample_scan_7/while/expectation/einsum/transpose_4/perm"
  attr {
    key: "T"
    value {
      type: DT_COMPLEX64
    }
  }
  attr {
    key: "Tperm"
    value {
      type: DT_INT32
    }
  }
  attr {
    key: "_output_shapes"
    value {
      list {
        shape {
          dim {
            size: 5
          }
        }
      }
    }
  }
}
node {
  name: "sample_scan_7/while/expectation/Real"
  op: "Real"
  input: "sample_scan_7/while/expectation/einsum/transpose_4"
  attr {
    key: "T"
    value {
      type: DT_COMPLEX64
    }
  }
  attr {
    key: "Tout"
    value {
      type: DT_FLOAT
    }
  }
  attr {
    key: "_output_shapes"
    value {
      list {
        shape {
          dim {
            size: 5
          }
        }
      }
    }
  }
}
node {
  name: "sample_scan_7/while/expectation/mul/x"
  op: "Const"
  input: "^sample_scan_7/while/Identity"
  attr {
    key: "_output_shapes"
    value {
      list {
        shape {
        }
      }
    }
  }
  attr {
    key: "dtype"
    value {
      type: DT_FLOAT
    }
  }
  attr {
    key: "value"
    value {
      tensor {
        dtype: DT_FLOAT
        tensor_shape {
        }
        float_val: 2.0
      }
    }
  }
}
node {
  name: "sample_scan_7/while/expectation/mul"
  op: "Mul"
  input: "sample_scan_7/while/expectation/mul/x"
  input: "sample_scan_7/while/expectation/Real"
  attr {
    key: "T"
    value {
      type: DT_FLOAT
    }
  }
  attr {
    key: "_output_shapes"
    value {
      list {
        shape {
          dim {
            size: 5
          }
        }
      }
    }
  }
}
node {
  name: "sample_scan_7/while/add_2"
  op: "Add"
  input: "sample_scan_7/while/add_1"
  input: "sample_scan_7/while/expectation/mul"
  attr {
    key: "T"
    value {
      type: DT_FLOAT
    }
  }
  attr {
    key: "_output_shapes"
    value {
      list {
        shape {
          dim {
            size: 5
          }
        }
      }
    }
  }
}
node {
  name: "sample_scan_7/while/TensorArrayWrite/TensorArrayWriteV3"
  op: "TensorArrayWriteV3"
  input: "sample_scan_7/while/TensorArrayWrite/TensorArrayWriteV3/Enter"
  input: "sample_scan_7/while/Identity_1"
  input: "sample_scan_7/while/update_ancilla/normalize/Mul"
  input: "sample_scan_7/while/Identity_4"
  attr {
    key: "T"
    value {
      type: DT_COMPLEX64
    }
  }
  attr {
    key: "_class"
    value {
      list {
        s: "loc:@sample_scan_7/while/update_ancilla/normalize/Mul"
      }
    }
  }
  attr {
    key: "_output_shapes"
    value {
      list {
        shape {
        }
      }
    }
  }
}
node {
  name: "sample_scan_7/while/TensorArrayWrite/TensorArrayWriteV3/Enter"
  op: "Enter"
  input: "sample_scan_7/TensorArray_1"
  attr {
    key: "T"
    value {
      type: DT_RESOURCE
    }
  }
  attr {
    key: "_class"
    value {
      list {
        s: "loc:@sample_scan_7/while/update_ancilla/normalize/Mul"
      }
    }
  }
  attr {
    key: "_output_shapes"
    value {
      list {
        shape {
          dim {
            size: 2
          }
        }
      }
    }
  }
  attr {
    key: "frame_name"
    value {
      s: "sample_scan_7/while/while_context"
    }
  }
  attr {
    key: "is_constant"
    value {
      b: true
    }
  }
  attr {
    key: "parallel_iterations"
    value {
      i: 10
    }
  }
}
node {
  name: "sample_scan_7/while/TensorArrayWrite_1/TensorArrayWriteV3"
  op: "TensorArrayWriteV3"
  input: "sample_scan_7/while/TensorArrayWrite_1/TensorArrayWriteV3/Enter"
  input: "sample_scan_7/while/Identity_1"
  input: "sample_scan_7/while/add_2"
  input: "sample_scan_7/while/Identity_5"
  attr {
    key: "T"
    value {
      type: DT_FLOAT
    }
  }
  attr {
    key: "_class"
    value {
      list {
        s: "loc:@sample_scan_7/while/add_2"
      }
    }
  }
  attr {
    key: "_output_shapes"
    value {
      list {
        shape {
        }
      }
    }
  }
}
node {
  name: "sample_scan_7/while/TensorArrayWrite_1/TensorArrayWriteV3/Enter"
  op: "Enter"
  input: "sample_scan_7/TensorArray_2"
  attr {
    key: "T"
    value {
      type: DT_RESOURCE
    }
  }
  attr {
    key: "_class"
    value {
      list {
        s: "loc:@sample_scan_7/while/add_2"
      }
    }
  }
  attr {
    key: "_output_shapes"
    value {
      list {
        shape {
          dim {
            size: 2
          }
        }
      }
    }
  }
  attr {
    key: "frame_name"
    value {
      s: "sample_scan_7/while/while_context"
    }
  }
  attr {
    key: "is_constant"
    value {
      b: true
    }
  }
  attr {
    key: "parallel_iterations"
    value {
      i: 10
    }
  }
}
node {
  name: "sample_scan_7/while/add_3/y"
  op: "Const"
  input: "^sample_scan_7/while/Identity"
  attr {
    key: "_output_shapes"
    value {
      list {
        shape {
        }
      }
    }
  }
  attr {
    key: "dtype"
    value {
      type: DT_INT32
    }
  }
  attr {
    key: "value"
    value {
      tensor {
        dtype: DT_INT32
        tensor_shape {
        }
        int_val: 1
      }
    }
  }
}
node {
  name: "sample_scan_7/while/add_3"
  op: "Add"
  input: "sample_scan_7/while/Identity_1"
  input: "sample_scan_7/while/add_3/y"
  attr {
    key: "T"
    value {
      type: DT_INT32
    }
  }
  attr {
    key: "_output_shapes"
    value {
      list {
        shape {
        }
      }
    }
  }
}
node {
  name: "sample_scan_7/while/NextIteration"
  op: "NextIteration"
  input: "sample_scan_7/while/add"
  attr {
    key: "T"
    value {
      type: DT_INT32
    }
  }
  attr {
    key: "_output_shapes"
    value {
      list {
        shape {
        }
      }
    }
  }
}
node {
  name: "sample_scan_7/while/NextIteration_1"
  op: "NextIteration"
  input: "sample_scan_7/while/add_3"
  attr {
    key: "T"
    value {
      type: DT_INT32
    }
  }
  attr {
    key: "_output_shapes"
    value {
      list {
        shape {
        }
      }
    }
  }
}
node {
  name: "sample_scan_7/while/NextIteration_2"
  op: "NextIteration"
  input: "sample_scan_7/while/update_ancilla/normalize/Mul"
  attr {
    key: "T"
    value {
      type: DT_COMPLEX64
    }
  }
  attr {
    key: "_output_shapes"
    value {
      list {
        shape {
          dim {
            size: 5
          }
          dim {
            size: 5
          }
        }
      }
    }
  }
}
node {
  name: "sample_scan_7/while/NextIteration_3"
  op: "NextIteration"
  input: "sample_scan_7/while/add_2"
  attr {
    key: "T"
    value {
      type: DT_FLOAT
    }
  }
  attr {
    key: "_output_shapes"
    value {
      list {
        shape {
          dim {
            size: 5
          }
        }
      }
    }
  }
}
node {
  name: "sample_scan_7/while/NextIteration_4"
  op: "NextIteration"
  input: "sample_scan_7/while/TensorArrayWrite/TensorArrayWriteV3"
  attr {
    key: "T"
    value {
      type: DT_FLOAT
    }
  }
  attr {
    key: "_output_shapes"
    value {
      list {
        shape {
        }
      }
    }
  }
}
node {
  name: "sample_scan_7/while/NextIteration_5"
  op: "NextIteration"
  input: "sample_scan_7/while/TensorArrayWrite_1/TensorArrayWriteV3"
  attr {
    key: "T"
    value {
      type: DT_FLOAT
    }
  }
  attr {
    key: "_output_shapes"
    value {
      list {
        shape {
        }
      }
    }
  }
}
node {
  name: "sample_scan_7/while/Exit"
  op: "Exit"
  input: "sample_scan_7/while/Switch"
  attr {
    key: "T"
    value {
      type: DT_INT32
    }
  }
  attr {
    key: "_output_shapes"
    value {
      list {
        shape {
        }
      }
    }
  }
}
node {
  name: "sample_scan_7/while/Exit_1"
  op: "Exit"
  input: "sample_scan_7/while/Switch_1"
  attr {
    key: "T"
    value {
      type: DT_INT32
    }
  }
  attr {
    key: "_output_shapes"
    value {
      list {
        shape {
        }
      }
    }
  }
}
node {
  name: "sample_scan_7/while/Exit_2"
  op: "Exit"
  input: "sample_scan_7/while/Switch_2"
  attr {
    key: "T"
    value {
      type: DT_COMPLEX64
    }
  }
  attr {
    key: "_output_shapes"
    value {
      list {
        shape {
          dim {
            size: 5
          }
          dim {
            size: 5
          }
        }
      }
    }
  }
}
node {
  name: "sample_scan_7/while/Exit_3"
  op: "Exit"
  input: "sample_scan_7/while/Switch_3"
  attr {
    key: "T"
    value {
      type: DT_FLOAT
    }
  }
  attr {
    key: "_output_shapes"
    value {
      list {
        shape {
          dim {
            size: 5
          }
        }
      }
    }
  }
}
node {
  name: "sample_scan_7/while/Exit_4"
  op: "Exit"
  input: "sample_scan_7/while/Switch_4"
  attr {
    key: "T"
    value {
      type: DT_FLOAT
    }
  }
  attr {
    key: "_output_shapes"
    value {
      list {
        shape {
        }
      }
    }
  }
}
node {
  name: "sample_scan_7/while/Exit_5"
  op: "Exit"
  input: "sample_scan_7/while/Switch_5"
  attr {
    key: "T"
    value {
      type: DT_FLOAT
    }
  }
  attr {
    key: "_output_shapes"
    value {
      list {
        shape {
        }
      }
    }
  }
}
node {
  name: "sample_scan_7/TensorArrayStack/TensorArraySizeV3"
  op: "TensorArraySizeV3"
  input: "sample_scan_7/TensorArray_1"
  input: "sample_scan_7/while/Exit_4"
  attr {
    key: "_class"
    value {
      list {
        s: "loc:@sample_scan_7/TensorArray_1"
      }
    }
  }
  attr {
    key: "_output_shapes"
    value {
      list {
        shape {
        }
      }
    }
  }
}
node {
  name: "sample_scan_7/TensorArrayStack/range/start"
  op: "Const"
  attr {
    key: "_class"
    value {
      list {
        s: "loc:@sample_scan_7/TensorArray_1"
      }
    }
  }
  attr {
    key: "_output_shapes"
    value {
      list {
        shape {
        }
      }
    }
  }
  attr {
    key: "dtype"
    value {
      type: DT_INT32
    }
  }
  attr {
    key: "value"
    value {
      tensor {
        dtype: DT_INT32
        tensor_shape {
        }
        int_val: 0
      }
    }
  }
}
node {
  name: "sample_scan_7/TensorArrayStack/range/delta"
  op: "Const"
  attr {
    key: "_class"
    value {
      list {
        s: "loc:@sample_scan_7/TensorArray_1"
      }
    }
  }
  attr {
    key: "_output_shapes"
    value {
      list {
        shape {
        }
      }
    }
  }
  attr {
    key: "dtype"
    value {
      type: DT_INT32
    }
  }
  attr {
    key: "value"
    value {
      tensor {
        dtype: DT_INT32
        tensor_shape {
        }
        int_val: 1
      }
    }
  }
}
node {
  name: "sample_scan_7/TensorArrayStack/range"
  op: "Range"
  input: "sample_scan_7/TensorArrayStack/range/start"
  input: "sample_scan_7/TensorArrayStack/TensorArraySizeV3"
  input: "sample_scan_7/TensorArrayStack/range/delta"
  attr {
    key: "Tidx"
    value {
      type: DT_INT32
    }
  }
  attr {
    key: "_class"
    value {
      list {
        s: "loc:@sample_scan_7/TensorArray_1"
      }
    }
  }
  attr {
    key: "_output_shapes"
    value {
      list {
        shape {
          dim {
            size: -1
          }
        }
      }
    }
  }
}
node {
  name: "sample_scan_7/TensorArrayStack/TensorArrayGatherV3"
  op: "TensorArrayGatherV3"
  input: "sample_scan_7/TensorArray_1"
  input: "sample_scan_7/TensorArrayStack/range"
  input: "sample_scan_7/while/Exit_4"
  attr {
    key: "_class"
    value {
      list {
        s: "loc:@sample_scan_7/TensorArray_1"
      }
    }
  }
  attr {
    key: "_output_shapes"
    value {
      list {
        shape {
          dim {
            size: 1000
          }
          dim {
            size: 5
          }
          dim {
            size: 5
          }
        }
      }
    }
  }
  attr {
    key: "dtype"
    value {
      type: DT_COMPLEX64
    }
  }
  attr {
    key: "element_shape"
    value {
      shape {
        dim {
          size: 5
        }
        dim {
          size: 5
        }
      }
    }
  }
}
node {
  name: "sample_scan_7/TensorArrayStack_1/TensorArraySizeV3"
  op: "TensorArraySizeV3"
  input: "sample_scan_7/TensorArray_2"
  input: "sample_scan_7/while/Exit_5"
  attr {
    key: "_class"
    value {
      list {
        s: "loc:@sample_scan_7/TensorArray_2"
      }
    }
  }
  attr {
    key: "_output_shapes"
    value {
      list {
        shape {
        }
      }
    }
  }
}
node {
  name: "sample_scan_7/TensorArrayStack_1/range/start"
  op: "Const"
  attr {
    key: "_class"
    value {
      list {
        s: "loc:@sample_scan_7/TensorArray_2"
      }
    }
  }
  attr {
    key: "_output_shapes"
    value {
      list {
        shape {
        }
      }
    }
  }
  attr {
    key: "dtype"
    value {
      type: DT_INT32
    }
  }
  attr {
    key: "value"
    value {
      tensor {
        dtype: DT_INT32
        tensor_shape {
        }
        int_val: 0
      }
    }
  }
}
node {
  name: "sample_scan_7/TensorArrayStack_1/range/delta"
  op: "Const"
  attr {
    key: "_class"
    value {
      list {
        s: "loc:@sample_scan_7/TensorArray_2"
      }
    }
  }
  attr {
    key: "_output_shapes"
    value {
      list {
        shape {
        }
      }
    }
  }
  attr {
    key: "dtype"
    value {
      type: DT_INT32
    }
  }
  attr {
    key: "value"
    value {
      tensor {
        dtype: DT_INT32
        tensor_shape {
        }
        int_val: 1
      }
    }
  }
}
node {
  name: "sample_scan_7/TensorArrayStack_1/range"
  op: "Range"
  input: "sample_scan_7/TensorArrayStack_1/range/start"
  input: "sample_scan_7/TensorArrayStack_1/TensorArraySizeV3"
  input: "sample_scan_7/TensorArrayStack_1/range/delta"
  attr {
    key: "Tidx"
    value {
      type: DT_INT32
    }
  }
  attr {
    key: "_class"
    value {
      list {
        s: "loc:@sample_scan_7/TensorArray_2"
      }
    }
  }
  attr {
    key: "_output_shapes"
    value {
      list {
        shape {
          dim {
            size: -1
          }
        }
      }
    }
  }
}
node {
  name: "sample_scan_7/TensorArrayStack_1/TensorArrayGatherV3"
  op: "TensorArrayGatherV3"
  input: "sample_scan_7/TensorArray_2"
  input: "sample_scan_7/TensorArrayStack_1/range"
  input: "sample_scan_7/while/Exit_5"
  attr {
    key: "_class"
    value {
      list {
        s: "loc:@sample_scan_7/TensorArray_2"
      }
    }
  }
  attr {
    key: "_output_shapes"
    value {
      list {
        shape {
          dim {
            size: 1000
          }
          dim {
            size: 5
          }
        }
      }
    }
  }
  attr {
    key: "dtype"
    value {
      type: DT_FLOAT
    }
  }
  attr {
    key: "element_shape"
    value {
      shape {
        dim {
          size: 5
        }
      }
    }
  }
}
node {
  name: "transpose_7/perm"
  op: "Const"
  attr {
    key: "_output_shapes"
    value {
      list {
        shape {
          dim {
            size: 2
          }
        }
      }
    }
  }
  attr {
    key: "dtype"
    value {
      type: DT_INT32
    }
  }
  attr {
    key: "value"
    value {
      tensor {
        dtype: DT_INT32
        tensor_shape {
          dim {
            size: 2
          }
        }
        tensor_content: "\001\000\000\000\000\000\000\000"
      }
    }
  }
}
node {
  name: "transpose_7"
  op: "Transpose"
  input: "sample_scan_7/TensorArrayStack_1/TensorArrayGatherV3"
  input: "transpose_7/perm"
  attr {
    key: "T"
    value {
      type: DT_FLOAT
    }
  }
  attr {
    key: "Tperm"
    value {
      type: DT_INT32
    }
  }
  attr {
    key: "_output_shapes"
    value {
      list {
        shape {
          dim {
            size: 5
          }
          dim {
            size: 1000
          }
        }
      }
    }
  }
}
versions {
  producer: 26
}
